checkpoint_critic.pth (torch_old, 45944 bytes, 9 tensors)

fcs1.weight f4 [128, 24]
0	0x3f3ebeba	0.74509776
1	0x3e01c9f4	0.12674695
2	0xbd50fee7	-0.051024344
3	0x3e64d681	0.22347452
4	0x3f1670ef	0.58766073
5	0x3f85fbfb	1.0467523
6	0xbe100693	-0.14065008
7	0x3e9737d3	0.29534778
8	0x3ee7ae98	0.45250392
9	0x3dd10be9	0.1020735
10	0x3e07bd5e	0.13255832
11	0x3ea14d56	0.31504315
12	0xbdd2328d	-0.10263548
13	0x3f143d99	0.5790649
14	0xbd3bfd30	-0.045895755
15	0x3e8fd21b	0.28089985
16	0x3db51992	0.08842768
17	0xbb071113	-0.0020609542
18	0x3db93a8b	0.09044369
19	0x3d8e8fba	0.069610074
20	0xbe8abb80	-0.27096176
21	0x3f0f7093	0.5603115
22	0x3e8f2f15	0.27965608
23	0x3de21ff4	0.11041251
24	0xbef464d0	-0.47733164
25	0x3e95f10f	0.29285476
26	0x3f08272c	0.5318477
27	0x3cc135aa	0.02358516
28	0x3f291b71	0.660575
29	0xbec120c9	-0.37720326
30	0x3ed30bae	0.41219848
31	0xbcbe14e4	-0.02320332
32	0x3e62e1a1	0.22156383
33	0x3f13faed	0.5780476
34	0xbd4050d4	-0.046952084
35	0xbeb96a9f	-0.36214158
36	0xbc957227	-0.018242909
37	0xbefb575c	-0.49090087
38	0xbc03f043	-0.008052888
39	0xbea8b555	-0.32950845
40	0x3e9b9e1f	0.30394074
41	0x3ed63a11	0.41841176
42	0x3e275c11	0.16343714
43	0x3debdea8	0.11517078
44	0xbf015650	-0.5052233
45	0xbee72799	-0.45147398
46	0xbd89d144	-0.067293674
47	0x3e59758e	0.2123625
48	0xbe94b8f6	-0.29047364
49	0xbeffca1d	-0.49958888
50	0x3de43c94	0.11144367
51	0x3e6fb700	0.23409653
52	0x3e2d218f	0.16907333
53	0x3f086c95	0.53290683
54	0xbcc05cb5	-0.023481706
55	0x3df9a429	0.12189514
56	0xbd6b37cd	-0.057426263
57	0xbeaf7c4e	-0.34274524
58	0xbdb54142	-0.088503376
59	0x3a8ee791	0.0010902752
60	0xbe685a66	-0.22690734
61	0x3f15fb1d	0.58586293
62	0x3d2d7163	0.042344462
63	0x3d8d5d11	0.06902517
64	0xbe84bc84	-0.25925076
65	0xbf39facc	-0.7264831
66	0x3d61b36e	0.055102758
67	0xbdb6564d	-0.08903179
68	0xbf1dae7a	-0.61594355
69	0x3f93f437	1.1558903
70	0x3dbdb98c	0.09263906
71	0xbdf95db8	-0.121760786
72	0xbec1febc	-0.3788966
73	0x3f2fd39d	0.6868227
74	0xbde46323	-0.11151721
75	0x3ed7bed9	0.42137793
76	0x3f0cf749	0.5506483
77	0xbecffc42	-0.40622145
78	0x3de3e434	0.11127511
79	0x3f18f322	0.5974599
80	0xbe24a3e7	-0.16078149
81	0x3f6c2b71	0.92253786
82	0xbe14f2c0	-0.14545727
83	0x3dcead8e	0.10091697
84	0x3d59407e	0.05304002
85	0xbe6628d2	-0.22476509
86	0x3d23827f	0.039919373
87	0x3e19c73a	0.15017405
88	0x3daf8083	0.085694335
89	0x3f895c50	1.0731297
90	0x3e3ac54d	0.18239327
91	0xbf2d9ef6	-0.6782068
92	0xbefb31fc	-0.49061573
93	0x3ded8b74	0.11598864
94	0xbe2ce489	-0.16884054
95	0xbf278f2a	-0.65452826
96	0xbe9a208c	-0.30102956
97	0x3e428dc3	0.1899939
98	0xbd3d59b1	-0.046228115
99	0x3c7e9bb4	0.015540052
100	0x3eaaf1ec	0.33387697
101	0x3dbaa75f	0.09113955
102	0x3d564c37	0.052318778
103	0xbcc0e436	-0.02354632
104	0xbe9bbb0d	-0.30416146
105	0x3e8b40e7	0.27197954
106	0x3db81229	0.08987839
107	0xbe8df96d	-0.2772936
108	0x3e016b81	0.12638666
109	0x3f8c5adc	1.0965228
110	0x3c77676e	0.015100343
111	0xbe8066c5	-0.25078407
112	0xbe93f95d	-0.28901187
113	0xbe7a903f	-0.24469088
114	0xbc3d7e4f	-0.011565759
115	0xbdd6c765	-0.1048725
116	0xbe2b62d5	-0.1673692
117	0x400e6113	2.224675
118	0xbe011129	-0.12604202
119	0xbe2b2abb	-0.16715519
120	0x3eab7cc1	0.33493617
121	0x3e2bffda	0.16796818
122	0x3d6cc843	0.057808172
123	0x3ddd199d	0.10795901
124	0xbf3766a8	-0.71641016
125	0xbe9c62e9	-0.30544212
126	0xbd9a6712	-0.0753919
127	0x3cb96aa1	0.022633852
128	0x3cdc8269	0.026917653
129	0xbf37be7e	-0.71775043
130	0x3e2b9732	0.16756895
131	0xbe0cd2ea	-0.13752332
132	0xbf4668c7	-0.7750363
133	0x3f0668c0	0.52503586
134	0xbe0d0742	-0.137723
135	0x3e0475ac	0.12935513
136	0xbe5ed709	-0.21761717
137	0xbf694e90	-0.911355
138	0x3e246055	0.16052373
139	0x3e015970	0.12631774
140	0xbdb2aeb4	-0.08724728
141	0x3fc9e078	1.5771627
142	0xbdbdb418	-0.09262866
143	0x3e387bae	0.1801593
144	0xbda256eb	-0.079267345
145	0x3fb38046	1.4023521
146	0xbdb565d3	-0.08857312
147	0x3c0eb731	0.008710668
148	0x3f08267a	0.5318371
149	0x3c95a839	0.018268691
150	0xbc4e1201	-0.012577535
151	0x3da8fd2d	0.082514144
152	0x3e101de6	0.14073905
153	0x3fdb0890	1.7111988
154	0xbdbd97e4	-0.092574865
155	0xbdf949ce	-0.1217228
156	0x3e9269e2	0.28596407
157	0xbe635638	-0.22200859
158	0xbe801217	-0.250138
159	0xbd41d9b2	-0.04732675
160	0xbf239340	-0.6389656
161	0x3f83b13b	1.0288461
162	0xbdf25990	-0.11833489
163	0xbe982f15	-0.2972342
164	0x3bb04f57	0.005380552
165	0xbdf97c93	-0.12181964
166	0xbd833778	-0.06407064
167	0xbe135fff	-0.14392088
168	0x3db972aa	0.090550736
169	0x3e90a786	0.2825281
170	0xbdf85e1a	-0.121273234
171	0xbddf046c	-0.10889515
172	0x3ed11552	0.4083658
173	0xbf07e457	-0.53082794
174	0x3d3b07be	0.04566168
175	0xbdff7f74	-0.12475482
176	0x3f17f56f	0.59358877
177	0x3ea86ecd	0.32897034
178	0x3e3b6d87	0.183035
179	0xbbfb16c0	-0.007662624
180	0x3f108bf4	0.5646355
181	0xbd7b2371	-0.061313096
182	0xbe466073	-0.1937273
183	0xbebc5af1	-0.36788133
184	0x3f33d225	0.7024253
185	0x3e14ccff	0.14531325
186	0x3d270206	0.040773414
187	0xbdf6bee9	-0.12048132
188	0x3fb19da9	1.3876239
189	0x3eeb5b1c	0.45967948
190	0x3dbcf4a5	0.0922635
191	0x3d768351	0.060183827
192	0xbf511226	-0.8166832
193	0xbda1085a	-0.07862921
194	0x3dba66f7	0.0910167
195	0xbe88ec55	-0.26742807
196	0x3e79a728	0.24380171
197	0xbec4878f	-0.38384673
198	0xbd32d6bb	-0.043661814
199	0xbe5dfa89	-0.21677603
200	0xbed577d4	-0.41692984
201	0x3df93e37	0.1217007
202	0x3e8100d3	0.2519594
203	0xbeecd405	-0.46255508
204	0x3e99868e	0.2998547
205	0xbeaeb9d2	-0.34126145
206	0x3ddf64fb	0.10907932
207	0xbf267a74	-0.650306
208	0xbeafbd34	-0.34324038
209	0xbb0a9b12	-0.0021149558
210	0x3e49f3c7	0.197219
211	0xbeab4e94	-0.33458388
212	0x3e11d8e1	0.14242889
213	0xbef6defc	-0.48217
214	0x3e434dc1	0.1907263
215	0xbebe1947	-0.3712866
216	0xbe1dfa84	-0.15427595
217	0x3f57e778	0.8433757
218	0x3d6d6112	0.0579539
219	0x3e87c475	0.26517072
220	0xbf356c85	-0.7086871
221	0x3e239fe3	0.1597896
222	0x3e216edd	0.15764947
223	0xbd003ac1	-0.031306032
224	0xbe9dd5c2	-0.30827147
225	0x3f211f7b	0.6293866
226	0xbbc20377	-0.005920823
227	0xbe5bd222	-0.21466878
228	0xbf39138c	-0.7229545
229	0x3ed23a04	0.41059887
230	0x3d0350ce	0.032059483
231	0xbb3d1bca	-0.0028855675
232	0xbde46f85	-0.11154083
233	0x3f22729a	0.6345612
234	0x3c62d048	0.013843603
235	0xbf0fcd68	-0.561728
236	0xbf0f824d	-0.560582
237	0x3e86327f	0.262104
238	0xbe060048	-0.13086045
239	0xbf322441	-0.6958657
240	0x3ebf36cb	0.3734649
241	0xbfce437d	-1.6114346
242	0xbc944b70	-0.018102378
243	0xbe040af5	-0.12894805
244	0x3e934907	0.28766653
245	0xbe855ecb	-0.26048884
246	0xbd1f00cd	-0.038819123
247	0x3e443210	0.19159722
248	0x3ef381db	0.4756001
249	0xbfa7be64	-1.3104978
250	0xbdb82ae3	-0.08992555
251	0x3ebc8437	0.36819622
252	0x3ec4cf79	0.3843954
253	0xbf061cf2	-0.5238792
254	0xbe23ad85	-0.15984161
255	0x3e6a0c97	0.22856365

fcs1.bias f4 [128]
0	0x3e0205eb	0.1269757
1	0xbcad3383	-0.021142727
2	0xbe48948c	-0.19587916
3	0x3e3e6208	0.18592083
4	0x3d38bc99	0.045101736
5	0x3d551e0d	0.05203061
6	0x3e2eda82	0.17075542
7	0xbe38ed4f	-0.18059276
8	0x3de45729	0.11149437
9	0x3c26bc15	0.010176678
10	0xbd8ce15c	-0.068789214
11	0xbd87a61b	-0.06623479
12	0x3df3d4d3	0.119058274
13	0xbc50abf7	-0.012736312
14	0xbe359b2f	-0.17734979
15	0xbc71671b	-0.014734055
16	0xbdb2b1f2	-0.087253466
17	0xbe4137a3	-0.1886888
18	0x3e3dd81f	0.18539475
19	0xbdde27e7	-0.108474545
20	0x3ae00c23	0.0017093461
21	0xbe2e6e7e	-0.17034337
22	0xbe21b3ea	-0.15791288
23	0x3df81464	0.12113264
24	0xbd53703d	-0.05162071
25	0xbe4ecbd0	-0.20194936
26	0xbd98bdf5	-0.074581064
27	0xbd951eaa	-0.07281239
28	0xbd9188eb	-0.07106193
29	0xbe33cc1b	-0.17558329
30	0xbe1e349b	-0.15449755
31	0xbe44d835	-0.19223101
32	0xbdbdab04	-0.09261134
33	0x3da3aa6a	0.07991488
34	0xbdb35302	-0.08756067
35	0x3df92b4f	0.121664636
36	0xbd706d0c	-0.058697745
37	0x3c030485	0.007996683
38	0x3dd64c50	0.10463774
39	0xbe23fb40	-0.16013813
40	0xbdbf050e	-0.09327136
41	0xbdb4d848	-0.08830315
42	0xbe32aecb	-0.1744949
43	0xbd8bf363	-0.06833532
44	0xbc213208	-0.009838589
45	0xbe1d67d0	-0.15371633
46	0x3dde4213	0.108524464
47	0x3e098068	0.1342789
48	0xbe1f0f21	-0.15533115
49	0xbe403051	-0.18768431
50	0xbde27f0f	-0.11059391
51	0x3da782e8	0.08179265
52	0xbceceb4a	-0.028920788
53	0xbe3e8127	-0.18603955
54	0xbdaa613e	-0.08319329
55	0x3cef0b6c	0.029180251
56	0x3e3bebd5	0.18351682
57	0xbe028638	-0.12746513
58	0x3d32e906	0.04367926
59	0xbe140f7a	-0.14459029
60	0xbc8f9a8d	-0.01752975
61	0x3dc5e07d	0.09661958
62	0xbe2b011d	-0.16699643
63	0x3e110b34	0.1416443
64	0xbe1979ea	-0.14987913
65	0xbd157425	-0.036487717
66	0xbe122542	-0.14272025
67	0xbdeb70e9	-0.11496145
68	0x3da27ca4	0.079339296
69	0xbdf81743	-0.12113812
70	0xbd5a6a6d	-0.05332415
71	0x3e2aeba9	0.1669146
72	0x3dfc0f18	0.123075664
73	0x3e3cd560	0.18440771
74	0x3b71e04d	0.0036907375
75	0xbbff0a5f	-0.0077832188
76	0x3d9ec1e8	0.077518284
77	0xbdfb9fa4	-0.122863084
78	0xbe3d935c	-0.18513244
79	0x3e3fc9aa	0.18729272
80	0xbe1621a9	-0.14661278
81	0xbca2c11c	-0.019867472
82	0xbdfaec3a	-0.12252088
83	0xbe42f53b	-0.1903886
84	0x3df5a76a	0.11994822
85	0xbcd36053	-0.025802767
86	0xbd632a03	-0.055459987
87	0x3dcd9312	0.10037817
88	0x3d740028	0.05957046
89	0x3d61a3ca	0.055087842
90	0xbe39a9d2	-0.18131188
91	0xbdc2e844	-0.095169574
92	0xbc69084f	-0.014223172
93	0x3e041627	0.12899075
94	0xbe02292b	-0.12711017
95	0xbe4d1024	-0.20025688
96	0xbd81ff66	-0.063475415
97	0x3e47cd0f	0.19511817
98	0xbde96d81	-0.11397839
99	0xbde541d2	-0.11194195
100	0x3d8c2fcb	0.06845053
101	0x3d94a01e	0.072571024
102	0xbe479add	-0.1949267
103	0xbdc9650d	-0.09833727
104	0xbca9ec8e	-0.02074268
105	0x3d93bb30	0.072134376
106	0x3e2bae48	0.16765702
107	0x3dd6a4f9	0.10480685
108	0x3e41e795	0.18935998
109	0xbc6c05a0	-0.014405638
110	0xbd811c05	-0.063041724
111	0x3d8e4aaf	0.069478385
112	0x3e37a7db	0.17935126
113	0xbd1e68f2	-0.038674302
114	0xbdcedae6	-0.10100345
115	0xbda9b6b6	-0.082868025
116	0xbc979775	-0.018504838
117	0x3d80d298	0.062901676
118	0xbe492f40	-0.1964693
119	0xbc84d519	-0.016214894
120	0x3dd1904b	0.102326
121	0xbaf46c8b	-0.0018648071
122	0xbac70458	-0.001518379
123	0xbc8b787f	-0.01702523
124	0xbd471670	-0.048605382
125	0xbd6a62e0	-0.0572232
126	0xbd647001	-0.055770878
127	0x3dba97ce	0.09110986

bn1.weight f4 [128]
0	0x3e7c14a0	0.24617243
1	0x3ecb983a	0.39764577
2	0x3ef8fae4	0.48628914
3	0x3ecf42d6	0.4048068
4	0x3ec52d5f	0.38511178
5	0x3f0edcb7	0.55805534
6	0x3ecc0ca3	0.3985339
7	0x3e83e4d6	0.25760525
8	0x3e4c2294	0.19935066
9	0x3e83566b	0.2565187
10	0x3ef41723	0.47673902
11	0x3f3ae7ad	0.7300976
12	0x3e751087	0.23932086
13	0x3eb28926	0.3487026
14	0x3f59b00a	0.8503424
15	0x3eacd481	0.33755878
16	0x3f12c1af	0.5732679
17	0x3e78ac0a	0.24284378
18	0x3e82bbd8	0.25533938
19	0x3e9ff347	0.31240293
20	0x3ed4773a	0.41497213
21	0x3f3db9db	0.7411172
22	0x3ee3e204	0.44508374
23	0x3e3a41a1	0.18189098
24	0x3e9c0176	0.30469865
25	0x3e82e58f	0.25565764
26	0x3e858e40	0.2608509
27	0x3ec5c2b5	0.38625112
28	0x3ea024a9	0.3127797
29	0x3e6cf43e	0.23140046
30	0x3ebc998a	0.3683589
31	0x3ebfc3a8	0.3745396
32	0x3fa2a978	1.2707968
33	0x3e83988c	0.25702322
34	0x3e4d4e54	0.20049411
35	0x3e89fa2a	0.26948673
36	0x3eb6deec	0.3571695
37	0x3f22f63b	0.6365697
38	0x3e90a52c	0.28251016
39	0x3eae3d31	0.3403106
40	0x3f04690e	0.517228
41	0x3ee178c1	0.4403744
42	0x3ebe6092	0.37183052
43	0x3e1399b6	0.14414105
44	0x3e9cac00	0.30599976
45	0x3eed969c	0.46403968
46	0x3ebb1679	0.36540583
47	0x3f4ad541	0.7923165
48	0x3eb56fc9	0.35436848
49	0x3e990490	0.29886293
50	0x3e9882db	0.29787335
51	0x3ec14c43	0.37753496
52	0x3f38700d	0.72045976
53	0x3e5ddc05	0.21665962
54	0x3f078683	0.52939624
55	0x406a82df	3.6642377
56	0x3f045082	0.51685345
57	0x3ee4d1e3	0.4469138
58	0x3ef738f0	0.48285627
59	0x3e6877a9	0.22701897
60	0x3ed509af	0.4160895
61	0x3e8965b6	0.26835412
62	0x3f489e29	0.78366333
63	0x3ebe04ed	0.37113133
64	0x3e8e4770	0.27788877
65	0x3ed0fc0e	0.40817302
66	0x3e9fceda	0.31212503
67	0x3eda13a3	0.42593107
68	0x3eb44187	0.35206243
69	0x3eb2f155	0.34949747
70	0x3edd8820	0.43267918
71	0x3ea6fbb6	0.32613915
72	0x3edb818c	0.42872274
73	0x3eda5f5c	0.42650878
74	0x3ef9a78e	0.48760647
75	0x3ee3fc9b	0.4452866
76	0x3f1b4d53	0.6066486
77	0x3e9c3845	0.3051168
78	0x3e89741e	0.26846403
79	0x3e826420	0.25467014
80	0x3f413929	0.75477844
81	0x3e3b43ce	0.18287584
82	0x3e7b8f4f	0.24566387
83	0x3ee0fb94	0.4394194
84	0x3ed55bd8	0.41671634
85	0x3f061489	0.52375084
86	0x3e22781a	0.15866128
87	0x3eae300a	0.34021026
88	0x3f4bf4c1	0.7967034
89	0x3f4361a8	0.76320887
90	0x3f0a1bcd	0.5394867
91	0x3f00b046	0.5026897
92	0x3f09e199	0.5385986
93	0x3eb53862	0.3539458
94	0x3ee2f83d	0.44330016
95	0x3e541bbe	0.20713708
96	0x3f14e8fe	0.5816802
97	0x3e83b364	0.25722802
98	0x3fa077de	1.253658
99	0x3f428716	0.75987375
100	0x3e6988b4	0.22806054
101	0x3e64f190	0.22357774
102	0x3f25e6b7	0.6480517
103	0x3e5690fa	0.20953742
104	0x3e8e8934	0.27839053
105	0x3ee75bcd	0.45187226
106	0x3ec5b947	0.38617918
107	0x3eaaa1e8	0.3332665
108	0x3eeab7d0	0.45843363
109	0x3f0685fb	0.5254819
110	0x3eab3cbd	0.33444777
111	0x3eb96ac5	0.3621427
112	0x3eb805eb	0.35942015
113	0x3e92cdd4	0.2867266
114	0x3eb98a35	0.36238256
115	0x3e90a539	0.28251055
116	0x3ebb9826	0.36639518
117	0x3f914a7a	1.1350853
118	0x3fae51d4	1.3618722
119	0x3ed9ce35	0.42540136
120	0x3f0d387d	0.5516432
121	0x3d97596f	0.07390105
122	0x3f0656c6	0.52476156
123	0x3efd247a	0.49441892
124	0x3e478a95	0.19486459
125	0x3f07bfd4	0.5302708
126	0x3e820299	0.25392607
127	0xbb33152f	-0.0027325859

bn1.bias f4 [128]
0	0xbe8f4bc1	-0.27987483
1	0xbeccbd75	-0.39988294
2	0xbed4c71d	-0.4155816
3	0xbe98a9e2	-0.2981711
4	0x3d445aee	0.04793828
5	0xbe6702f8	-0.22559726
6	0xbea464de	-0.32108206
7	0xbd8f82b4	-0.070073515
8	0x3d3c7336	0.04600831
9	0xbe9c999f	-0.30585954
10	0xbe870c43	-0.26376542
11	0xbe0af9f6	-0.13571915
12	0xbe8673d9	-0.2626026
13	0xbe7813e5	-0.24226339
14	0xbea80675	-0.32817426
15	0xbeb1f8d1	-0.34760144
16	0xbe925cd0	-0.28586435
17	0xbe094c2b	-0.13407962
18	0xbea24251	-0.3169122
19	0x3db7b5d7	0.0897023
20	0xbef065f9	-0.469528
21	0xbeb79643	-0.35856828
22	0xbee132f9	-0.43984202
23	0xbe3963db	-0.18104498
24	0xbe918e9a	-0.2842911
25	0x3d02fc91	0.031979147
26	0xbe6212ab	-0.22077434
27	0xbd9cff90	-0.07665932
28	0xbe4e9fb3	-0.20178108
29	0xbea59549	-0.32340458
30	0xbe264ab2	-0.16239432
31	0xbe16745d	-0.14692827
32	0x3df1e018	0.118103206
33	0xbe9111ca	-0.28333884
34	0xbd885d4c	-0.0665842
35	0xbeb11b90	-0.3459134
36	0xbe926358	-0.28591418
37	0xbeb74883	-0.3579751
38	0xbeaf6c3d	-0.34262267
39	0xbea12a96	-0.31477803
40	0xbe9fffb5	-0.31249776
41	0xbe83e0c2	-0.25757414
42	0xbe31a5fb	-0.17348473
43	0xbd80afa2	-0.06283499
44	0xbe921c55	-0.2853724
45	0xbe6843af	-0.22682069
46	0xbeae60ac	-0.3405813
47	0xbe91bd0b	-0.2846454
48	0xbe93fe51	-0.28904966
49	0x3c0215df	0.007939785
50	0xbeca4049	-0.3950217
51	0xbebc2b91	-0.3675199
52	0xbf53bacd	-0.8270691
53	0xbe611a58	-0.21982706
54	0xbeafb748	-0.3431952
55	0x3e4feea5	0.2030588
56	0xbe93bdd7	-0.28855774
57	0xbebbf939	-0.3671358
58	0xbe5963d1	-0.21229483
59	0xbd62ade8	-0.05534163
60	0xbe946b5f	-0.28988168
61	0xbe7c2af1	-0.24625756
62	0xbea3475d	-0.31890383
63	0xbeae9b7a	-0.34102994
64	0xbe74f2a9	-0.23920693
65	0xbea4ad37	-0.32163402
66	0xbe1c1349	-0.15241732
67	0xbebc5274	-0.36781657
68	0xbeaaf578	-0.33390403
69	0xbe21f907	-0.15817653
70	0x3cea7de6	0.028624486
71	0xbf00b540	-0.50276566
72	0x3dd63759	0.104597755
73	0x3d6860f9	0.056733105
74	0xbea15019	-0.31506422
75	0xbeeaf604	-0.4589082
76	0xbd766c0c	-0.060161635
77	0xbe9fb746	-0.31194514
78	0x3c312332	0.010811614
79	0xbee695a3	-0.4503604
80	0xbe135f79	-0.14391889
81	0xbdbd7aee	-0.092519626
82	0xbe99c0be	-0.30029863
83	0xbed9170e	-0.42400402
84	0xbea658e9	-0.32489708
85	0xbe92215a	-0.2854107
86	0x3b46a5ba	0.0030311183
87	0xbecc32f9	-0.3988264
88	0xbf07482e	-0.5284451
89	0x3d830f73	0.06399431
90	0xbd45ae32	-0.04826183
91	0xbe863cd0	-0.2621827
92	0x3bc71aed	0.006076208
93	0xbe688990	-0.22708726
94	0xbeeb6d5c	-0.45981872
95	0xbe31bc76	-0.17357048
96	0xbeb3bd58	-0.35105395
97	0xbe613f4e	-0.21996805
98	0xbe5acb44	-0.21366602
99	0x3de3959c	0.1111252
100	0xbde0bac4	-0.10973123
101	0xbe299264	-0.1655975
102	0xbebfdc46	-0.37472743
103	0xbe485cde	-0.19566676
104	0xbe3040fe	-0.17212293
105	0xbe8a4bfc	-0.27011096
106	0xbe6416be	-0.222743
107	0xbe8232b2	-0.25429302
108	0xbed25b7a	-0.41085416
109	0xbe770085	-0.24121292
110	0xbe5f351a	-0.217976
111	0xbf0ea3da	-0.5571877
112	0xbeaf7d53	-0.34275302
113	0xbe463bb1	-0.19358708
114	0xbe4221cf	-0.1895821
115	0xbe613a3e	-0.21994874
116	0xbe8bcf70	-0.273067
117	0xbe651271	-0.22370316
118	0xbda1f5a1	-0.07908178
119	0xbe21efed	-0.1581418
120	0xbe5b05c1	-0.21388914
121	0xbd1c27b5	-0.038123805
122	0x3e0ca0b4	0.13733178
123	0xbe4c056b	-0.19923942
124	0xbe33a1fa	-0.17542258
125	0xbf170941	-0.58998495
126	0xbeae5237	-0.340471
127	0xbd301125	-0.0429851

bn1.running_mean f4 [128]
0	0x3f210c9d	0.6290987
1	0xc0094e46	-2.1454024
2	0x416a76d6	14.654013
3	0xbf0cb694	-0.5496609
4	0x4197e7fc	18.988274
5	0x40e4e8f5	7.153437
6	0xc011cd00	-2.2781372
7	0xc12ea127	-10.914344
8	0x411f493a	9.955378
9	0x40c91891	6.284249
10	0xc101299a	-8.072657
11	0x41699c42	14.600649
12	0xc07cd4a2	-3.950478
13	0x412b9381	10.723512
14	0x40a03f19	5.0077024
15	0xc18a8e57	-17.319502
16	0x40c31321	6.096085
17	0x41150a66	9.315039
18	0xc193ef8e	-18.49197
19	0x416d8249	14.844308
20	0xbfbe3723	-1.4860576
21	0xbfb787a8	-1.4338274
22	0x4073aaea	3.8073068
23	0xc10233a0	-8.137604
24	0x40df27ea	6.9736223
25	0x402dac6d	2.713649
26	0xc19746e6	-18.909618
27	0x413af0a4	11.68375
28	0x3fae7552	1.3629553
29	0x40eef544	7.4674397
30	0xc125a0da	-10.35177
31	0x40df86ac	6.9851894
32	0x3f7b4582	0.98152936
33	0x410433ff	8.262694
34	0xc0bbf2f5	-5.873408
35	0xc0dcd619	-6.901135
36	0xc16d5095	-14.832173
37	0x3f939569	1.1529971
38	0xc084be3d	-4.1482224
39	0x407a17d4	3.9077044
40	0xc17e3151	-15.88704
41	0xc0988097	-4.765697
42	0x412c9538	10.78643
43	0xc0917727	-4.545795
44	0x401f0560	2.484703
45	0x4110448a	9.016733
46	0xc11e3daa	-9.890055
47	0xc18a97a2	-17.32404
48	0x406882c3	3.632981
49	0x40fdcc95	7.9312234
50	0xc027b9b0	-2.6207085
51	0x40f67ad1	7.702492
52	0xc1901f80	-18.01538
53	0xc093c44e	-4.617713
54	0x412d1052	10.816484
55	0x3f01db38	0.50725126
56	0x409e0a59	4.938763
57	0x412aa77a	10.665888
58	0x40be26de	5.9422445
59	0xc0844298	-4.133129
60	0x40d37c92	6.6089563
61	0xbd768d69	-0.060193453
62	0xc1532266	-13.195898
63	0xc07d015a	-3.9532075
64	0x40c758d6	6.229594
65	0x41846676	16.55003
66	0xc1477271	-12.46544
67	0xc154c8f2	-13.299059
68	0x411eee6c	9.933208
69	0x416da5ba	14.852961
70	0x408f46f2	4.4774103
71	0xc130afd4	-11.042927
72	0x3fc0c3f9	1.5059806
73	0xc1459383	-12.348514
74	0xc08e0878	-4.438534
75	0xbf349336	-0.70537126
76	0xc0e82214	-7.25416
77	0x3fe003ac	1.750112
78	0xc10c6eb5	-8.777028
79	0xbf158973	-0.58412856
80	0x407874e5	3.8821347
81	0xc0e0dc8d	-7.0269227
82	0xc0934e80	-4.6033325
83	0x413fac33	11.979541
84	0x40577920	3.366768
85	0x4154f4d5	13.309773
86	0x40b5b0a2	5.6778116
87	0xc12a20be	-10.632994
88	0xc0c640da	-6.1954165
89	0xc16d025d	-14.813077
90	0xc0892ae8	-4.2864876
91	0x41761624	15.380405
92	0x411989f3	9.596179
93	0x4139408f	11.578261
94	0xc169b101	-14.605714
95	0xc12a5764	-10.646336
96	0x40c2c347	6.0863376
97	0x413d942b	11.848674
98	0x3fc3bb47	1.5291528
99	0xc01f0b50	-2.4850655
100	0xbfa1c299	-1.2637511
101	0x40e927dd	7.286116
102	0xc169a13c	-14.601864
103	0x40ee73cd	7.451636
104	0xc102371a	-8.138453
105	0xc12e3664	-10.888279
106	0x40881e9f	4.253738
107	0xc071db05	-3.778993
108	0xc1c3503d	-24.414179
109	0x40214a22	2.5201497
110	0x40c1625b	6.0432563
111	0xc196e296	-18.860638
112	0xc013ce24	-2.3094568
113	0x40753b6e	3.8317523
114	0x402ac816	2.6684623
115	0x3e5fa593	0.21840505
116	0x3f9854a4	1.190083
117	0xc044389b	-3.065955
118	0x3fc32c58	1.5247908
119	0x40324e76	2.7860389
120	0x418440a6	16.531567
121	0x40b3ea4b	5.62235
122	0xbe0c6b1a	-0.13712731
123	0x40357811	2.8354533
124	0xc18dfba1	-17.747866
125	0xc0c0f22a	-6.029561
126	0x3f3ae0f1	0.72999483
127	0xc0b54361	-5.664475

bn1.running_var f4 [128]
0	0x42e68e5e	115.27806
1	0x43b6e285	365.76968
2	0x42394c23	46.324352
3	0x423f7f00	47.874023
4	0x42758f73	61.390087
5	0x42b104d3	88.50942
6	0x43056758	133.40369
7	0x436b36a2	235.21341
8	0x435ccab1	220.79176
9	0x4329ce78	169.80652
10	0x430a3789	138.21693
11	0x42e0a0ef	112.31432
12	0x431f801d	159.50044
13	0x4387e8a7	271.8176
14	0x411e582b	9.896525
15	0x4248df0f	50.21783
16	0x4337e397	183.88902
17	0x432377e2	163.46829
18	0x434cf271	204.94704
19	0x4236e71e	45.7257
20	0x42f23992	121.11244
21	0x43bd941b	379.15707
22	0x445c2d47	880.70746
23	0x4339e8af	185.90892
24	0x4341efc7	193.93663
25	0x4380e819	257.81326
26	0x4316e307	150.88683
27	0x4272e0da	60.71958
28	0x430babf4	139.67169
29	0x433607b9	182.03017
30	0x43845640	264.67383
31	0x42e763a2	115.694595
32	0x40e03db1	7.0075307
33	0x4284f4f9	66.47846
34	0x43666df5	230.42952
35	0x42d02492	104.07143
36	0x42be76ed	95.23228
37	0x4329edaa	169.92838
38	0x439b20e3	310.25693
39	0x431e0cd0	158.05005
40	0x42c4230c	98.06845
41	0x430127bb	129.1552
42	0x4360c720	224.77783
43	0x43724353	242.26299
44	0x42bbde8d	93.93467
45	0x41ccda63	25.606634
46	0x43258cbd	165.54976
47	0x42f847a3	124.139915
48	0x433ba2fa	187.63663
49	0x436f63b7	239.38951
50	0x43194bf4	153.29669
51	0x4355547d	213.33003
52	0x4325b488	165.7052
53	0x43007483	128.45512
54	0x42e8c605	116.38676
55	0x44812c3a	1033.3821
56	0x4375592d	245.34834
57	0x428cd841	70.42237
58	0x43907437	288.90793
59	0x442c7232	689.7843
60	0x437c7474	252.4549
61	0x43e66c7b	460.8475
62	0x425ce7c0	55.22632
63	0x4259aed6	54.42074
64	0x433f3345	191.20027
65	0x429b4b18	77.64667
66	0x433c2bf5	188.1717
67	0x431aa9d6	154.66342
68	0x44f6e745	1975.2272
69	0x433702f0	183.01147
70	0x419deda5	19.741037
71	0x428ea105	71.31449
72	0x41b66389	22.798601
73	0x43695823	233.34428
74	0x4360d000	224.8125
75	0x43237e6d	163.49385
76	0x429eb653	79.3561
77	0x43a9c4f8	339.53882
78	0x4260a776	56.163536
79	0x42ec73bb	118.226036
80	0x445ab35a	874.80237
81	0x431e9ec6	158.62021
82	0x440ad6e7	555.35785
83	0x43241cab	164.11198
84	0x44197190	613.7744
85	0x4233730a	44.862343
86	0x42b62700	91.07617
87	0x4354b43d	212.70406
88	0x42217473	40.36372
89	0x433e193c	190.09857
90	0x43062686	134.15048
91	0x43161eef	150.12083
92	0x42b72d25	91.58817
93	0x43ee7a69	476.95633
94	0x428d7674	70.73135
95	0x434507f8	197.03113
96	0x43419015	193.56282
97	0x42c4af3a	98.34224
98	0x43a39321	327.14944
99	0x4383dee0	263.7412
100	0x43058350	133.51294
101	0x42e53404	114.60159
102	0x434f0c29	207.0475
103	0x4370bdcc	240.7414
104	0x4314e019	148.87538
105	0x432c1b4a	172.1066
106	0x42c51668	98.54376
107	0x42b721f8	91.566345
108	0x42a0eebe	80.46629
109	0x43a0c51b	321.5399
110	0x42d5caf2	106.89638
111	0x430dc124	141.75446
112	0x4248a9cf	50.16583
113	0x42f5a229	122.81672
114	0x4277f293	61.98689
115	0x430342b5	131.26057
116	0x4338ebe8	184.92151
117	0x43db141d	438.15714
118	0x4451830a	838.0475
119	0x4415bcfe	598.953
120	0x42f97138	124.72113
121	0x433c63c8	188.38977
122	0x40f173a1	7.545365
123	0x42d3fcf6	105.994064
124	0x42bad535	93.41642
125	0x438517cf	266.186
126	0x431b30ab	155.19011
127	0x43114fa9	145.31117

fc2.weight f4 [56, 130]
0	0x3e05da26	0.13071498
1	0x3d7c4fcb	0.061599534
2	0x3cd7ff17	0.026366754
3	0xbef1af90	-0.47204256
4	0xbf19d466	-0.6008972
5	0xbe8c43ab	-0.27395377
6	0xbebc956a	-0.36832744
7	0x3d69b059	0.057052944
8	0xbdb50ba6	-0.088401124
9	0xbcff04e4	-0.031130262
10	0xbf3a7dc8	-0.72848177
11	0xbf119514	-0.568681
12	0x3c992e2b	0.018698772
13	0xbf14bda3	-0.5810186
14	0xbf04a601	-0.518158
15	0x3dfe01aa	0.12402661
16	0xbd7073b2	-0.058704086
17	0xbe42ffcc	-0.19042891
18	0x3dacc483	0.08435919
19	0xbd012943	-0.03153349
20	0xbd3c95dc	-0.046041355
21	0x3e919c9a	0.2843979
22	0xbe56a415	-0.2096103
23	0xbe911b3e	-0.28341097
24	0xbe9558e2	-0.29169375
25	0xbde4bd22	-0.11168887
26	0x3cf20950	0.029545456
27	0xbcaa176a	-0.020763118
28	0xbef2f33d	-0.474512
29	0x3d9975e3	0.07493188
30	0xbdff93da	-0.12479372
31	0xbf4b22d3	-0.7935001
32	0xbd9c5096	-0.07632558
33	0xbde9a239	-0.11407895
34	0xbe88b437	-0.26699993
35	0xbf641615	-0.89096195
36	0x3e244426	0.16041622
37	0xbcdd70f4	-0.0270314
38	0xbe482ae0	-0.19547606
39	0xbe7eda6a	-0.24888006
40	0x3dd6d21f	0.10489296
41	0xbda8fd19	-0.082513995
42	0xbe147217	-0.14496647
43	0xbf0d178f	-0.5511407
44	0xbe1608aa	-0.14651743
45	0xbe20c0c9	-0.15698542
46	0x3dc5e3e6	0.09662609
47	0x3e9020ba	0.28149968
48	0xbda96a53	-0.08272233
49	0xbe1ae1c9	-0.15125193
50	0x3badeb86	0.0053076176
51	0x3df20c66	0.11818771
52	0xbd165500	-0.036702156
53	0xbe5e13b7	-0.21687208
54	0x3cf2bdfa	0.029631604
55	0xbf43c116	-0.764665
56	0x3e56b3a0	0.20966959
57	0xbed34ac2	-0.41267973
58	0x3e360452	0.17775086
59	0xbf8d0574	-1.1017289
60	0xbe8f9d87	-0.2804987
61	0x3e41634f	0.1888554
62	0xbe36e59e	-0.1786103
63	0xbe53fd36	-0.20702061
64	0x3d248f1a	0.040175535
65	0xbb83cb21	-0.0040220176
66	0xbd68acb3	-0.056805324
67	0x3e613afc	0.21995157
68	0xbe6b764c	-0.22994345
69	0xbe2cbfa1	-0.16869976
70	0xbe9a1400	-0.30093384
71	0x3d93075f	0.0717914
72	0xbed583af	-0.4170203
73	0xbe203c7a	-0.1564807
74	0x3db1d84a	0.08683832
75	0x3d5895a2	0.052877076
76	0xbf0e8f21	-0.5568715
77	0xbd965b3b	-0.073416196
78	0x3d4450d8	0.04792866
79	0xbdcd554e	-0.10026036
80	0xbfed35d7	-1.8532056
81	0xbda35d94	-0.07976833
82	0xbe8bf39c	-0.27334297
83	0x3dbf9f1d	0.0935652
84	0x3c2f79ae	0.010710163
85	0x3dcee232	0.10101737
86	0xbd76e8c0	-0.06028056
87	0xbe0a0dcf	-0.1348183
88	0xbf0f14d1	-0.5589114
89	0x3e9a86ee	0.30181068
90	0xbf2ff710	-0.6873636
91	0x3dcf46c4	0.10120919
92	0xbda325e8	-0.079662144
93	0xbdea21dd	-0.1143224
94	0x3e76edd8	0.24114168
95	0xbde26328	-0.11054069
96	0xbe172b8c	-0.14762706
97	0xbf423ab5	-0.7587083
98	0xbe917bbd	-0.28414717
99	0xbe76e65e	-0.24111316
100	0xbe56ca67	-0.20975648
101	0xbe995e9d	-0.29954997
102	0xbe109c3e	-0.14122102
103	0xbdf672c7	-0.12033611
104	0xbe669a45	-0.22519787
105	0xbd986343	-0.07440808
106	0xbe005eb2	-0.12536123
107	0xbda13117	-0.07870691
108	0x3e8974af	0.26846835
109	0x3db58747	0.08863693
110	0xbe879f01	-0.26488498
111	0x3c0852a1	0.0083204815
112	0xbf34a67c	-0.70566535
113	0xbdb1ca54	-0.08681169
114	0x3cc8c27f	0.024506805
115	0xbc9839be	-0.018582221
116	0x3d7a8d7b	0.061170083
117	0x3c0f5a52	0.008749561
118	0xbdb4fb5a	-0.08837004
119	0xbf92db06	-1.1473091
120	0xbdde8e91	-0.10867036
121	0x3dfc07be	0.12306164
122	0xbe87b7c0	-0.26507378
123	0xbed12b8b	-0.40853533
124	0xbc2f86dd	-0.010713306
125	0xbea534ae	-0.32266754
126	0x3c7c4187	0.015396482
127	0xbd9a3da7	-0.075312905
128	0xbe51abb6	-0.20475659
129	0xbe662146	-0.2247363
130	0x3bf9eb6c	0.0076269414
131	0xbe069f62	-0.13146737
132	0xbe4b65b2	-0.19863012
133	0xbbd27ae1	-0.0064233397
134	0xbd9a3e93	-0.07531466
135	0xbc9925c6	-0.01869477
136	0x3e5fe481	0.21864511
137	0xbbd02db4	-0.0063531045
138	0xbaa0ad53	-0.0012258686
139	0xbe18931e	-0.14899871
140	0xbebc1cce	-0.36740726
141	0xbe003321	-0.12519504
142	0x3da03da2	0.078242555
143	0x3ddff5e8	0.10935575
144	0xbf2ac93b	-0.66713303
145	0x3eb551ab	0.3541387
146	0xbc569387	-0.013096697
147	0xbdcf9784	-0.10136321
148	0xbbe0517e	-0.006845652
149	0x3dacb8ce	0.08433686
150	0x3e11f30f	0.14252876
151	0x3dd53559	0.10410566
152	0x3d821b97	0.063529186
153	0xbe47b319	-0.19501914
154	0x3e7fedb3	0.24993019
155	0x3d067741	0.032828573
156	0x3deb975b	0.11503478
157	0xbdfd7f4d	-0.12377796
158	0xbcaca2be	-0.021073695
159	0xbdcbfd32	-0.099604025
160	0xbe5ab3d8	-0.21357667
161	0xbe2d0414	-0.16896087
162	0xbdb7cf32	-0.08975066
163	0xbebbb419	-0.3666084
164	0x3d2635a8	0.040578514
165	0xbd7a850d	-0.061162043
166	0xbe5d65ca	-0.2162086
167	0xbd61fce7	-0.055172827
168	0xbec871ea	-0.3914941
169	0x3e3da734	0.18520814
170	0xbf1bfbd8	-0.6093116
171	0x3df632b5	0.1202139
172	0xbe21da7d	-0.15806003
173	0xbe8fc1d6	-0.28077573
174	0xbc9dda34	-0.019269086
175	0xbd3ae9f9	-0.04563329
176	0x3df22022	0.11822535
177	0xbeb67df2	-0.35642964
178	0xbb6372c1	-0.003470585
179	0x3ce2427c	0.027619593
180	0xbe25e4d6	-0.16200575
181	0xbda3db13	-0.080007695
182	0xbe01d7c9	-0.12679972
183	0x3d730ca7	0.059338238
184	0xbc6658a4	-0.0140592195
185	0xbf9788f6	-1.1838672
186	0xbd25086b	-0.04029123
187	0xbd31d70f	-0.043417986
188	0x3e0af5f7	0.1357039
189	0xbc721776	-0.014776101
190	0x3e54d492	0.20784214
191	0xbeafe852	-0.34356934
192	0xbef15004	-0.4713136
193	0xbe84a444	-0.25906575
194	0x3c55d511	0.013051287
195	0xbe11751c	-0.1420483
196	0x3dd9d2db	0.106359206
197	0x3cc5d662	0.024150077
198	0xbdbc68c7	-0.09199672
199	0xbbe0a467	-0.006855536
200	0xbd0a3939	-0.033745978
201	0xbf3ff555	-0.7498372
202	0xbeef72b3	-0.46767196
203	0xbda2649c	-0.07929346
204	0x3e3c2f0e	0.18377325
205	0x3dbae6bb	0.091260396
206	0xbd2c877b	-0.04212139
207	0xbbd3cc5c	-0.0064635705
208	0xbe986015	-0.29760805
209	0xbb1318c4	-0.0022445181
210	0xbdb4bfb1	-0.08825625
211	0xbe3b8e1a	-0.18315926
212	0xbde71106	-0.11282544
213	0xbee7a1ba	-0.45240575
214	0xbd31276d	-0.04325049
215	0x3ecd5a50	0.40107965
216	0xbdaf6575	-0.08564273
217	0xbe3b937a	-0.18317977
218	0xbe652f54	-0.22381335
219	0xbde1245d	-0.10993264
220	0x3da7d673	0.081952
221	0x3d7e47dc	0.06208025
222	0x3dafd9fe	0.085865006
223	0xbc80ec1c	-0.015737586
224	0x3d93b072	0.07211389
225	0xbe7ab4b9	-0.24483003
226	0xbce837f3	-0.028346991
227	0x3deec906	0.11659436
228	0x3ceedf2a	0.029159147
229	0x3bcb5884	0.0062056202
230	0x3e2939af	0.16525911
231	0x3d55f43d	0.052234877
232	0x3ea29e45	0.31761375
233	0x3e6d79ee	0.23191044
234	0xbde2ab1c	-0.11067793
235	0x3e6b9a6b	0.23008125
236	0x3c1d24b1	0.009591267
237	0xbf106c7a	-0.5641552
238	0xbe274e67	-0.16338502
239	0xbc353173	-0.011059153
240	0x3e294d57	0.16533409
241	0xbf3e245a	-0.7427422
242	0xbdadf2de	-0.08493589
243	0xbca7ef51	-0.020499857
244	0xbe5d6780	-0.21621513
245	0xbdb2915c	-0.08719131
246	0x3e023b31	0.12717892
247	0xbe919cb4	-0.28439867
248	0x3e3a3d6e	0.18187496
249	0xbdfc35a9	-0.12314922
250	0xbdba764d	-0.09104595
251	0xbd6b25b4	-0.057409003
252	0xbd554044	-0.05206324
253	0xbe04a3d4	-0.1295312
254	0x3dcb91f8	0.09939951
255	0xbd6b03bf	-0.05737662

fc2.bias f4 [56]
0	0x3d0c78cf	0.0342949
1	0x3e96a7e5	0.29424968
2	0x3ed4e46f	0.4158053
3	0x3eafe15d	0.34351626
4	0xbca8f453	-0.020624315
5	0x3dbc0c56	0.091820404
6	0xbe181fde	-0.14855906
7	0x3e18e166	0.14929733
8	0x3d87f393	0.06638255
9	0xbdfc1eac	-0.12310538
10	0xbe0fd731	-0.14046933
11	0x3e3d30d4	0.18475658
12	0x3ee26858	0.44220233
13	0xbdfc92a2	-0.123326555
14	0xbdaa5dee	-0.08318697
15	0x3cb7bb6a	0.022428233
16	0x3e3e5a6c	0.1858918
17	0x3e609a18	0.21933782
18	0xbdc00d60	-0.09377551
19	0xbe04d375	-0.1297129
20	0xbe021fed	-0.12707491
21	0x3cde2bef	0.027120559
22	0x3d58f3d7	0.05296692
23	0xbdabae0a	-0.08382805
24	0x3d9ef82b	0.07762178
25	0xbe1f8b46	-0.15580472
26	0xbe472c9b	-0.1945061
27	0xbe2509d9	-0.16117038
28	0xbd036c3e	-0.03208565
29	0x3f06a1ba	0.52590525
30	0xbd936be8	-0.07198316
31	0xbe2d40d9	-0.16919269
32	0xbe0a191a	-0.13486138
33	0x3d29fe33	0.04150219
34	0xbe4219a2	-0.1895509
35	0x3e4189c8	0.18900216
36	0x3c5ecb1d	0.013598231
37	0x3e9cb24b	0.30604777
38	0xbdf0eda6	-0.11764078
39	0xbe522294	-0.20521003
40	0x3dc53470	0.09629142
41	0xbf21e4d5	-0.63239795
42	0x3d2e4ac6	0.04255178
43	0x3da113b8	0.07865089
44	0xbd031d4f	-0.032010373
45	0xbe7d2736	-0.24721989
46	0xbca344ad	-0.019930208
47	0xbd8b2d85	-0.067957915
48	0xbc54daab	-0.012991588
49	0xbd420cad	-0.04737537
50	0xbe38319f	-0.17987679
51	0xbebe7be9	-0.3720391
52	0xbdca407c	-0.09875581
53	0xbbd213c5	-0.006411048
54	0xb88e798e	-6.793729e-05
55	0xbddda5ab	-0.10822614

fc3.weight f4 [1, 56]
0	0xbea5bb17	-0.323693
1	0x3cc3f405	0.023920069
2	0xbc563a7b	-0.013075466
3	0x3d107585	0.035268325
4	0x3decb3e9	0.11557753
5	0x3e15672a	0.14590135
6	0xbd14c774	-0.036323026
7	0xbcf50e49	-0.029914038
8	0x3d8566b9	0.065137334
9	0x3dbc1f2f	0.09185635
10	0xbdf06bb9	-0.117392965
11	0x3d4b511f	0.04963791
12	0xbca31d9e	-0.019911584
13	0x3e0f9b35	0.1402405
14	0xbd10ccb2	-0.035351463
15	0x3d8d66e3	0.0690439
16	0x3cf5d725	0.030009815
17	0x3d4dab8a	0.05021242
18	0xbe73bb15	-0.23801835
19	0xbc6170fe	-0.01375985
20	0x3e7e9261	0.24860527
21	0x3dac3f7b	0.084105454
22	0x3deb8b0f	0.11501133
23	0x3da09caa	0.07842381
24	0x3d1ce8f7	0.03830811
25	0x3e561eb1	0.20910145
26	0x3995193e	0.00028438302
27	0xbd1a715e	-0.03770577
28	0xbc8ea18e	-0.01741102
29	0x3de2ac27	0.11067992
30	0x3ce511e5	0.027962634
31	0xbcbd4ed3	-0.023108875
32	0x3dc90ad9	0.09816522
33	0xbdd424bd	-0.1035857
34	0xbea8561e	-0.32878202
35	0x3d3440cd	0.04400711
36	0x3e7c2b42	0.24625877
37	0x3d368967	0.04456463
38	0xbd1796ef	-0.037009176
39	0xbc7d1c92	-0.015448706
40	0x3c9cf2e2	0.019158784
41	0xbc7ecf7a	-0.015552396
42	0xbe5d5be4	-0.21617085
43	0x3dd2826e	0.10278784
44	0xbd3be67f	-0.045874115
45	0xbcfbd06c	-0.030739032
46	0x3e9c4de7	0.30528185
47	0xbe8b9296	-0.27260274
48	0xbd5f91f0	-0.054582536
49	0x3c36f149	0.011165925
50	0xbcee8429	-0.029115753
51	0xbe9b1f37	-0.30297253
52	0xbe0340c1	-0.1281767
53	0x3e249d80	0.16075706
54	0x3d2bd1c5	0.0419481
55	0x3debbb8f	0.11510383
