checkpoint_actor.pth (torch_old, 43194 bytes, 6 tensors)

fc1.weight f4 [128, 24]
000000 8d 3b a8 3c 10 70 a5 bd b4 c9 44 bd 3f 48 48 bd
       0.020536209 -0.08078015 -0.04804392 -0.048897024
000010 19 28 37 3e 0c ab 7f 3e 25 f9 0c be 8d 36 bc 3c
       0.1788639 0.24967593 -0.13766916 0.02297523
000020 15 a7 9a bd e3 cc f9 bc e6 12 16 3e 77 3f b0 3c
       -0.075513996 -0.030493205 0.14655647 0.021514637
000030 64 58 2e be a5 a7 6d bd b5 a6 02 bd c6 e1 4e bc
       -0.17025906 -0.058021206 -0.031897265 -0.012627071
000040 4c 7a 0c 3d 31 a7 a3 bc 96 5a 78 bd 55 c6 14 3e
       0.03429632 -0.019977184 -0.060633264 0.14528783
000050 69 01 0e 3d e5 92 01 3e 15 aa 03 3e 99 8e 3e 3e
       0.034669314 0.12653692 0.1285785 0.18609084
000060 10 58 60 3d 5a 11 f7 bd 1a cb fb 3d 62 2e ea 3d
       0.054771483 -0.120638564 0.12294598 0.11434628
000070 3c d4 05 3e 90 9d bd 3d cd 55 58 3b 28 5c 8a 3d
       0.13069242 0.09258568 0.0033010126 0.06755859
000080 e6 3e 9a 3e 0a 1d 3d 3e 8e d7 44 3d 42 bb 7e bd
       0.30126113 0.18468109 0.04805713 -0.0621903
000090 18 2a 26 be cb ed d0 3d 00 16 b2 3d f8 20 f2 bc
       -0.16226995 0.102016054 0.086956024 -0.029556736
0000a0 b1 8b c5 3e ce 7f 29 bd 41 25 ad 3d 21 2c ae bd
       0.3858314 -0.04138165 0.08454371 -0.08504511
0000b0 8f c8 31 be 44 7c 05 3e ea b1 15 be 1f f6 46 3c
       -0.17361663 0.13035685 -0.1461865 0.012143641
0000c0 5e 3f d7 3d 01 6d 3f be a2 b7 f1 3d 9f 49 80 3d
       0.10510133 -0.18693925 0.11802603 0.06264042
0000d0 da e6 f6 3d 84 26 4a 3e ce 6f 8a bc 6a 01 4b bd
       0.1205575 0.19741255 -0.016899016 -0.049561895
0000e0 be 7f a6 bd 81 b0 fd bd 3c 3d 36 be b7 d5 06 3e
       -0.08129834 -0.12387181 -0.17796797 0.13167463
0000f0 7d 0b 0d be 25 cb 71 3e b5 ff 40 bd a8 66 4c 3e
       -0.13773914 0.2361265 -0.04711886 0.19961035
000100 c5 9b e2 3c a4 9a 2f be 6b 36 ec bd 84 4f 36 be
       0.027662167 -0.17148834 -0.11533817 -0.1780377
000110 48 8f 81 bd 9e 61 45 3e 10 57 9f bd 71 d3 57 be
       -0.06326157 0.19275519 -0.07780278 -0.21076752
000120 3e ca 40 be c4 74 5d 3e ef 9f 7d be c5 58 d2 3d
       -0.1882715 0.21626574 -0.24768041 0.10270838
000130 48 1d f4 3d b2 6f bf be df e4 cb bc e4 bd 8e 3e
       0.119196475 -0.37389904 -0.024889408 0.2787925
000140 c1 72 aa bc b4 69 f0 3b b0 2c 1e be 4f 49 6c be
       -0.020806672 0.0073368195 -0.15446734 -0.2307484
000150 68 08 2c bd 49 d1 a6 bd 80 35 fd 3c 05 d9 39 be
       -0.042000204 -0.08145387 0.0309093 -0.18149193
000160 21 bd 6c 3e fd 34 07 3e dc 39 5b 3e 76 13 fd bd
       0.23119022 0.13203807 0.2140879 -0.123572275
000170 e7 1b 20 be eb a9 90 be 06 70 0c be 78 95 cc bd
       -0.15635644 -0.28254637 -0.13714609 -0.099894464
000180 0d 83 8c 3d d6 11 7b be d3 37 05 be 28 ab 66 3e
       0.068609335 -0.24518523 -0.13009576 0.22526228
000190 85 7e 0e 3e 5d 46 ab 3e af 39 01 bd 05 a5 3e 3e
       0.13915451 0.3345212 -0.031549152 0.18617637
0001a0 70 97 51 be 94 6c 43 bd 29 56 35 3d 19 3e 73 bd
       -0.20467925 -0.04771097 0.04427162 -0.059385393
0001b0 0d 78 42 3d 7d e9 1d 3e 2d ea f9 bc 3d aa 06 bd
       0.04747777 0.154211 -0.030507172 -0.032877196
0001c0 8e b2 ed bc bb 7b c5 bc 1e d4 65 3c 27 d9 42 3e
       -0.029015806 -0.02410685 0.014027623 0.1902815
0001d0 ea 9b be 3c 28 2a 34 3e 4a b8 cd bd 22 12 03 3e
       0.023267705 0.17594206 -0.10044916 0.12799886
0001e0 84 9f 1f be bb ec 11 3e 89 8f 5f 3d 65 b7 7f 3e
       -0.15588194 0.14250462 0.054580245 0.24972303
0001f0 00 8c 05 be b5 ec 08 3e cb 03 a1 bd fc 57 28 3e
       -0.13041687 0.13371547 -0.078620516 0.16439813
000200 ae 8a 25 3e e4 a8 24 be c0 a4 05 3e 87 cc ec bd
       0.16166183 -0.16080052 0.13051128 -0.11562448
000210 57 26 2c be 78 c4 00 be b8 f9 32 be 36 e2 1a 3e
       -0.168115 -0.12574947 -0.17478073 0.15125355
000220 be b4 15 3e 96 a6 c2 bd dd 08 74 3d cd 5d e5 3e
       0.14619729 -0.0950443 0.059578765 0.44798127
000230 ac f7 cd 3c 3e 6e ae 3d 2d 38 46 be a5 77 00 3f
       0.025142513 0.08517121 -0.19357367 0.50182563
000240 20 8a b5 3d e7 ef f0 bd a1 58 0a 3d 5f 2b 14 3d
       0.08864236 -0.11764508 0.03377593 0.036174174
000250 4f bb 9c 3c e7 3b 7d be 0c d0 e0 3d ac 3b e1 3d
       0.019132284 -0.24729882 0.10977182 0.1099771
000260 80 d9 a4 bd aa eb c2 3d b8 37 8a 3d 14 6e 27 be
       -0.08049297 0.095176056 0.06748909 -0.16350585
000270 a9 f2 08 3e 90 40 97 be bb 78 b8 bd f3 7e b6 bd
       0.13373818 -0.29541445 -0.090074025 -0.089109324
000280 2e 22 5e be 59 30 75 be 04 da 8e bd f3 d0 35 bd
       -0.21692726 -0.23944224 -0.06975177 -0.044388723
000290 7b 35 ed 3c 58 4b 93 bc b1 c3 7d bc 97 14 df 3d
       0.028956166 -0.017980263 -0.015488551 0.10892599
0002a0 64 fb 92 3e c6 ad 1d 3c b4 15 d5 bc 7e 31 a0 bc
       0.2870742 0.00962395 -0.026011325 -0.01955485
0002b0 2a 80 a9 3d 53 c0 8e be 23 4e 10 3e 13 0e 11 bd
       0.082763985 -0.27881107 0.14092307 -0.035413813
0002c0 b0 3a a7 3e 0e 9f 9a 3d 67 95 36 3e cf 50 f2 3d
       0.32661963 0.075498685 0.1783043 0.11831819
0002d0 66 f0 17 bd 2d 4d cc be 97 38 4b be 99 b4 77 be
       -0.037094496 -0.3990263 -0.19845806 -0.24189986
0002e0 40 99 12 3c 93 0f e2 bd 1b 1a 23 bc 04 7c 4c bc
       0.00894767 -0.11038127 -0.0099549545 -0.0124807395
0002f0 5d 7d 62 3e fb d4 f4 3d c7 20 2a 3d 09 39 2c 3e
       0.22118135 0.11954685 0.041535165 0.16818632
000300 e7 a3 26 be a9 dc 0e be 34 d9 5a bd 6d 61 a9 3d
       -0.16273461 -0.13951363 -0.053429797 0.082705356
000310 fd e3 a8 3d b4 5d af 3d b8 9f 40 be d7 8e 08 3e
       0.0824661 0.08562794 -0.18810928 0.13335739
000320 6c 33 e1 bd 61 ae d9 3d 0c e6 f5 3d 50 a3 39 3d
       -0.10996136 0.10628963 0.120067686 0.045321763
000330 ee 1e 1f 3e 0b 87 cf 3d f1 dc ba bc e8 d7 11 be
       0.15539142 0.10133179 -0.022810431 -0.14242518
000340 c3 0c 9a bd 72 98 d4 3c a4 5e e7 3d 52 29 55 3e
       -0.07521965 0.025951598 0.11297348 0.20816544
000350 1b fd 0b 3d 25 38 dc bd 72 12 da 3d 96 93 2f 3e
       0.034176927 -0.10752896 0.106480494 0.17146143
000360 8a 4b 0f 3e f7 25 43 3e d8 54 92 bd 7a 53 97 3c
       0.1399366 0.19057451 -0.07145089 0.018472422
000370 15 df d0 bd 31 10 bc be df 61 e7 3c 08 57 8e be
       -0.101987995 -0.36731103 0.02824491 -0.27800775
000380 6c 5d ef bd 86 79 f2 bd d5 89 cd bd ef 59 8c be
       -0.11687741 -0.11839585 -0.10036055 -0.27412364
000390 a4 44 29 be 7b 46 80 bd 2c 82 7f bd 1e 58 7f bd
       -0.1653009 -0.06263443 -0.06238 -0.062339894
0003a0 ac 42 36 3e 49 67 08 3d f4 19 40 bd d9 6b 75 bc
       0.17798871 0.033301625 -0.04689975 -0.014979326
0003b0 44 63 55 bd 70 5c ad be 0b 34 44 be 56 b3 18 be
       -0.05209662 -0.33859587 -0.19160478 -0.14912161
0003c0 57 2f 06 3e 9f 93 9a 3b c4 2b d2 bd 11 c3 1d be
       0.13103996 0.004717305 -0.10262254 -0.15406443
0003d0 bf ba 5a 3e 3c 25 ce 3d 72 99 fc bd 4e 7a 2a 3e
       0.213603 0.10065696 -0.12333955 0.16648218
0003e0 a5 1f 82 bd 75 18 c0 bc 8c 56 61 bd 56 b2 f6 3c
       -0.06353692 -0.023449162 -0.05501418 0.030114334
0003f0 6e 15 33 3e ef 7f 9d 3d 03 db ff bd 03 49 e0 bd
       0.17488644 0.07690417 -0.12492945 -0.10951426

fc1.bias f4 [128]
000000 d2 a1 7c 3d e0 b1 e4 bd 0a a0 5b be 75 ad 3b 3d
       0.06167776 -0.111667395 -0.21447769 0.04581972
000010 9e f4 1a 3d c1 c4 62 3b cc ba 60 3e dc 7c 80 be
       0.03783094 0.0034602138 0.21946257 -0.2509526
000020 15 c9 36 3d 2b 87 de bb 43 28 f8 bd 06 83 ca bd
       0.04462536 -0.0067910156 -0.12117054 -0.09888272
000030 a8 c9 98 3d 42 0b b9 bd 56 0f 47 be 35 34 be bd
       0.07460338 -0.090353504 -0.19439444 -0.092873015
000040 b8 98 da bd 34 fd 83 be ef 1e b0 3d cb 67 b7 bd
       -0.1067366 -0.25779116 0.0859965 -0.08955344
000050 37 20 a4 3b 78 8a 38 be 30 42 5f be 0f 11 c5 3d
       0.005008723 -0.18021572 -0.21802592 0.09622394
000060 02 68 01 be a4 03 84 be 6b 65 18 be ca 29 a8 bd
       -0.12637332 -0.25784028 -0.14882438 -0.08211096
000070 56 e9 1a be 97 9b 3a be fd 6c 03 be 06 ff 86 be
       -0.15128073 -0.18223415 -0.12834544 -0.26366442
000080 85 8e ba bd f2 84 af 3c 0f 56 d4 bd 36 27 01 3e
       -0.09109215 0.021425698 -0.10367977 0.12612614
000090 65 0e 2a be 8b 47 00 be 17 df 4f 3d 6f 6c 46 be
       -0.16607054 -0.12527291 0.050749864 -0.19377302
0000a0 83 3b f5 bd b1 9a df bd da 41 53 be 03 f1 33 bd
       -0.119742416 -0.10918177 -0.20630589 -0.04393102
0000b0 0e 52 33 bd e8 b8 2f be 32 2e 36 3d 06 80 03 3e
       -0.043779425 -0.1716038 0.04447765 0.12841806
0000c0 fb 4c 51 be be 8f 38 be 4c 9e 18 be 13 f4 41 bc
       -0.20439522 -0.18023583 -0.14904135 -0.011837977
0000d0 97 fd 64 bd 2e 56 23 be b6 76 12 be 5d 9a 15 3c
       -0.055905905 -0.15950844 -0.14303097 0.009131041
0000e0 8b e2 0f 3e 02 87 ed bd dc 27 c9 3c 92 4c ea bd
       0.14051263 -0.11598016 0.02455514 -0.11440386
0000f0 8a 9c c8 bd bf 9d c9 3d cd cb 9f bd a3 64 c9 3d
       -0.097954825 0.09844541 -0.07802544 0.09833648
000100 6a 83 13 be 48 f0 d3 bd 25 d4 2d be c9 43 48 be
       -0.14405599 -0.103485644 -0.16975458 -0.19557108
000110 51 37 fd 3d 64 70 0f be 93 4f 88 bd 2a 25 0e 3e
       0.123640664 -0.14007717 -0.066558026 0.13881364
000120 b5 68 b2 3d 0a 60 a1 3e e5 1b 68 bc cc 70 8e 3a
       0.087113775 0.31518584 -0.014166807 0.0010867356
000130 ba 9e f3 3d d0 f8 43 be 1d ff 5c be 5e 8d 13 3e
       0.11895509 -0.19137883 -0.21581693 0.14409396
000140 89 78 35 be c2 62 ec bd 7b e3 27 be 71 c2 91 be
       -0.17721762 -0.11542274 -0.1639537 -0.2846866
000150 60 e4 89 3d 69 a1 70 3d ed f1 e9 bd 59 38 2a 3e
       0.06733012 0.058747683 -0.11423097 0.16623057
000160 07 2f 5d 3d 34 6d a4 3c 90 5f 01 be 89 f2 ef bd
       0.053999927 0.020071603 -0.1263411 -0.11716182
000170 80 5d e7 bc d1 12 7b 3d 30 ad 4c 3c e8 71 75 be
       -0.028242826 0.06129724 0.012492463 -0.23969233
000180 10 5d d0 bd 24 78 1a 3e 3d 68 15 be 12 56 ae bd
       -0.10174 0.15084893 -0.14590545 -0.0851251
000190 28 37 5c bb dc 61 88 bb 28 a8 4f be 03 fe f1 bd
       -0.0033602212 -0.0041620564 -0.2027899 -0.11816027
0001a0 93 e2 85 bd 78 11 bd b8 bd 69 64 3e bf 7f 3d 3d
       -0.06537356 -9.015476e-05 0.22305961 0.046264406
0001b0 6d 88 05 3e 43 66 8a bd 31 5f ff bd 9c 07 9e 3d
       0.13040324 -0.06757786 -0.12469328 0.07716295
0001c0 2f c3 30 3d 05 f0 1c bd 2b c2 27 be 54 35 12 be
       0.04315489 -0.038314838 -0.16382663 -0.14278156
0001d0 f9 79 dd bd 0a 50 24 3d 25 6a 72 be c5 e8 fa bc
       -0.1081428 0.040115394 -0.23673303 -0.030628571
0001e0 54 7b b0 3d a0 c4 3b 3d 45 79 35 3d 94 09 70 bd
       0.08617273 0.045841813 0.044305105 -0.058602884
0001f0 3e d0 44 3d 15 fe a0 3d 21 0d 3d be 2b 77 a1 3d
       0.048050158 0.07860962 -0.1846204 0.078840576

fc2.weight f4 [56, 128]
000000 cb 77 c1 bc 1a c7 a8 3d 3a ff d2 3d 20 89 b6 ba
       -0.023616692 0.082411006 0.10302587 -0.0013926364
000010 a6 82 9c 3d a3 0b 9f 3d 6c 7f d8 bb d7 19 ab bb
       0.07642107 0.077658914 -0.0066069867 -0.005221586
000020 12 9b b3 bc ad ba 81 bd 82 2a 4a bc 9a 55 b1 3d
       -0.02192453 -0.06334434 -0.012339236 0.08658905
000030 4e c1 2d 3d e2 50 7f 3c 8b 68 ab 3c 29 5e a9 bb
       0.042420678 0.015583249 0.020923873 -0.0051686955
000040 7a 87 a1 3d d3 a3 c6 3c f7 a4 46 3d 78 a5 0b bd
       0.07887168 0.02424804 0.048497166 -0.03409335
000050 fb a7 68 3d 6a 7e 0f 3e dc c4 23 3d 1e c8 36 bd
       0.056800824 0.14013067 0.03998266 -0.04462444
000060 69 6d 04 3c 58 3c cc 3c 28 0d 8e 3d 7d 8d 6f 3d
       0.008082726 0.024931118 0.06936103 0.058484543
000070 b8 ed c8 3d cd af 85 3c 2c 99 ff 3c 1d 33 29 bd
       0.09810966 0.01631918 0.031200968 -0.04130851
000080 7f f8 51 3d 35 e8 64 3c 06 bb c3 bc 47 04 79 3c
       0.051262375 0.013971378 -0.02389289 0.015198774
000090 57 65 14 3d 2a 5b c5 3d 4a 28 07 bc 9e b5 54 3d
       0.036229458 0.09636529 -0.008249352 0.051931016
0000a0 3b c4 0c be 32 fb af 3d 4a 3f f4 3b 46 40 bd 3a
       -0.13746731 0.085928336 0.0074538337 0.0014438711
0000b0 f8 c7 69 bd 22 ef 6b 3d 4f 0a 08 3d 24 22 0d 3e
       -0.05707547 0.0576011 0.033212956 0.13782555
0000c0 9c 39 b6 3d f2 90 7e bb db 16 89 3c c7 4a 85 3d
       0.08897707 -0.0038843718 0.016734531 0.06508403
0000d0 53 11 96 3d 94 5a 49 bd b7 97 ec 3d 09 7f 25 3e
       0.07327523 -0.049158648 0.11552375 0.16161741
0000e0 04 82 eb 3c b9 08 af 3b 5d 6f 9e 3d b4 87 24 bd
       0.02874852 0.005341616 0.077360846 -0.04016848
0000f0 52 65 86 3b ea 91 86 3d 16 e2 19 3d 0b a5 02 ba
       0.004101434 0.065708 0.037569128 -0.00049837
000100 22 76 ee 3c 40 8c a7 3d ba 9c 33 3c 0b f5 bb 3d
       0.029109064 0.081810474 0.0109626595 0.091775976
000110 4a f7 05 bb e6 31 ac 3d 30 df 84 bc 72 47 90 bd
       -0.0020441585 0.08407955 -0.016219705 -0.07044877
000120 83 51 36 bd fd 7f 02 3c 5e eb 76 3d 4b 7b ff 3d
       -0.04451133 0.007965085 0.060283057 0.12474688
000130 5a 1e b3 bd c9 28 b6 3d 82 38 63 bd 9a 80 24 bd
       -0.087460235 0.08894498 -0.055473812 -0.040161707
000140 90 b0 3f bc 7f d0 18 bc 64 98 9b 3c a9 3e 25 3d
       -0.011699811 -0.009327053 0.018993564 0.04034296
000150 a9 e6 94 3d e4 e9 24 3c 29 64 3f bd 56 02 92 3c
       0.072705574 0.0100655295 -0.04672638 0.01782338
000160 8f 3b 16 3d 7b 20 d4 3c fe cf 35 bc 46 65 af 3d
       0.036677893 0.025894394 -0.0110969525 0.08564238
000170 ae ef d8 3c 00 c0 2c 3d 81 67 1c be 14 4a 8b 3d
       0.026481476 0.042175293 -0.15273859 0.06801239
000180 c5 f1 b5 3d 6f 6d db bc b0 02 9a 3d f2 5b 93 3d
       0.088840045 -0.02678558 0.07520044 0.071952716
000190 2a 8f 91 bd 37 41 0e bd c8 70 e3 3d 79 a7 f2 3c
       -0.071073845 -0.034730162 0.11105496 0.029620873
0001a0 00 65 44 bd 0c ac 83 3d 42 3d ea 3b 1a d0 3d bd
       -0.047947884 0.064293 0.007148416 -0.04634104
0001b0 28 a4 68 bb fc 97 16 3d 81 0a 69 3d 65 d3 b1 bc
       -0.0035498235 0.036766037 0.056894783 -0.021707246
0001c0 35 da ad 3d c9 78 0c 3b 10 49 33 3d 59 b2 4c bd
       0.08488885 0.0021434298 0.04377085 -0.049974773
0001d0 fb 91 e3 bc d8 84 c3 3d c7 36 1d 3d 33 a5 93 bd
       -0.02777957 0.09546822 0.038382318 -0.072092436
0001e0 38 25 8d 3c d8 86 73 bc 7c f6 d4 bd 84 64 9b 3d
       0.017229661 -0.014863692 -0.10398576 0.07587531
0001f0 9c 9b f0 ba 39 46 1b 3e 97 f7 15 bd 92 10 81 bd
       -0.0018356922 0.15163507 -0.036613073 -0.06301989
000200 f7 8a 00 bd 75 8e 38 3c 58 da 15 3e 82 b4 eb bc
       -0.031382527 0.011264433 0.14634073 -0.028772596
000210 d1 f1 01 3e 1d 22 79 bd b5 9f 7e bd 06 b1 72 bb
       0.12689902 -0.06082355 -0.062164027 -0.0037031784
000220 a5 38 88 bd 2c 3b 49 be a8 1a 92 3b 27 b3 8f bd
       -0.06651429 -0.19651479 0.004458744 -0.070165925
000230 7d d4 56 bd 6a e4 23 3d 55 da b0 bb d9 8a 0f bc
       -0.05244874 0.040012754 -0.005397121 -0.008761131
000240 fe 6e ab bb c8 c8 6a bd b9 33 31 3c e4 29 14 3d
       -0.005231737 -0.057320386 0.010815554 0.036172763
000250 68 ff 2d 3d f1 28 0d 3d 89 7e 18 be ea 2f dc bd
       0.042479903 0.034462873 -0.1489202 -0.107513264
000260 c2 48 b2 bc f8 8e b4 3d e0 e3 41 bd 1d 82 13 3e
       -0.02176321 0.088163316 -0.04733646 0.14405103
000270 8f f6 62 bd 6f 7a 82 bc c4 4d a9 bd 88 2a a6 3c
       -0.055410918 -0.015927522 -0.08266786 0.020283952
000280 e7 b2 9d 3c 43 0f 79 bc a1 0a 66 bd 26 2f 53 3a
       0.019250346 -0.015201393 -0.05616248 0.0008056037
000290 23 90 d1 bd 3c 9e a4 bc 24 24 b9 bb d5 bf 99 3d
       -0.1023257 -0.020094983 -0.0056500603 0.07507292
0002a0 17 fd a3 be 89 30 fe 3d 13 31 fb bd 60 93 2b bd
       -0.3202903 0.12411601 -0.122652195 -0.041888595
0002b0 38 59 51 be 94 22 f6 3d f3 02 1f 3d 7b 3d 07 3e
       -0.2044419 0.12018314 0.038821172 0.13207047
0002c0 ee 08 22 be b4 9a ac 3c c1 46 9b bd 28 e6 64 bb
       -0.15823719 0.021069862 -0.075818546 -0.0034927223
0002d0 bd 48 cd bd 56 5e aa bc 83 4c fe 3d 9d 6d e9 bc
       -0.10023639 -0.020796936 0.12416937 -0.02849465
0002e0 d9 0e bd bd ac aa 0a 3d b0 4b 80 3d 6b 2e e7 3c
       -0.092313476 0.03385417 0.06264436 0.028220376
0002f0 8b 01 03 be f2 fb 01 be 96 94 41 bd ea 93 f0 3d
       -0.12793557 -0.12693766 -0.047260843 0.11746962
000300 84 14 10 bd a5 9d a8 bb f6 06 09 3d 38 fd a2 3c
       -0.035175815 -0.005145746 0.033453904 0.019896135
000310 6b 27 58 be 29 1b b0 bc de 23 d6 bd 0c 01 b0 3c
       -0.21108787 -0.021497326 -0.1045606 0.021484874
000320 12 0b 65 bd bb ce a7 be 10 3f 92 bd 72 c0 be 3a
       -0.05591876 -0.3277491 -0.071409345 0.0014553203
000330 96 b9 9a 38 14 1d 0c 3d 6d 30 5e bd d3 17 c6 bd
       7.37786e-05 0.03420742 -0.0542454 -0.09672513
000340 ad c3 a6 3c aa c9 14 3e 80 9a d0 bc 30 b6 9b 3b
       0.020356977 0.14530054 -0.025464296 0.004751943
000350 f0 d9 0d 3e c2 fd 80 bd 0f 56 97 bd aa 1e e7 bd
       0.13852668 -0.062984005 -0.07389461 -0.112851456
000360 6f 4a f8 bd 67 a1 db bd e9 bd d6 bd 99 a0 10 3e
       -0.12123572 -0.107241444 -0.10485441 0.14123763
000370 53 9b d4 bd 7f 74 9d bd fd 59 60 bf 98 da 68 3e
       -0.10381188 -0.076882355 -0.8763731 0.22739637
000380 10 26 00 be 15 aa 50 bc f9 4d 01 be a9 5c e2 bb
       -0.1251452 -0.012735863 -0.126274 -0.0069080186
000390 05 31 41 3d 6e 0f ca bd 2d 6d 53 be da 30 b7 bb
       0.04716589 -0.09866224 -0.20647116 -0.0055905404
0003a0 1c a2 1b be e3 c3 8a 3d 7a a1 e0 3c ee 3a 34 bd
       -0.15198559 0.06775644 0.027420748 -0.044001512
0003b0 1a 95 a3 bb fe d4 f9 bd df 46 2e 3e 94 cb a0 3d
       -0.0049921395 -0.12198828 0.17019223 0.078513294
0003c0 6e ca b4 3d a8 17 e3 bd 6e 3d 2e 3d 89 66 8d bd
       0.08827673 -0.110884964 0.042539053 -0.06904323
0003d0 90 76 8c 3c 1d 88 17 3b 64 51 b3 bd ca 61 8d bd
       0.017146379 0.0023121901 -0.087557584 -0.069034174
0003e0 38 de 83 bc 56 a8 cf 3d 80 cd 10 be 6c 7e 89 bd
       -0.016097173 0.101395294 -0.14140892 -0.06713566
0003f0 fd 09 22 be 8a 84 e8 3d 94 ae 95 bd 87 2c 16 bc
       -0.15824123 0.11353405 -0.07308689 -0.00916589

fc2.bias f4 [56]
000000 92 46 b1 ba 4e d0 fe bc 5e 47 68 3d be 02 96 bd
       -0.001352506 -0.031105187 0.056708686 -0.07324742
000010 83 ca db bc 79 a5 b9 bc f2 11 25 3b 27 56 c7 bc
       -0.026829964 -0.022661911 0.0025187698 -0.024333073
000020 2e 84 aa bd c5 12 13 bd a9 5e 97 bc 17 94 50 3d
       -0.083259925 -0.035906572 -0.018477755 0.05092248
000030 b7 38 7e bd 07 7a 11 3d 2a e2 63 3d b7 a5 dd bc
       -0.062065806 0.035516765 0.05563561 -0.027056558
000040 45 c7 1e 3c 5b 90 80 bd d3 e9 1c bd a5 9e 8e 3d
       0.009691064 -0.062775336 -0.03830893 0.06963853
000050 26 d9 a0 bd 7e e9 78 3d 9f 0c 79 bd 01 f1 8d 3d
       -0.07853918 0.06076955 -0.060803052 0.069307335
000060 e4 b7 02 3e 99 f1 00 bd 12 19 78 3d 4d 4a 85 ba
       0.12765461 -0.031480405 0.060570784 -0.0010169238
000070 a1 37 75 3c 7f b1 b0 bd b2 d6 4c 3d ed d2 95 bc
       0.014966876 -0.08627605 0.050009437 -0.018289054
000080 af a5 32 bd fd c6 06 3d 3f e4 b7 bd 68 78 15 bc
       -0.04361504 0.032904614 -0.08979081 -0.009122945
000090 e4 b9 aa 3d 2d 2d a8 bd 73 b0 3c 3d 3a a3 84 bc
       0.08336237 -0.082117416 0.046066713 -0.016191114
0000a0 07 b7 99 3d fa 61 8b 3d 0a 54 3c 3c 5b 6a 81 3d
       0.07505613 0.06805797 0.011494646 0.06319114
0000b0 f9 b9 63 bd a3 df 27 bd 8e 29 c8 bd 92 9c 10 bd
       -0.05559728 -0.04098476 -0.09773551 -0.035305567
0000c0 37 64 58 3d 63 b8 07 3d a4 06 ed bd 3d 39 48 3c
       0.052829947 0.03313483 -0.11573532 0.012220678
0000d0 be 7b 37 3d d7 83 97 bd 35 9a 84 bd 54 e3 26 3d
       0.044795744 -0.07398193 -0.06474725 0.04074414

fc3.weight f4 [2, 56]
000000 a7 9b f7 3d 6e 15 43 3e ea d4 66 be d5 e9 cb 3c
       0.12090235 0.19051144 -0.22542158 0.024891773
000010 59 6d 72 bc 1d 97 80 bd 2b 1d fe 3d 61 ba 34 3d
       -0.014796578 -0.062788226 0.12407907 0.044123057
000020 3d af 96 bd 14 ea f5 bd 7b 78 86 bd 94 fe 7c bc
       -0.07357643 -0.120075375 -0.065659486 -0.0154415555
000030 59 d5 ce bd aa 6f d8 bd 13 27 82 bd b7 0b c5 bd
       -0.100992866 -0.10568173 -0.06355109 -0.09621375
000040 d9 a1 99 3d 25 ac 53 bd 88 84 e6 bc 96 3e 39 3d
       0.07501573 -0.05167784 -0.028139368 0.045225702
000050 9b 1b 83 3e a0 93 be bd af 4c a7 bd cd 65 ab bd
       0.25607 -0.09305501 -0.08168923 -0.08369026
000060 1f c8 43 3b 03 b5 d5 bd 43 c5 73 bd 56 f4 38 3d
       0.002987392 -0.10434916 -0.059514295 0.045154892
000070 a2 9a a8 bd 17 c6 ad bd 29 3a 0d bd fe e5 0d 3d
       -0.08232619 -0.08485048 -0.034479294 0.034643166
000080 96 9c bc 3d c2 ac 9d bd f6 b6 28 3d b4 58 0a ba
       0.09209554 -0.076989666 0.04119011 -0.00052775
000090 8a 61 46 bb bc c5 82 3d 84 74 00 bd 8b 23 05 3d
       -0.003027054 0.06385371 -0.031361118 0.0325046
0000a0 ba 2d f9 3d 75 a5 e0 bd 14 57 bc 3d d7 55 00 3e
       0.12166925 -0.109690584 0.09196296 0.12532745
0000b0 3e 1f db 3d eb 1e 94 bd 70 a9 8e ba 90 9a 4b bb
       0.10699318 -0.0723246 -0.0010884237 -0.0031067468
0000c0 07 ef df bd d3 72 7f bd 26 04 0a 3b 8f 52 10 3d
       -0.10934263 -0.062365364 0.0021059602 0.035234984
0000d0 67 19 76 3d 96 ba f3 bc 2e 82 b3 3d 1f bb 48 3d
       0.06008282 -0.029752057 0.08765064 0.049006578
0000e0 bb b6 25 bd 51 99 d4 bd 64 97 ad 3d a7 2b 7e bd
       -0.04045747 -0.10380805 0.08476141 -0.06205335
0000f0 4d 4c 18 bd da 15 35 bd 0a be 41 3d c0 72 e6 bd
       -0.03718214 -0.044210292 0.047300376 -0.112523556
000100 0a 8e a8 3d 7a f1 1e bc 3b 9d d0 3d 6c 2b 21 be
       0.08230217 -0.009701127 0.10186239 -0.1573922
000110 65 09 e9 bd b5 cc 0c be d4 c3 12 3c 10 58 fa 3d
       -0.11378745 -0.13749965 0.008957822 0.12223828
000120 e3 6d a9 ba 6b a7 66 bd 0a 1c ec 3e 48 ce aa 3d
       -0.0012926426 -0.056312006 0.46115142 0.08340126
000130 20 6b 18 bd b9 b0 e7 bb fd 5c cd 3c d8 c9 d1 bd
       -0.037211537 -0.0070706275 0.025068754 -0.10243577
000140 33 89 f6 3e c2 70 96 3c f9 68 b2 bd 41 a0 be 3d
       0.4815155 0.018364314 -0.08711428 0.0930791
000150 1c b0 ea 3e dd 92 f7 3d 4e c0 04 3d 39 44 87 bd
       0.45837486 0.12088559 0.03240996 -0.06604809
000160 31 87 32 3d b5 4a 88 bd a3 cb 13 bd 72 b0 d4 3d
       0.04358596 -0.06654874 -0.036082875 0.10385217
000170 20 04 07 be 43 e8 c2 bd 8f 24 52 be d1 d9 cc 3d
       -0.13185167 -0.09516957 -0.20521758 0.10002483
000180 b7 98 06 be a0 6e 1e bd 65 3a ad 3c e5 7c 1e bd
       -0.13144194 -0.03867972 0.021146009 -0.038693327
000190 7f 84 d3 bd df 04 c0 3d 7f ec 15 3d 49 d3 a7 3c
       -0.10328006 0.09375929 0.036602493 0.02048649
0001a0 51 c1 a7 bd b6 b8 ac bd 7c 8e 96 bd 9d 26 db bd
       -0.08191169 -0.08433668 -0.073513955 -0.10700724
0001b0 2a 26 b7 bd 2b bb 93 bd 5b 78 d1 3c 5c 0a 19 3b
       -0.08942826 -0.07213434 0.025570085 0.0023352122

fc3.bias f4 [2]
000000 e2 7e 17 bb 7b 03 ed 3d
       -0.00231164 0.115729295
