checkpoint_actor.pth (torch_old, 43194 bytes, 6 tensors)

fc1.weight f4 [128, 24]
0	0x3f4d7aa8	0.80265284
1	0xbe39b5ec	-0.18135804
2	0xbe2e70b2	-0.17035177
3	0x3ddd549a	0.10807152
4	0x3ea2a8db	0.31769451
5	0x3cd3f29a	0.025872517
6	0xbe851bba	-0.25997716
7	0x3e3842fa	0.179943
8	0x3f00d1b4	0.5031998
9	0xbee9baa0	-0.45650196
10	0xbe980894	-0.29694045
11	0xbee9396d	-0.45551625
12	0xbeb9c96f	-0.36286494
13	0xbed63b0e	-0.4184193
14	0xbef36604	-0.4753877
15	0xbefab3db	-0.48965344
16	0x3f52ed3a	0.8239323
17	0xbecb1790	-0.39666414
18	0x3e8d1cce	0.2756104
19	0xbf829b4b	-1.0203642
20	0xbee84a04	-0.4536897
21	0xbf0079c6	-0.5018581
22	0x3eedfdc1	0.4648266
23	0xbf7ac41e	-0.979555
24	0xbc5179d7	-0.012785397
25	0x3d30bed7	0.04315075
26	0x3de4778e	0.11155616
27	0xbedeb70b	-0.43499026
28	0x3fd9c177	1.7012166
29	0xbdb58099	-0.08862419
30	0xbc048736	-0.008088877
31	0xbef6ac14	-0.4817816
32	0x3e0ade70	0.13561416
33	0x3f2af03f	0.66772836
34	0x3da129b0	0.078692794
35	0xbe87da13	-0.26533565
36	0xbcd2485f	-0.025669275
37	0x3ec4eb04	0.38460553
38	0x3df0d4e9	0.117593594
39	0xbe6e497d	-0.23270221
40	0xbe354a0a	-0.17704025
41	0x3ecd7f9a	0.40136415
42	0xbda573a7	-0.080786996
43	0x3e924013	0.2856451
44	0xbfba3384	-1.4546971
45	0x3f787c5b	0.9706475
46	0xbe9f80b3	-0.31152877
47	0x3ec402b6	0.38283318
48	0x3e97568f	0.29558226
49	0xbefa468f	-0.48881957
50	0xbe96cf1a	-0.2945488
51	0x3b64820e	0.0034867558
52	0x3e8c7d9c	0.27439582
53	0x3eec8dbb	0.46201882
54	0xbedbe427	-0.42947504
55	0xbddea659	-0.10871572
56	0x3e6e51f2	0.23273447
57	0xbe8c7089	-0.27429608
58	0x3e005bd4	0.1253503
59	0xbdde942a	-0.10868104
60	0xbee88435	-0.45413366
61	0x3f8191fb	1.0122675
62	0x3e832cab	0.25620016
63	0xbd26e258	-0.040743202
64	0x3ec238f0	0.37934065
65	0xbf0cb552	-0.5496417
66	0x3ea8f72d	0.3300108
67	0xbf5c89e6	-0.86147916
68	0xbf31cb67	-0.6945099
69	0x3ffa5488	1.9557047
70	0x3ebc2f2e	0.36754745
71	0xbf64eb05	-0.8942111
72	0x3e83cdfe	0.25743097
73	0x3f8e90c9	1.1137935
74	0xbecbdb97	-0.3981597
75	0x3f5dcc5e	0.86639965
76	0x3da3e2a0	0.0800221
77	0xbfa02208	-1.2510386
78	0xbe339380	-0.17536736
79	0x3f856f12	1.0424521
80	0xbe46f3e1	-0.1942897
81	0x3f4cd20a	0.80007994
82	0xbe48a00c	-0.19592303
83	0x3ede43ab	0.43411002
84	0xbde84fb9	-0.11343331
85	0xbf4231e8	-0.758574
86	0xbc2cc054	-0.0105439015
87	0x3ef77ca0	0.4833727
88	0xbd85155c	-0.064982146
89	0x3f82a5ff	1.0206908
90	0x3e2899f9	0.16464986
91	0xbf349ebb	-0.70554703
92	0xbdaddc01	-0.08489228
93	0xbf658218	-0.8965163
94	0xbe3f0fe9	-0.18658413
95	0xbf2e8f00	-0.6818695
96	0x3e9ad641	0.30241588
97	0xbf8fd8eb	-1.1238073
98	0xbcffbd12	-0.031218085
99	0xbf1f077f	-0.62120813
100	0x3f64da55	0.8939565
101	0x3fc7281d	1.5559117
102	0x3d89e3b9	0.06732888
103	0xbf29090f	-0.6602945
104	0x3e9fcec2	0.3121243
105	0xbed903e6	-0.42385787
106	0xbdcd469f	-0.100232355
107	0x3d3a1956	0.04543432
108	0x3fdee9e6	1.741513
109	0xbf037cbe	-0.51362216
110	0xbe333669	-0.17501225
111	0x3d935716	0.07194345
112	0x3ed15f5e	0.40893072
113	0xbf1433a5	-0.57891303
114	0x3d44b66f	0.048025545
115	0x3f1a4f6b	0.6027743
116	0x4037d511	2.8723795
117	0xc001bac4	-2.0270243
118	0xbd881735	-0.066450514
119	0x3f0a5dc7	0.5404934
120	0x3ed86d5a	0.4227093
121	0xbf79ef4c	-0.97630763
122	0x3d02d8e4	0.031945124
123	0x3ebe45ea	0.37162715
124	0xbde8adee	-0.113612995
125	0x3f142521	0.57869154
126	0xbdcf611a	-0.101259425
127	0x3e929679	0.28630427
128	0x3f7ff2c8	0.9997983
129	0xc00174f0	-2.0227623
130	0x3e01a0b5	0.12658961
131	0x3f323415	0.6961072
132	0xbf20181e	-0.625368
133	0x3f0ada40	0.54239273
134	0xbe36fd7f	-0.17870139
135	0x3f76859b	0.96297616
136	0x3f8149e8	1.0100679
137	0xbfbe8d7e	-1.488693
138	0x3e4afe87	0.19823657
139	0x3f6eda79	0.9330211
140	0xbf687e68	-0.9081788
141	0x3f940861	1.1565057
142	0xbd60f0cb	-0.054917138
143	0x3f7ca34f	0.9868669
144	0xbe615956	-0.22006735
145	0xbee3838f	-0.4443631
146	0xbdaedb68	-0.08537942
147	0x3e9654c6	0.29361552
148	0x3ccf1afd	0.025281424
149	0xbe077bdc	-0.13230842
150	0xbc19c20c	-0.009384643
151	0x3ebc1e49	0.36741856
152	0xbeff7655	-0.49894968
153	0xbd1d1eff	-0.03835964
154	0xbd874be0	-0.06606269
155	0x3ea2315d	0.31678286
156	0x4017cbbc	2.37181
157	0x3ebe6b10	0.37191057
158	0xbe64fe09	-0.22362532
159	0x3ec84884	0.39117825
160	0xbf2c9119	-0.674089
161	0x3e8d9cb5	0.2765862
162	0xbf012f3c	-0.504627
163	0x3ed94302	0.42433935
164	0x40f43b60	7.632248
165	0x3f508bc9	0.81463295
166	0xbee69625	-0.45036426
167	0x3f13e085	0.57764465
168	0x3f544453	0.82916754
169	0x3e1a8431	0.1508949
170	0x3d77d79a	0.060508348
171	0x3f9241e6	1.1426361
172	0xbfa64451	-1.2989599
173	0xbfa2c8ae	-1.2717493
174	0x3e68e6d7	0.22744308
175	0x3f903a64	1.126782
176	0x3fb0faba	1.3826516
177	0x3ea4ef7e	0.32213968
178	0x3e938eb3	0.28819808
179	0xbf92ad37	-1.1459111
180	0xbf6d36c8	-0.92661715
181	0xbf1428dc	-0.57874846
182	0xbdb55f03	-0.08856013
183	0xbfc0c92c	-1.5061393
184	0x3f64e11b	0.89405984
185	0xbf6b1b55	-0.9183858
186	0xbe1410fd	-0.14459606
187	0xbf8994be	-1.0748518
188	0x3ec0b787	0.3764002
189	0x3f9a10ea	1.2036412
190	0xbdbeacf3	-0.09310331
191	0xbf64e834	-0.89416814
192	0xbef5ea79	-0.4803045
193	0xbf37b147	-0.7175488
194	0x3dcb8be7	0.09938794
195	0x3e96a287	0.29420874
196	0xbf584454	-0.8447926
197	0xbf4c4c8b	-0.79804295
198	0xbd108d83	-0.035291206
199	0x3eb0915d	0.34485903
200	0xbedb5691	-0.42839482
201	0xbf1543ec	-0.58306766
202	0x3dd3e7dc	0.10346958
203	0x3e2d8486	0.16945085
204	0x3e83b006	0.25720233
205	0xbf8563eb	-1.0421118
206	0xbd216ab1	-0.03940839
207	0xbc95de41	-0.018294455
208	0xbedd9345	-0.4327642
209	0xbf3b19e9	-0.7308641
210	0xbe3d8256	-0.1850675
211	0x3df572a1	0.11984754
212	0x3f943486	1.1578529
213	0xbfb77c96	-1.4334896
214	0xbe442880	-0.19156075
215	0x3daa4794	0.08314434
216	0xbde94167	-0.11389428
217	0x3fbd4147	1.4785546
218	0x3d5de460	0.054172873
219	0x3cf34022	0.029693667
220	0xbf0c0860	-0.5470028
221	0xbe8b9d55	-0.27268472
222	0x3e1d900a	0.15386978
223	0xbe8898a2	-0.2667895
224	0xbec135f5	-0.37736478
225	0x3f99daa5	1.201985
226	0x3dc054a8	0.09391147
227	0x3f24b409	0.6433721
228	0xbe5a9516	-0.21345934
229	0xbfdea204	-1.7393193
230	0x3e070ea5	0.1318918
231	0x3f5aeb76	0.85515535
232	0xbe5cb512	-0.21553448
233	0x3f9958c7	1.1980218
234	0x3e6a33ea	0.22871366
235	0xbdc28f66	-0.09500007
236	0x3ea2fbb8	0.3183267
237	0xc0935131	-4.603661
238	0x3dac0bbc	0.08400676
239	0xbe6aa25b	-0.22913496
240	0x3f23e21c	0.6401689
241	0x3f6844e8	0.9073014
242	0xbe23647d	-0.15956302
243	0x3e895631	0.2682357
244	0xbf2793e1	-0.6546002
245	0x3f908ce4	1.1292996
246	0xbe389b2d	-0.18027945
247	0x3f16baa5	0.58878547
248	0x3eeea468	0.46609807
249	0x3f88db0d	1.0691849
250	0xbe5f8567	-0.21828233
251	0x3e1a328a	0.15058342
252	0x3fab86d3	1.340052
253	0x3f304c1f	0.6886615
254	0xbe938ecf	-0.28819892
255	0x3c337a15	0.0109544

fc1.bias f4 [128]
0	0x3ef5b58e	0.47990078
1	0xbf9ae6be	-1.2101667
2	0xbf667b99	-0.90032345
3	0x3de6afff	0.11264037
4	0xbf14a4e6	-0.58064115
5	0xbf338e50	-0.70139027
6	0x3f9b57a4	1.2136121
7	0xbf8aff4f	-1.0859164
8	0x3f0043fb	0.5010373
9	0x3fe462b0	1.7842617
10	0x3ecbc2bd	0.3979701
11	0xbe3a2e3b	-0.18181698
12	0xbfaff2d6	-1.3745983
13	0xbe9745cb	-0.29545435
14	0xbf637b5f	-0.88860124
15	0x3f4026ec	0.7505939
16	0xbdb70adf	-0.0893762
17	0x3c957e7c	0.018248789
18	0xbedcc9c7	-0.43122694
19	0xbfd069cb	-1.6282285
20	0xbe80ffa4	-0.25195038
21	0x3f177d9b	0.59176034
22	0x3e10505b	0.14093153
23	0x400f330f	2.2374914
24	0xbeb33ec7	-0.35008833
25	0xbfde9cc1	-1.7391587
26	0x3db08501	0.086191185
27	0xbf30e28d	-0.6909569
28	0xbf3a92da	-0.7288033
29	0x3d886855	0.06660525
30	0xbd829c60	-0.063774824
31	0xbff17ae6	-1.8865631
32	0xbfd2af06	-1.6459663
33	0xbf6bfa83	-0.92179126
34	0x3e06c48f	0.13160919
35	0xbf0dd961	-0.5540982
36	0x3eb93709	0.361748
37	0xbf18fe7e	-0.59763324
38	0x3f197397	0.59942
39	0xbf7beb02	-0.9840547
40	0xbe8fed05	-0.2811052
41	0xbeb7ec89	-0.3592265
42	0x3e1a6620	0.1507802
43	0xbf8c7326	-1.097264
44	0xbf9d1014	-1.2270532
45	0xbda7b1f8	-0.08188242
46	0xbea50c60	-0.32236004
47	0x3e47798f	0.19479965
48	0x3fcb75cb	1.5895323
49	0xbfa8b445	-1.3180014
50	0xbf88616c	-1.0654731
51	0x3d510032	0.051025577
52	0xbe35ae28	-0.17742217
53	0xbf46cfcd	-0.7766083
54	0xbf0b58a6	-0.5443214
55	0x3d011e18	0.03152284
56	0xbfdf8a7c	-1.7464137
57	0xbf22490b	-0.63392705
58	0xbf0622e2	-0.52396977
59	0xbe896805	-0.26837173
60	0xbf8bfd89	-1.0936748
61	0xbf4be6d5	-0.79649097
62	0xbfe0adfd	-1.7553097
63	0x3f4aa177	0.79152626
64	0xbda12ecd	-0.07870255
65	0xbe4dd433	-0.20100479
66	0x3e3af9cc	0.18259352
67	0xbe8fafa9	-0.28063706
68	0xbf85b9ab	-1.0447286
69	0xbfc68cd3	-1.5511726
70	0xbf8e62c3	-1.112389
71	0xbf17c47d	-0.5928419
72	0x3e682908	0.22671902
73	0x3f95eb19	1.1712371
74	0xbdd90f22	-0.105985895
75	0xbddaf43f	-0.106911175
76	0xbf7d98ff	-0.9906158
77	0x3f248a6f	0.6427373
78	0x3e81c0be	0.25342363
79	0x3f02d3bc	0.5110433
80	0xbf8521a8	-1.0400896
81	0xbfa114fd	-1.258453
82	0x3f35962d	0.70932275
83	0xc014251a	-2.3147645
84	0xbf98efd7	-1.1948193
85	0x3fa24f6a	1.2680485
86	0xbf604920	-0.8761158
87	0xc0094c34	-2.145276
88	0x3dd3fcde	0.10350965
89	0x3fada6bd	1.356651
90	0xbf84df31	-1.0380613
91	0xbef3878d	-0.47564355
92	0x3fa0dfa8	1.2568254
93	0xbe4db719	-0.20089377
94	0x3f4adce1	0.79243284
95	0xbe9852e0	-0.2975073
96	0x3f1755ef	0.591155
97	0x3f28fd74	0.6601174
98	0xbfc3de24	-1.5302167
99	0xbf6d4a44	-0.92691445
100	0x3f824a37	1.0178899
101	0x3faa6c2d	1.3314263
102	0xbf693d00	-0.91108704
103	0x3e68a520	0.2271924
104	0x3e9b8a17	0.30378792
105	0x3e84dbc8	0.2594893
106	0x3f1c4c10	0.6105356
107	0xbddfd82b	-0.10929903
108	0xbde3c865	-0.111222066
109	0xbc5766cd	-0.013147068
110	0x3f3ca93d	0.7369574
111	0xbf4052fc	-0.75126624
112	0xbf62573f	-0.88414377
113	0xbf69db5b	-0.91350335
114	0x3ec92a30	0.3929
115	0x3f5f66be	0.8726615
116	0xbf97b435	-1.185187
117	0xbeacca71	-0.337482
118	0xbf0b287f	-0.5435867
119	0x3f94928e	1.1607225
120	0xbfd1d844	-1.6394124
121	0xbfcd8324	-1.6055646
122	0xbf534383	-0.8252489
123	0x3e0946ac	0.13405865
124	0xbf2a496d	-0.6651829
125	0x3f46c0ec	0.77638125
126	0xbf054304	-0.5205538
127	0xbede5487	-0.43423864

fc2.weight f4 [56, 128]
0	0xbe114830	-0.14187694
1	0xbd1c6bfb	-0.038188916
2	0xbf2e0065	-0.6796935
3	0x3f5859f1	0.8451224
4	0xbf6178b6	-0.88074815
5	0xbf234b8e	-0.6378716
6	0xbeab2fed	-0.33435002
7	0xbe8e8542	-0.27836043
8	0xbed3d526	-0.41373557
9	0x3f0549ac	0.5206554
10	0x3f06c341	0.52641684
11	0x3c82eddd	0.015982563
12	0xbf929276	-1.1450946
13	0xbddc1590	-0.107463
14	0xbfa24756	-1.267802
15	0xbf575b91	-0.84124094
16	0xbf247d87	-0.6425404
17	0xbec463a2	-0.38357264
18	0x3f8956e1	1.0729638
19	0xbe242137	-0.16028295
20	0xbf1b45e0	-0.60653496
21	0x3fa137c5	1.2595145
22	0xbeb81e8f	-0.35960814
23	0xbfa5b5a6	-1.294606
24	0xbeb76d2d	-0.35825482
25	0xbe010e84	-0.12603194
26	0x3e2c1582	0.1680508
27	0xbec26b56	-0.37972516
28	0x3f697f03	0.9120943
29	0x3ecdf3ac	0.4022497
30	0x3eafbf9c	0.34325874
31	0xbfaf9bf6	-1.371947
32	0xbe8829ee	-0.2659449
33	0x3f488fe0	0.78344536
34	0x3dd06579	0.101756044
35	0xbfa04b9a	-1.2523072
36	0xbd9f5c0f	-0.07781231
37	0x3f3c6866	0.735968
38	0x3f66abd3	0.9010593
39	0xbf7710aa	-0.965098
40	0xbde8fcce	-0.11376344
41	0x3f26b331	0.65117174
42	0x3ea3330c	0.31874883
43	0x3f9aa81f	1.2082556
44	0x3e841d28	0.25803494
45	0x3f0abdc2	0.541958
46	0xbea05aaf	-0.31319186
47	0x3e2d63b8	0.16932571
48	0x3f8bec12	1.0931418
49	0x3e83f067	0.2576935
50	0xbe991c81	-0.2990456
51	0x3f07ae18	0.5300002
52	0xbf82c432	-1.0216124
53	0x3de3c6c6	0.111218974
54	0x3fa1f815	1.2653834
55	0xbfbb99fe	-1.465637
56	0x3de00e07	0.109401755
57	0xbe9d348b	-0.3070415
58	0xbb25ad33	-0.0025280237
59	0xbe902b77	-0.2815816
60	0x3f655a8b	0.8959128
61	0x3e1125b7	0.14174543
62	0x3e9b1d92	0.30295998
63	0x3c3bcdb5	0.011462619
64	0xbf58ea97	-0.84732956
65	0xbf37a2aa	-0.7173258
66	0xbe515cae	-0.2044551
67	0xbed70436	-0.419954
68	0xbe2bb3be	-0.16767785
69	0xbfa48efe	-1.2856138
70	0xbdc507b9	-0.096206136
71	0xbe2283f6	-0.15870652
72	0x3997b06f	0.00028932418
73	0x3e2b8046	0.16748151
74	0x3f045951	0.51698786
75	0xbeeae085	-0.4587442
76	0x3f16ce6b	0.5890872
77	0xbea53647	-0.32267973
78	0xbec76daa	-0.38950855
79	0xbf3b748d	-0.7322472
80	0xbf1f858d	-0.6231316
81	0x3e8c42b4	0.2739464
82	0x3e147f25	0.14501627
83	0x3e145928	0.14487135
84	0x401d026f	2.4532735
85	0xbef4dad3	-0.478232
86	0x3e1c4732	0.15261534
87	0xbec1f984	-0.37885678
88	0xbea31614	-0.31852782
89	0x3f117586	0.5681995
90	0x3e13f7c6	0.14449987
91	0x3ebb899d	0.36628428
92	0xc015aa33	-2.3385131
93	0xbed8bffb	-0.4233397
94	0x3fed20a0	1.8525581
95	0xbeac5c79	-0.336643
96	0x3f0cd064	0.5500548
97	0x3d82b71b	0.06382581
98	0x3dfbcad4	0.12294546
99	0x3f66f04e	0.90210426
100	0xbf22a81f	-0.6353778
101	0x3fbf96dc	1.4967914
102	0xbe4b7e9b	-0.19872515
103	0x3ef167f0	0.4714961
104	0x3f1a6f21	0.6032582
105	0x3f7a4dc7	0.9777493
106	0x3e5f85d9	0.21828403
107	0xbefdcd97	-0.49570915
108	0xbf17b4d7	-0.59260315
109	0x3f1b5099	0.6066986
110	0x3ecf0c41	0.40439036
111	0x3ecc4320	0.39894962
112	0x3f511921	0.8167897
113	0xbe4f4053	-0.20239381
114	0xbe78a858	-0.24282968
115	0x3f35c385	0.71001464
116	0xbeb09a1b	-0.34492573
117	0xbdc9d29c	-0.09854624
118	0xbdaad9cc	-0.08342323
119	0x3d082a77	0.033243623
120	0xbec5dc84	-0.38644803
121	0x3f03ef9f	0.5153751
122	0xbf1bd2eb	-0.6086871
123	0xbe9c4441	-0.30520824
124	0x3f8dc04a	1.1074307
125	0x3e3044a6	0.17213687
126	0xbe29c362	-0.16578439
127	0xbd3b668a	-0.045752086
128	0xbf03a77b	-0.5142743
129	0x3e72ff2c	0.23730153
130	0x3dda2f7d	0.10653589
131	0x3e9085a8	0.28226972
132	0xbf4a0f2a	-0.7892939
133	0x3dae70ef	0.08517634
134	0xbe80f3ad	-0.2518591
135	0x3ec016e1	0.37517455
136	0xbcba1d45	-0.022719035
137	0x3ff79632	1.9342711
138	0xbe8a7fd0	-0.27050638
139	0x3cfcb151	0.03084627
140	0x3da55ba7	0.08074122
141	0xbf3a7766	-0.7283844
142	0x3e8d1ab1	0.27559426
143	0xbe9ca26e	-0.30592674
144	0x3e193c0b	0.14964311
145	0xbed024bd	-0.4065303
146	0x3f366aa2	0.7125646
147	0x3cd033aa	0.02541526
148	0x3e8da8d3	0.27667865
149	0x3e86e6da	0.26348
150	0xbf5736a0	-0.84067726
151	0xbf4643a8	-0.77446985
152	0xbe904e2e	-0.28184646
153	0x3f93e583	1.1554416
154	0xbf717779	-0.94322926
155	0xbe72fd47	-0.2372943
156	0xbf931e77	-1.1493672
157	0xbc615392	-0.013752835
158	0x3ef27603	0.4735566
159	0x3dc48078	0.09594816
160	0x3dfae6b2	0.12251033
161	0x3f5ea92d	0.8697689
162	0xbe499b6d	-0.19688196
163	0x3fe163c5	1.7608572
164	0xbf2dcafb	-0.6788785
165	0xbfb72ed6	-1.4311168
166	0xbff76b6f	-1.9329661
167	0xbf3f3cca	-0.7470213
168	0xbf4a949b	-0.79133004
169	0xbdd162f9	-0.10223956
170	0xbd05b910	-0.032647192
171	0x3f90ad79	1.130294
172	0x3efb3d4b	0.490702
173	0xbe880335	-0.26564947
174	0xbf869f84	-1.051743
175	0xbfccb51e	-1.5992773
176	0xbf7b9396	-0.98272073
177	0x3fe8e05a	1.8193467
178	0xbee2a622	-0.44267374
179	0xbdbce093	-0.09222522
180	0xc005b7f3	-2.0893524
181	0xbe861922	-0.2619105
182	0xbe8c3a6d	-0.27388325
183	0x3f921aa0	1.1414375
184	0xbf9e8b46	-1.2386253
185	0xbf8f217b	-1.1182092
186	0x3e14affc	0.14520258
187	0xbeb13a95	-0.34615007
188	0x3f81003a	1.0078194
189	0x3f66f8d4	0.9022343
190	0x3e5ac7c3	0.21365266
191	0xc01d0c99	-2.453894
192	0x3ebf6739	0.3738344
193	0x3e369e1c	0.17833751
194	0x3f37d5bf	0.71810526
195	0x3f022e7a	0.5085217
196	0x3f0bc20a	0.54592955
197	0xbf4260e8	-0.7592912
198	0xbf102168	-0.56300974
199	0x3ebd4788	0.36968637
200	0xbf02defe	-0.5112151
201	0xbe88a683	-0.26689538
202	0x3c602f43	0.013683143
203	0xbecba568	-0.39774632
204	0xbf9ed608	-1.2409067
205	0xbf27736a	-0.6541048
206	0x3e447a8e	0.19187376
207	0xbf33e289	-0.7026754
208	0x3fe67e55	1.8007303
209	0xbeea2eb7	-0.45738766
210	0xbe1f6d89	-0.15569128
211	0x3f551e3c	0.8324926
212	0x3ea6effb	0.32604966
213	0x3e78422b	0.24243991
214	0x3f9bcfda	1.2172806
215	0xbe845b03	-0.25850686
216	0xbfe6b4d4	-1.8023934
217	0x3c8e36e8	0.017360166
218	0x3ed2927b	0.4112738
219	0x3fd612bb	1.6724466
220	0xbe938b76	-0.28817338
221	0xbd0aaacd	-0.033854295
222	0x3f6bad1c	0.9206102
223	0x3e78a4a9	0.24281563
224	0x3e0d0545	0.13771541
225	0x3d088845	0.03333308
226	0xbf2d56cb	-0.6771056
227	0xbf72e049	-0.9487348
228	0x3fb0cf16	1.3813198
229	0xc018dc20	-2.3884354
230	0x4005068d	2.0785248
231	0xbdbb03dd	-0.09131596
232	0xbf56e555	-0.8394368
233	0xbed6ac58	-0.41928363
234	0x3f2bcf87	0.67113537
235	0x3e995628	0.29948545
236	0x3e62dcb6	0.22154507
237	0x3fe71682	1.8053744
238	0xbf31a4c4	-0.6939204
239	0x3ee54f76	0.44787186
240	0xbd3a0498	-0.045414537
241	0x3e2ecee5	0.17071112
242	0xbfb68d8c	-1.4261947
243	0xbe97ee96	-0.29674214
244	0x3e08d4ef	0.13362478
245	0xbf420095	-0.7578214
246	0x3e09b479	0.13447751
247	0xbf35f503	-0.71076983
248	0xbf38f806	-0.72253454
249	0xbfcb0a4c	-1.5862517
250	0xbe91742f	-0.28408954
251	0xbef91405	-0.48648086
252	0x3fa1ad43	1.2631
253	0xbe261606	-0.16219339
254	0xbf840455	-1.0313822
255	0x3ed99eee	0.42504066

fc2.bias f4 [56]
0	0xbff4285f	-1.907482
1	0xbf0b34ea	-0.54377615
2	0xbd476916	-0.048684202
3	0xbf310d6e	-0.6916112
4	0xbf9223f9	-1.1417228
5	0xbfdf37d3	-1.7438911
6	0xbfe55703	-1.7917179
7	0xbf924d1e	-1.1429784
8	0xbf265258	-0.64969397
9	0xbf8c71be	-1.0972211
10	0xbf8dac94	-1.1068292
11	0x3eba28ae	0.3635916
12	0xbf4440af	-0.766612
13	0xbf35f659	-0.7107902
14	0xbf40e53b	-0.7534978
15	0xbe5daecc	-0.21648711
16	0x3fb3a5a8	1.4034929
17	0xbf80ecdc	-1.0072284
18	0xbf34743a	-0.7048985
19	0xbed8ba15	-0.4232947
20	0x3e581bb3	0.21104316
21	0xbdbb2e0d	-0.09139643
22	0x3f2dd86d	0.67908365
23	0x3d547dd3	0.051877808
24	0x3d15c0d9	0.036560867
25	0xbfa08dd0	-1.2543278
26	0xbe027362	-0.12739328
27	0xbead969b	-0.33903965
28	0xbe9f1154	-0.31067908
29	0x3f8317be	1.024162
30	0x3ed45203	0.4146882
31	0xbd292879	-0.041298363
32	0xbf0ab481	-0.5418168
33	0xc0075a4c	-2.1148863
34	0xbf93143f	-1.1490554
35	0x3f3452e0	0.7043896
36	0xbe85ce0c	-0.26133764
37	0xbedca28c	-0.43092763
38	0x3e8e8219	0.27833632
39	0x3df79f96	0.120909855
40	0xbdefb1fe	-0.11703871
41	0x3ddddcb8	0.108331144
42	0x3e7d3ae7	0.247295
43	0xbed6797a	-0.41889554
44	0xbf7df95b	-0.9920861
45	0xbf73c06a	-0.95215476
46	0x3f891c33	1.0711731
47	0xc015aef1	-2.3388026
48	0xbe915d7a	-0.2839163
49	0xbf8790b0	-1.059103
50	0xc01c1dab	-2.4393108
51	0xbf122609	-0.5708929
52	0xbf482fca	-0.7819792
53	0xbed4f9ab	-0.41596732
54	0xbeb818d9	-0.35956457
55	0xc01a4122	-2.4102254

fc3.weight f4 [2, 56]
0	0xbe844e7d	-0.25841132
1	0x3dacf4f8	0.084451616
2	0xbdba43b3	-0.09094944
3	0x3cf93f1b	0.030425599
4	0xbf1253e8	-0.5715928
5	0xbc9a0e41	-0.018805625
6	0x3ecdd9df	0.40205285
7	0x3e2dba3c	0.16965574
8	0x406c3a03	3.6910408
9	0x3b25bf80	0.0025291145
10	0xbfb7342a	-1.4312794
11	0xbdd9fa7e	-0.10643481
12	0xc055b9c2	-3.3394628
13	0x3f33f685	0.70298034
14	0xbf371cdc	-0.7152841
15	0x3c5457c7	0.012960381
16	0x3d598061	0.053100947
17	0x3da45d56	0.08025615
18	0x3ceace3b	0.028662791
19	0xbc396a53	-0.011316854
20	0x3dc3f9d3	0.095691346
21	0xbeabc02b	-0.3354505
22	0xbf536f0f	-0.82591337
23	0xbdaa4eb3	-0.08315792
24	0xbc81195d	-0.015759164
25	0xbda191e7	-0.07889157
26	0xc01c8920	-2.4458694
27	0xbdd3b34b	-0.10336932
28	0xc012943c	-2.2902975
29	0xbf03d0d6	-0.51490533
30	0x3f26deb9	0.651836
31	0x3d581c38	0.052761286
32	0xbc25b643	-0.010114255
33	0xbea5d1e7	-0.32386705
34	0x3e274495	0.16334756
35	0xbd923e77	-0.071408205
36	0x3cf25119	0.029579686
37	0x3f1291ee	0.5725392
38	0x3e2e4254	0.1701749
39	0xbe081f87	-0.13293277
40	0x3f4a0353	0.7891132
41	0xbf9980dc	-1.199245
42	0xbc279f6f	-0.010230883
43	0x3cea767c	0.02862095
44	0x3b335390	0.002736304
45	0xbf125c63	-0.5717222
46	0xbabae939	-0.001426018
47	0xc00c2e90	-2.190342
48	0xbf12a162	-0.572775
49	0xbd364ed2	-0.044508763
50	0x3ad19cc7	0.0015992158
51	0x3c8c4066	0.017120551
52	0x3f12a07d	0.57276136
53	0xbe0e37bb	-0.13888447
54	0x3d05c615	0.03265961
55	0x3e784389	0.24244513
56	0x3fa17555	1.2613932
57	0xbca25a49	-0.019818442
58	0x3d09ed42	0.033673532
59	0x3d95accf	0.07308351
60	0xbe41c7b7	-0.18923841
61	0xbfcd9a5b	-1.606273
62	0xbe31a1d5	-0.1734689
63	0x3b33536e	0.002736296
64	0x3f73ce21	0.952364
65	0xbfe9047d	-1.8204495
66	0x4023ea8d	2.5611908
67	0xbd381773	-0.044944238
68	0xbf33e2f0	-0.70268154
69	0x3dc3d6a2	0.09562422
70	0xbdeab5a9	-0.1146043
71	0x3e6bf84d	0.23043938
72	0xbc9108a0	-0.017704308
73	0xbfc7f893	-1.5622734
74	0xbfa28ab9	-1.2698585
75	0x3f99abac	1.2005515
76	0x3f92675a	1.143779
77	0x3b48ed3f	0.0030658988
78	0xbd020c68	-0.031750113
79	0xbdb9a926	-0.09065466
80	0x3d39a04d	0.04531889
81	0xbca72d78	-0.020407423
82	0x3df8d598	0.12150115
83	0x3fb62846	1.423104
84	0x3e93862d	0.28813305
85	0xc005c655	-2.0902302
86	0xbcfab3df	-0.030603347
87	0xbd623773	-0.05522866
88	0x3e810272	0.25197178
89	0xc0852014	-4.160166
90	0xc0461e93	-3.095616
91	0x3d80be8b	0.06286343
92	0xbe430881	-0.19046213
93	0xc03c391f	-2.9409864
94	0x3f90b0a5	1.1303908
95	0x3f942996	1.1575191
96	0xbf32d726	-0.6985954
97	0xbbaaf195	-0.005216787
98	0x3fc10f9b	1.5082887
99	0xbd68b303	-0.056811344
100	0xbfa106c3	-1.2580189
101	0xbc881bcb	-0.016614815
102	0x3db7babd	0.089711644
103	0x3eb55e91	0.3542371
104	0xbfd124f4	-1.6339402
105	0xbd10c556	-0.035344444
106	0xbf3779b8	-0.71670103
107	0x3f739609	0.9515081
108	0xbe026e2e	-0.12737343
109	0x3d18bcf0	0.03728956
110	0xbf307984	-0.6893542
111	0xbfa869c8	-1.3157282

fc3.bias f4 [2]
0	0x3c19fda8	0.009398855
1	0x3f042fcf	0.5163545
