checkpoint_critic.pth (torch_old, 45944 bytes, 9 tensors)

fcs1.weight f4 [128, 24]
0	0x3fc4ec22	1.5384562
1	0xbde0d8f1	-0.10978878
2	0x3d9cce31	0.076565154
3	0xbf81a42c	-1.0128226
4	0x3e1a983b	0.15097134
5	0x3f636a08	0.88833666
6	0xbc55f575	-0.01305901
7	0xbf70e1fa	-0.9409481
8	0x3fa70c0c	1.3050551
9	0xbe17228e	-0.14759275
10	0x3ec8253b	0.39090905
11	0xbf10ecd9	-0.566114
12	0xbf5cae9f	-0.8620395
13	0x3f7fd0b0	0.99927807
14	0x3e598fd5	0.21246274
15	0xbf19aa93	-0.600259
16	0x3fc22999	1.5168945
17	0xbeca4a20	-0.39509678
18	0x3e285bd5	0.16441281
19	0xbf866182	-1.0498507
20	0xbf26868b	-0.65049046
21	0x3f80d95d	1.0066334
22	0x3eb50e6c	0.35362566
23	0xbf81286b	-1.009046
24	0x3f032650	0.51230335
25	0xbf1caa31	-0.6119719
26	0x3d2b79c0	0.041864157
27	0x3d2b8d6c	0.041882917
28	0xbda962f8	-0.0827083
29	0xbed63135	-0.41834417
30	0xbd9f4b34	-0.07778016
31	0xbba0ba40	-0.004905015
32	0x3f477615	0.77914554
33	0xbf132e46	-0.5749248
34	0xbc283fe8	-0.010269143
35	0xbd11eac4	-0.03562428
36	0xbf380d62	-0.7189542
37	0x3f5a238c	0.8521049
38	0x3cea89f1	0.028630229
39	0xbb43e7ad	-0.0029892728
40	0x3fa1d678	1.2643576
41	0xc0224eb8	-2.5360546
42	0x3e2f163d	0.17098327
43	0xbdc97c83	-0.09838202
44	0xbfaf2694	-1.3683648
45	0x4028c306	2.6369033
46	0xbd74bb25	-0.059748787
47	0xba9c371a	-0.0011918277
48	0x3fbe360e	1.4860246
49	0xbe9d29e8	-0.30696034
50	0x3ddf636b	0.10907634
51	0x3e9d3e62	0.30711657
52	0xbf929f5c	-1.1454883
53	0xbec18126	-0.37793845
54	0xbcd3bf02	-0.025847916
55	0x3e47974d	0.1949131
56	0x3f9ee247	1.2412804
57	0x3da1e72d	0.079054214
58	0xbcc1883c	-0.023624532
59	0x3f7703f0	0.96490383
60	0xbf9646ff	-1.1740416
61	0x3e96c61c	0.2944802
62	0x3ddb98b8	0.10722488
63	0x3f8433a3	1.0328258
64	0x3f7580e7	0.95899814
65	0xbf1bb342	-0.608204
66	0x3eacc694	0.33745253
67	0x3f16fb8e	0.5897759
68	0xbfb7f9e4	-1.4373136
69	0x3fb3b7b0	1.4040432
70	0x3ebffe60	0.3749876
71	0x3f0e9a76	0.5570444
72	0xbfd71cb4	-1.6805634
73	0x3f5a613d	0.85304624
74	0xbe69d5dd	-0.22835489
75	0x3d9e0478	0.07715696
76	0xbb73e77b	-0.003721683
77	0xbfc79051	-1.5590917
78	0xbbb61296	-0.005556415
79	0x3e81a87c	0.25323856
80	0xbf86efe4	-1.0541959
81	0x3f182989	0.5943838
82	0xbe5abf56	-0.21362051
83	0x3ede3948	0.43403077
84	0x3e866590	0.2624936
85	0xbfa6d027	-1.3032273
86	0xbce76421	-0.028245987
87	0x3ef7710a	0.4832843
88	0xbeb16d93	-0.3465391
89	0x3f0e6bbc	0.5563314
90	0x3e6c1425	0.2305456
91	0xbfc1afd6	-1.5131786
92	0x3fe91616	1.8209865
93	0xbfa72c07	-1.3060311
94	0xbdf72be6	-0.1206892
95	0xbfbea814	-1.4895043
96	0x3fe96262	1.8233149
97	0xbf884f63	-1.0649227
98	0xbe8cd54f	-0.27506492
99	0xbd53da2f	-0.051721748
100	0x3f85cd33	1.0453247
101	0x3e3834e7	0.1798893
102	0xbe34bfcf	-0.17651294
103	0xbdb9fab1	-0.09081019
104	0x3f577a73	0.8417122
105	0xbfafda3c	-1.3738475
106	0x3c16c68e	0.009202613
107	0x3dab184a	0.08354242
108	0x3fa717da	1.3054154
109	0x3f36a77d	0.71349317
110	0xbd864d0a	-0.06557663
111	0x3de1623d	0.110050656
112	0x3f187703	0.595566
113	0xbfda9111	-1.7075521
114	0x3daf8b6a	0.08571513
115	0x3ee15b52	0.44014984
116	0x3fe87492	1.8160574
117	0x4027eeb2	2.6239438
118	0xbceba1a0	-0.028763592
119	0x3ec17535	0.37784734
120	0x3e80e471	0.25174287
121	0xbf1180e5	-0.568373
122	0x3d626cdc	0.055279598
123	0x3dea39e4	0.11436823
124	0xc0611d65	-3.517419
125	0xbeae7f7c	-0.34081638
126	0xbd9f95bc	-0.077922314
127	0x3cedeec5	0.029044518
128	0x3dfd7fef	0.12377917
129	0xbf03a3b7	-0.51421684
130	0x3e0deaf8	0.13859165
131	0x3b8338cc	0.0040045734
132	0xc109a399	-8.602441
133	0xbf06fe39	-0.52731663
134	0xbe2ab36b	-0.16670005
135	0x3e8ab13b	0.2708834
136	0xbdb24d56	-0.08706157
137	0x3d41605c	0.047211036
138	0x3dd64622	0.104625955
139	0x3dc683e3	0.09693124
140	0x3e469f29	0.19396652
141	0x3d83dd4c	0.064386934
142	0xbe181626	-0.14852199
143	0x3e1a6588	0.15077794
144	0xbebdcbab	-0.3706945
145	0x3f83e281	1.0303499
146	0x3d715924	0.0589229
147	0x3e9f6a73	0.31135902
148	0xbef220b3	-0.47290573
149	0xc0317f75	-2.7734044
150	0x3e0a2880	0.13492012
151	0x3ec533d0	0.38516092
152	0xbfb3c67c	-1.4044948
153	0x3faa6246	1.3311241
154	0xbe3f364e	-0.1867306
155	0x3e8602b9	0.26173952
156	0x3dde5104	0.10855296
157	0xc00f3053	-2.2373245
158	0xbeb04735	-0.34429327
159	0x3eac1a47	0.33613798
160	0xbfd07284	-1.6284947
161	0x3fb33155	1.399943
162	0xbe0d7f71	-0.13818146
163	0x3ed97481	0.42471698
164	0x3f5a2d26	0.8522514
165	0xbfb58416	-1.4180934
166	0xbdabdc07	-0.08391576
167	0x3f13f972	0.578025
168	0xbd897347	-0.067114405
169	0x3df5bb37	0.11998599
170	0xbe417cd3	-0.18895273
171	0x3f226ce7	0.6344742
172	0x3f881acc	1.0633178
173	0x3f59ef4e	0.85130775
174	0xbcb462a0	-0.022019684
175	0x3f1e5dd2	0.6186191
176	0x3f05362b	0.5203578
177	0xbd4a5967	-0.049401667
178	0x3ebb16b7	0.36540768
179	0x3ebadd63	0.3649703
180	0x3f8cda62	1.1004145
181	0x3f90fb19	1.1326629
182	0xbc39ee22	-0.011348279
183	0x3b9b67d1	0.0047426005
184	0x3f9ab200	1.2085571
185	0xbeabdd6b	-0.33567366
186	0x3ee30951	0.44343045
187	0xbf08765d	-0.5330561
188	0x3fdba7a5	1.7160536
189	0x3fe361f4	1.7764268
190	0x3efd664b	0.49492106
191	0xbeb46dc9	-0.3524001
192	0xbfdba570	-1.7159863
193	0x3e6ffecd	0.23437043
194	0x3d0885a3	0.03333057
195	0xbf249c93	-0.64301413
196	0x3eb211bf	0.34779164
197	0x3f0ea8e4	0.55726457
198	0xbdcf8e22	-0.101345316
199	0xbf17a51e	-0.59236324
200	0xbf69a9da	-0.912748
201	0xbef7699e	-0.48322767
202	0x3f110c1c	0.566591
203	0xbf9c46d6	-1.2209117
204	0x3f30072e	0.68760955
205	0x3ca6fb1d	0.020383412
206	0x3ed8eff4	0.4237057
207	0xbfb44e83	-1.408646
208	0xbe0564f6	-0.13026795
209	0xbeb5dfc3	-0.3552228
210	0x3ef556d4	0.47917807
211	0xbe510908	-0.20413601
212	0x3f9aabb6	1.2083652
213	0xbe86c29b	-0.26320347
214	0x3ef203ec	0.47268617
215	0xbe769f32	-0.24084166
216	0x402cbc09	2.6989768
217	0x3fd4da67	1.6629151
218	0xbdd9eac5	-0.10640482
219	0x3e8cf8c3	0.2753354
220	0x4001c2d8	2.0275173
221	0xc023c192	-2.5586896
222	0xbbdbdd4e	-0.006709731
223	0xbcad3cfc	-0.021147244
224	0x3eb069ad	0.34455624
225	0xbefc97b1	-0.4933448
226	0x39ef48b9	0.00045639815
227	0x3dfcc877	0.12342923
228	0xbdb6591f	-0.08903717
229	0xbf53ea7f	-0.8277969
230	0x3d1d7041	0.03843713
231	0x3eab9ffc	0.33520496
232	0x3e029c39	0.12754907
233	0xbf97170b	-1.1803907
234	0x3e06d481	0.13167001
235	0xbd87b643	-0.066265605
236	0x3f1e1367	0.61748356
237	0xbfbad7f7	-1.4597157
238	0xbc558ba6	-0.013033783
239	0xbe4d37b7	-0.20040785
240	0x3f663a1c	0.8993242
241	0x40243a43	2.566056
242	0xbd4b1e6f	-0.04958957
243	0xbf7258f1	-0.94666964
244	0x3ce7d632	0.028300378
245	0x401193a8	2.2746372
246	0xbd8ffd3e	-0.07030724
247	0xbf20497c	-0.6261213
248	0x3fa5b918	1.2947111
249	0x400834af	2.1282156
250	0x3d080748	0.03321007
251	0x3e9c230d	0.30495492
252	0x3ed694b9	0.4191034
253	0x3f963115	1.1733729
254	0xbd1657bc	-0.036704764
255	0x3e294b2b	0.1653258

fcs1.bias f4 [128]
0	0x3e0205f4	0.12697583
1	0xbcad3300	-0.021142483
2	0xbe4893a7	-0.19587575
3	0x3e3e61cb	0.18591993
4	0x3d38bea7	0.045103695
5	0x3d5521f5	0.052034337
6	0x3e2ed94d	0.17075081
7	0xbe38edbe	-0.18059441
8	0x3de4563b	0.1114926
9	0x3c26797b	0.010160799
10	0xbd8ce192	-0.068789616
11	0xbd87a574	-0.066233546
12	0x3df3e495	0.11908833
13	0xbc50bb29	-0.012739935
14	0xbe359953	-0.1773427
15	0xbc71982a	-0.014745751
16	0xbdb2b975	-0.08726779
17	0xbe412cbb	-0.1886472
18	0x3e3dd68d	0.18538876
19	0xbdde37ec	-0.1085051
20	0x3adf8674	0.001705362
21	0xbe2e6de2	-0.17034104
22	0xbe21b456	-0.15791449
23	0x3df82733	0.12116852
24	0xbd5379b1	-0.051629726
25	0xbe4ecd81	-0.20195581
26	0xbd98c352	-0.074591294
27	0xbd951028	-0.07278472
28	0xbd918931	-0.07106245
29	0xbe33ccf9	-0.1755866
30	0xbe1e347d	-0.1544971
31	0xbe44d814	-0.19223052
32	0xbdbdb209	-0.09262473
33	0x3da3ac2a	0.07991822
34	0xbdb35345	-0.08756117
35	0x3df92ca1	0.121667154
36	0xbd708b48	-0.05872658
37	0x3c02e91d	0.007990149
38	0x3dd64c16	0.10463731
39	0xbe23fa3d	-0.16013427
40	0xbdbf0cb9	-0.093285985
41	0xbdb4e572	-0.08832826
42	0xbe32af09	-0.17449583
43	0xbd8bf24f	-0.06833326
44	0xbc211459	-0.009831511
45	0xbe1d6ece	-0.153743
46	0x3dde3eb9	0.10851807
47	0x3e097eda	0.13427296
48	0xbe1f15a9	-0.15535606
49	0xbe402faf	-0.1876819
50	0xbde27e8b	-0.110592924
51	0x3da77d37	0.0817818
52	0xbcecf429	-0.028925018
53	0xbe3e8241	-0.18604375
54	0xbdaa672b	-0.08320459
55	0x3cef35d1	0.029200466
56	0x3e3bf66e	0.18355724
57	0xbe02869f	-0.12746666
58	0x3d32f7a2	0.043693192
59	0xbe1410aa	-0.14459482
60	0xbc8f9316	-0.01752619
61	0x3dc5e00d	0.09661875
62	0xbe2b09a7	-0.16702901
63	0x3e110a33	0.14164047
64	0xbe197adf	-0.14988278
65	0xbd156015	-0.036468584
66	0xbe122972	-0.14273623
67	0xbdeb6e54	-0.11495653
68	0x3da271ea	0.07931884
69	0xbdf81577	-0.12113469
70	0xbd5a6c87	-0.053326156
71	0x3e2aeb3d	0.16691299
72	0x3dfc0e24	0.123073846
73	0x3e3cdbeb	0.18443267
74	0x3b720b00	0.0036932826
75	0xbbff2059	-0.0077858386
76	0x3d9ec024	0.07751492
77	0xbdfb9c40	-0.12285662
78	0xbe3d941b	-0.18513529
79	0x3e3fc566	0.18727645
80	0xbe1622fc	-0.14661783
81	0xbca2c0af	-0.01986727
82	0xbdfaed34	-0.12252274
83	0xbe42f20d	-0.19037648
84	0x3df5ab94	0.119956166
85	0xbcd34aae	-0.025792446
86	0xbd6338f2	-0.05547423
87	0x3dcd8ef2	0.1003703
88	0x3d73d999	0.05953369
89	0x3d61a14d	0.05508547
90	0xbe39a873	-0.18130665
91	0xbdc2e756	-0.0951678
92	0xbc694955	-0.014238675
93	0x3e0415cf	0.12898944
94	0xbe0228c6	-0.12710866
95	0xbe4d106c	-0.20025796
96	0xbd81fdf1	-0.063472636
97	0x3e47cd2c	0.1951186
98	0xbde96bbf	-0.11397504
99	0xbde541b6	-0.11194174
100	0x3d8c2f8b	0.068450056
101	0x3d949ae4	0.072561055
102	0xbe479e18	-0.19493902
103	0xbdc96074	-0.0983285
104	0xbca9794d	-0.020687724
105	0x3d93bdd7	0.072139435
106	0x3e2badfa	0.16765586
107	0x3dd6ae6b	0.10482486
108	0x3e41e7b8	0.1893605
109	0xbc6bab81	-0.014384151
110	0xbd811834	-0.063034445
111	0x3d8e498e	0.06947623
112	0x3e37a6a3	0.1793466
113	0xbd1e6ad6	-0.038676105
114	0xbdcedbb8	-0.10100502
115	0xbda9b7d0	-0.082870126
116	0xbc979466	-0.01850338
117	0x3d80ce01	0.06289292
118	0xbe492ef5	-0.19646819
119	0xbc84c2b1	-0.016206117
120	0x3dd1912f	0.1023277
121	0xbaf47af7	-0.0018652369
122	0xbac5f29e	-0.0015102213
123	0xbc8bb19e	-0.017052468
124	0xbd4707ab	-0.048591297
125	0xbd6a65ea	-0.0572261
126	0xbd646c88	-0.055767566
127	0x3dba9825	0.091110505

bn1.weight f4 [128]
0	0x3e62f543	0.22163872
1	0x3f4c499a	0.7979981
2	0x3f116500	0.5679474
3	0x3f1daead	0.6159466
4	0x3f3d259d	0.7388552
5	0x3f839bee	1.0281961
6	0x3ed08e20	0.40733433
7	0x3ef1084e	0.47076648
8	0x3ea9cf13	0.33165798
9	0x3efa0907	0.48835012
10	0x3e69cfb2	0.22833136
11	0x3ee76d50	0.45200586
12	0x3f548399	0.830133
13	0x3f2c429f	0.67289156
14	0x4076eb4d	3.8581116
15	0x3e2a5302	0.16633227
16	0x3ea7c077	0.32764027
17	0x3f21e374	0.6323769
18	0x3ea9e60e	0.3318333
19	0x3ef500e4	0.47852242
20	0x3ef4f1d7	0.4784076
21	0x3f0cc972	0.5499488
22	0x3eb9af04	0.3626634
23	0x3f26bda7	0.65133137
24	0x40739dcf	3.8065069
25	0x3ec0a3a9	0.37624863
26	0x3f23e55d	0.64021856
27	0x3e9f046d	0.31058064
28	0x3f0b627b	0.54447144
29	0x3f0ac6bf	0.5420951
30	0x3e86781a	0.26263505
31	0x3ed1a6b2	0.4094749
32	0x3ed9b856	0.4252345
33	0x3ef4c772	0.47808415
34	0x3f1c1a65	0.60977775
35	0x3f13e4fd	0.57771283
36	0x3ef2bfe8	0.47412038
37	0x3ef90623	0.48637494
38	0x3e8842f6	0.26613587
39	0x3ead2173	0.33814582
40	0x3ef4d7ae	0.478208
41	0x3f6d6f86	0.92748296
42	0x3ee69a04	0.4503938
43	0x3ec365f1	0.38163713
44	0x3f3702cc	0.7148864
45	0x3f705ce3	0.93891734
46	0x3f11c30a	0.5693823
47	0x3f0d2355	0.5513204
48	0x3f295ff5	0.66162044
49	0x3e9a11d4	0.30091727
50	0x3ecc6be2	0.39926058
51	0x3fae223f	1.3604201
52	0x3f470613	0.77743644
53	0x3ef652f8	0.48110175
54	0x3f40f6a4	0.75376344
55	0x3f8e6168	1.1123476
56	0x3efea2d6	0.4973361
57	0x3ebb9904	0.3664018
58	0x3f211f8a	0.6293875
59	0x3ec67d5d	0.3876752
60	0x3ee8eda5	0.45493808
61	0x3f05e2a4	0.5229895
62	0x3fbc05a7	1.4689225
63	0x3f000ec8	0.50022554
64	0x3ea3100b	0.31848177
65	0x3f1decc3	0.61689395
66	0x3ed5f7b6	0.4179055
67	0x3eca3f58	0.39501452
68	0x3f160618	0.5860305
69	0x3f19032b	0.5977046
70	0x3ed9887c	0.42486942
71	0x3ee3ba38	0.4447801
72	0x3f359df0	0.7094412
73	0x3f0fee77	0.56223243
74	0x3f7e851f	0.99421877
75	0x3ecd473a	0.40093404
76	0x3e5425ad	0.20717497
77	0x3ec2a6a2	0.38017756
78	0x3e99beaf	0.30028293
79	0x3f1548c1	0.5831414
80	0x3f30d2e5	0.690718
81	0x3ef5c4d4	0.4800173
82	0x3f343c56	0.70404565
83	0x3eeeb6c0	0.46623802
84	0x3e5f613f	0.2181444
85	0x3ed27bf9	0.4111021
86	0x3ed448a4	0.4146167
87	0x3ecf1d0e	0.40451854
88	0x3ee99817	0.45623848
89	0x3f4e3650	0.80551624
90	0x3f23274e	0.6373185
91	0x3eb9a81b	0.36261067
92	0x3f88a6c8	1.0675898
93	0x3ee59c8a	0.44845992
94	0x3e4ea13b	0.20178692
95	0x3e3bb477	0.1833056
96	0x3efb431f	0.49074647
97	0x3f4a1926	0.78944623
98	0x3ff686ca	1.9259884
99	0x3e83fc40	0.2577839
100	0x3eb965e9	0.36210564
101	0x3ed61c8a	0.4181865
102	0x3f0fd3c7	0.5618252
103	0x3efff7dd	0.49993792
104	0x3f1cf894	0.613168
105	0x3eedfed0	0.4648347
106	0x3f4e4fb7	0.80590385
107	0x3eedf313	0.46474513
108	0x3ec2d08d	0.38049737
109	0x3f2e75a6	0.6814827
110	0x3eee6d04	0.46567547
111	0x3ef3f90b	0.47650942
112	0x3ea25d4d	0.31711808
113	0x3f284e42	0.6574441
114	0x3f062e66	0.5241455
115	0x3eec8ce5	0.46201244
116	0x3e927162	0.2860213
117	0x3fa7719e	1.3081548
118	0x3e656ef3	0.22405605
119	0x3e96263a	0.2932604
120	0x3e986e2e	0.2977156
121	0x3f1f8389	0.6231008
122	0x3e798b67	0.24369584
123	0x3ee5cb01	0.44881442
124	0x3f2340d0	0.6377077
125	0x3ebe2609	0.37138394
126	0x3f17f945	0.5936473
127	0x3eba13fc	0.36343372

bn1.bias f4 [128]
0	0xbdb4119d	-0.08792422
1	0xbf010d4f	-0.5041093
2	0xbf26bfc9	-0.6513639
3	0xbd559aaa	-0.052149452
4	0xbf12522f	-0.5715665
5	0xbda5be13	-0.080928944
6	0xbe84a39a	-0.25906068
7	0xbea52f59	-0.32262686
8	0xbda96a6e	-0.08272253
9	0xbe57a07c	-0.21057314
10	0xbdc1eb88	-0.09468752
11	0xbc09ff44	-0.0084226765
12	0xbef7127f	-0.482563
13	0xbe567cf9	-0.20946111
14	0x3e37c55b	0.17946379
15	0xbc906f10	-0.017631084
16	0xbe25249f	-0.16127251
17	0xbf09f80a	-0.538941
18	0xbd132354	-0.035922363
19	0xbe805704	-0.25066388
20	0xbec18d51	-0.37803128
21	0xbe808eea	-0.25109035
22	0xbebc8d17	-0.36826393
23	0x3e910246	0.28322047
24	0x3e99473d	0.29937163
25	0xbeba4c93	-0.36386546
26	0xbf0f80bc	-0.5605581
27	0xbe275fd9	-0.16345157
28	0xbe9138fe	-0.28363794
29	0xbf293dad	-0.66109735
30	0x3d238fdb	0.039932113
31	0xbe39095f	-0.18069981
32	0xbee18852	-0.44049317
33	0xbf14977c	-0.58043647
34	0xbefae29b	-0.4900101
35	0xbf283428	-0.65704584
36	0xbec64985	-0.38727966
37	0xbe0aa63c	-0.13539976
38	0x3c21e821	0.009882004
39	0xbeb08f7f	-0.3448448
40	0xbeea8682	-0.45805746
41	0xbf1453c9	-0.57940346
42	0xbdccf86f	-0.100083224
43	0xbe2690b3	-0.16266136
44	0xbe219667	-0.1578003
45	0x3efc4775	0.49273267
46	0xbe5cf8d0	-0.2157929
47	0xbed9d9df	-0.42549035
48	0xbf56cbdf	-0.8390483
49	0xbbc16c45	-0.0059027993
50	0xbf1ea8bc	-0.6197622
51	0xbd192136	-0.037385188
52	0xbf85d5ac	-1.0455832
53	0xbf72d835	-0.94861156
54	0xbf1903ba	-0.5977131
55	0xbeb16d71	-0.3465381
56	0xbdd2b68b	-0.102887236
57	0xbe43cedf	-0.19121884
58	0xbed79d3c	-0.42112148
59	0xbecb7017	-0.39733955
60	0xbec5b276	-0.38612717
61	0xbf10032d	-0.56254846
62	0xbf6fb71d	-0.93638784
63	0xbee03fd9	-0.43798712
64	0xbececa8e	-0.40388912
65	0xbef1f3d3	-0.47256336
66	0xbeac6464	-0.33670342
67	0xbea84319	-0.3286369
68	0xbe96723b	-0.29384026
69	0xbdb1e05e	-0.08685373
70	0xbf02e2dc	-0.5112741
71	0xbe8a4eb0	-0.2701316
72	0xbbc60c8e	-0.006043977
73	0xbf55af0a	-0.83470213
74	0xbe26dbb8	-0.16294754
75	0xbf08d00a	-0.5344244
76	0xbbcff3b8	-0.006346192
77	0xbec7b7b7	-0.3900735
78	0x3d892114	0.06695762
79	0xbead0d30	-0.33799124
80	0xbde19796	-0.11015241
81	0xbf0110e6	-0.5041641
82	0xbe77b5ed	-0.24190493
83	0xbebdea98	-0.37093043
84	0xbda31573	-0.079630755
85	0xbe8521a1	-0.2600222
86	0xbe0c4122	-0.13696721
87	0xbe3ca933	-0.1842392
88	0xbd026cd0	-0.031842053
89	0xbeaf9dcb	-0.34300074
90	0xbe35d858	-0.1775831
91	0xbe81af3f	-0.25329015
92	0xbeb10d71	-0.34580567
93	0xbefd4591	-0.49467137
94	0xbdb3feda	-0.087888435
95	0x3b920dab	0.0044571958
96	0xbeb2db6a	-0.34933025
97	0xbf4739da	-0.7782265
98	0xbd0c4fea	-0.0342559
99	0xbe408d11	-0.18803813
100	0xbe7a65f6	-0.24452958
101	0xbe2d76c9	-0.16939844
102	0xbefce6dd	-0.49394885
103	0xbea9fb36	-0.3319947
104	0xbf8fc6a1	-1.1232492
105	0xbe8d9c89	-0.2765849
106	0xbeb58694	-0.35454237
107	0xbd75f282	-0.060045727
108	0xbf154c10	-0.5831919
109	0xbf312257	-0.69193023
110	0xbeb0d6a8	-0.3453877
111	0xbf11792c	-0.5682552
112	0xbe4dbd99	-0.20091857
113	0xbe833a64	-0.25630486
114	0xbf3f3464	-0.74689317
115	0xbea1bbf4	-0.3158871
116	0xbe285045	-0.1643687
117	0xbdc30213	-0.0952188
118	0xbdd3f1e4	-0.10348871
119	0xbf088a24	-0.53335786
120	0xbb016e72	-0.0019749668
121	0xbf7a00d1	-0.97657496
122	0x3d370e16	0.044691168
123	0xbe9ca669	-0.3059571
124	0xbeb0be85	-0.34520355
125	0xbdc261bb	-0.09491297
126	0xbee4f81d	-0.44720545
127	0xbe55d4ff	-0.20882033

bn1.running_mean f4 [128]
0	0xc1d66677	-26.800032
1	0xc12a8bb8	-10.659111
2	0xc1d930bf	-27.148802
3	0x412c91e3	10.785617
4	0xc17be9f3	-15.7446165
5	0xc0b44f28	-5.6346626
6	0x408c1791	4.3778768
7	0x3faeb92d	1.3650261
8	0x41e73d65	28.904978
9	0xc2426f66	-48.608788
10	0xc1a9a0f1	-21.203585
11	0x426f8873	59.88325
12	0x41b85edf	23.046324
13	0x41c26698	24.300095
14	0xc00efd1f	-2.2341993
15	0x4123dbb7	10.241141
16	0xc1d9d105	-27.22706
17	0x41e712cc	28.884178
18	0xc1fe0667	-31.753126
19	0x41af906f	21.945524
20	0xc23dc700	-47.444336
21	0x42101edd	36.03014
22	0xc11e6065	-9.898534
23	0xbedefbdb	-0.43551525
24	0xbf91b2f9	-1.1382743
25	0xc10e6443	-8.899478
26	0x40b09ef9	5.519406
27	0x41808d4d	16.068995
28	0x40bc65a1	5.887406
29	0x41cab4be	25.338253
30	0x413e2d76	11.886099
31	0xc19f13ad	-19.884607
32	0x4211b1e5	36.423725
33	0x423be682	46.975105
34	0xc227be7e	-41.936028
35	0xc1eb8999	-29.442186
36	0x406f1977	3.7359293
37	0xc1cf0090	-25.875275
38	0x418e3581	17.776125
39	0xc15794e7	-13.473853
40	0xc210fb39	-36.245335
41	0x422cea1d	43.228626
42	0x420c8370	35.128357
43	0x40682248	3.6270924
44	0xbe84bf3e	-0.25927156
45	0x4048881a	3.133307
46	0x41fe495e	31.785824
47	0xc0ce643b	-6.449735
48	0xbf7cf58b	-0.9881217
49	0xc1385d25	-11.52274
50	0x418ed761	17.855165
51	0xc007719f	-2.11631
52	0x4085066f	4.1570354
53	0xc2a08156	-80.25261
54	0x4217a89e	37.914665
55	0xc13f9b09	-11.97535
56	0x41389959	11.537438
57	0x426dc8f5	59.446247
58	0x4203280c	32.78911
59	0xc0aa94af	-5.33065
60	0x41bb1549	23.385393
61	0x41cd9fc6	25.703014
62	0xc0857f4c	-4.171789
63	0x422c5d08	43.09085
64	0xc0faa80b	-7.833013
65	0x421ea5b1	39.661808
66	0xc11ddc0c	-9.866222
67	0xc0d978d0	-6.7959976
68	0xc0ce5909	-6.4483685
69	0x41cfaec7	25.96034
70	0x422fe059	43.96909
71	0x410428ba	8.259943
72	0x3f9c52ee	1.2212808
73	0xc2420828	-48.507965
74	0xc1ed1548	-29.635391
75	0xc10142f4	-8.078846
76	0xc06b167b	-3.673247
77	0xc1c6216b	-24.766317
78	0xc193a7f8	-18.457016
79	0x41cf6450	25.92398
80	0xc10c8ce2	-8.784395
81	0x41abd418	21.478561
82	0x40798360	3.8986435
83	0x4277cd7a	61.95066
84	0x402aab1a	2.6666932
85	0xc1b0f890	-22.121368
86	0x424927c1	50.288822
87	0x40dde1e9	6.933827
88	0xc0668e79	-3.6024458
89	0xc122565b	-10.146083
90	0xbe4119bd	-0.18857475
91	0x41817141	16.1803
92	0x41c9b26d	25.212122
93	0xc1800081	-16.000246
94	0xc1357632	-11.341356
95	0x420eb079	35.672337
96	0x41a52f7f	20.648191
97	0xc16fdc9b	-14.991359
98	0xc095a934	-4.6769047
99	0x41e2244a	28.26772
100	0xc22c36d2	-43.053535
101	0x42224eb9	40.576878
102	0x40d3901b	6.611341
103	0x412c8263	10.781833
104	0xc1b980c9	-23.187883
105	0x422dd92b	43.46208
106	0xc0d61ffc	-6.6914043
107	0x41c381d3	24.43839
108	0xc227b671	-41.928165
109	0xc1ba2b28	-23.271072
110	0x40323ee4	2.7850885
111	0xc22b65c6	-42.84939
112	0x40d6e0d1	6.7149434
113	0xc048530a	-3.1300683
114	0xc20c708a	-35.1099
115	0x424a0c3b	50.511944
116	0x40a849b6	5.258998
117	0x40f7c747	7.743076
118	0xc21085b7	-36.13058
119	0xc210f732	-36.2414
120	0x420626d6	33.537926
121	0x41428772	12.158068
122	0x41891b65	17.138376
123	0x4234386e	45.055107
124	0xc1f80fc7	-31.007704
125	0xc1d911b2	-27.13364
126	0x42157678	37.365692
127	0xc1a7f063	-20.992376

bn1.running_var f4 [128]
0	0x443f8b0a	766.1725
1	0x43594036	217.25082
2	0x444cd2e6	819.2953
3	0x43c2e37c	389.77722
4	0x4434a828	722.62744
5	0x4584dce3	4251.611
6	0x43aa56bb	340.67758
7	0x444c9264	818.28735
8	0x44493d7d	804.96075
9	0x43b37827	358.9387
10	0x43ae611e	348.75873
11	0x443fbad3	766.9191
12	0x4392737a	292.90216
13	0x43a076a8	320.927
14	0x466a3c03	14991.003
15	0x44d6738b	1715.6107
16	0x436bbef4	235.74591
17	0x437b1126	251.06699
18	0x44a52a2e	1321.3181
19	0x437304cb	243.01872
20	0x446e5895	953.3841
21	0x440ff527	575.8305
22	0x422d3707	43.303738
23	0x41913dd8	18.155197
24	0x459f9b90	5107.4453
25	0x441a8a1f	618.15814
26	0x44210a74	644.1633
27	0x42835581	65.667
28	0x43f0f9b4	481.9508
29	0x4447519e	797.27527
30	0x43cc949a	409.16095
31	0x443a5980	745.39844
32	0x4415a36e	598.5536
33	0x43dcd0d7	441.63156
34	0x4443eec4	783.7307
35	0x4388330c	272.3988
36	0x4243453b	48.817608
37	0x4422a853	650.63007
38	0x44745b23	977.424
39	0x43e91dc5	466.23257
40	0x43ed7d26	474.97772
41	0x43666881	230.40822
42	0x442f96c3	702.35565
43	0x44363eae	728.9794
44	0x4286ce28	67.40265
45	0x423b47f1	46.820255
46	0x43b8d44b	369.65854
47	0x43f1c711	483.5552
48	0x43e31b32	454.21246
49	0x4422ee30	651.7217
50	0x44485b9f	801.4316
51	0x45660e0d	3680.8782
52	0x42c00df2	96.02724
53	0x44048815	530.1263
54	0x43968c48	301.09595
55	0x44843f5d	1057.9801
56	0x4416fffa	603.99963
57	0x4406af5c	538.74
58	0x4392aba4	293.34094
59	0x443d99ae	758.40125
60	0x440cddcd	563.46564
61	0x4479602b	997.5026
62	0x42beb537	95.353935
63	0x44311914	708.39185
64	0x442a1215	680.28253
65	0x43951893	298.192
66	0x443742ed	733.0457
67	0x44549da1	850.46295
68	0x42a0d9b6	80.42522
69	0x446dd9c3	951.4025
70	0x4413eadf	591.66986
71	0x4424b409	658.81305
72	0x415d79c7	13.842231
73	0x433d7275	189.4471
74	0x44ee7844	1907.7583
75	0x44d19679	1676.7023
76	0x43c82da3	400.35654
77	0x439e1825	316.18863
78	0x438cfcd2	281.97516
79	0x43746c92	244.4241
80	0x44ddd478	1774.6396
81	0x4435745f	725.8183
82	0x442107fc	644.12476
83	0x43bcf6e5	377.92886
84	0x44584a0b	865.1569
85	0x439689f3	301.07773
86	0x43cd989f	411.19235
87	0x434cc6d6	204.7767
88	0x453ebf27	3051.947
89	0x4479064d	996.09845
90	0x420917f5	34.273396
91	0x442632f0	664.7959
92	0x44387528	737.83057
93	0x441793cb	606.30927
94	0x439afa18	309.95386
95	0x43d54b5c	426.58875
96	0x4449d519	807.32965
97	0x441bac61	622.6934
98	0x44f14bbf	1930.3671
99	0x4433878b	718.11786
100	0x445a1449	872.31696
101	0x43784287	248.25987
102	0x4377b4c8	247.70618
103	0x448dab5b	1133.3549
104	0x432f2518	175.1449
105	0x43cffa6a	415.95636
106	0x43501885	208.09578
107	0x42a99f17	84.81072
108	0x442615c0	664.33984
109	0x4402e4c4	523.57446
110	0x42aa9d09	85.30671
111	0x440861a2	545.5255
112	0x4403ac25	526.68976
113	0x4495f489	1199.6417
114	0x439f6489	318.78543
115	0x43e630a4	460.38
116	0x44250e31	660.22174
117	0x4504db8e	2125.7222
118	0x441c368b	624.85223
119	0x433deaf9	189.91786
120	0x440695ac	538.3386
121	0x43761b8e	246.10764
122	0x42b2c828	89.39093
123	0x4398ab75	305.3395
124	0x4430c239	707.0347
125	0x4438b040	738.7539
126	0x4425b175	662.77277
127	0x4499514f	1226.5409

fc2.weight f4 [56, 130]
0	0xbe9ae8f0	-0.30255842
1	0x3d513d5d	0.05108391
2	0xbd857e97	-0.06518286
3	0x3df74a27	0.1207469
4	0xbe92090a	-0.2852252
5	0x3b838226	0.0040133176
6	0x3e402508	0.18764126
7	0x3dbf3d77	0.09337895
8	0x3e3de810	0.18545556
9	0x3e309719	0.17245139
10	0xbecb299c	-0.39680183
11	0xbec2f9b4	-0.38081133
12	0x3e0bab02	0.13639453
13	0x3dfb1b8d	0.12261114
14	0x3f1b8e1e	0.6076373
15	0xbed81f6b	-0.4221147
16	0xbe87c1d6	-0.26515073
17	0x3e5f2d41	0.21794607
18	0x3e5e8ee1	0.21734191
19	0x3eb685b4	0.35648882
20	0xbe0a62f0	-0.13514304
21	0x3e992170	0.29908323
22	0xbf05b1ce	-0.52224433
23	0xbed59574	-0.41715586
24	0xbf2080f0	-0.62696743
25	0x3b65a51d	0.0035041042
26	0x3e0696c0	0.13143444
27	0x3d457215	0.0482045
28	0xbe92ebdd	-0.28695574
29	0xbeb7b6fe	-0.358818
30	0xbda71c60	-0.08159709
31	0xbd2ac137	-0.04168817
32	0xbe3822a5	-0.17981966
33	0x3dc08fa0	0.09402394
34	0xbdb8485d	-0.08998177
35	0x3c895332	0.016763303
36	0xbefa6d40	-0.48911476
37	0xbe60bb20	-0.21946383
38	0x3e9718fd	0.29511252
39	0x3db54352	0.08850731
40	0x3e992a75	0.29915205
41	0xbdbac883	-0.09120276
42	0xbcc242ed	-0.023713553
43	0xbcaeebcd	-0.021352673
44	0x3e0e92b0	0.13923144
45	0x3eda6d5f	0.4266157
46	0x3e700714	0.234402
47	0xbca1a9e1	-0.019734325
48	0xbd7ae7f6	-0.06125637
49	0xbd79317f	-0.06083822
50	0x3e226539	0.15858926
51	0x3c9ca425	0.019121239
52	0xc037ca6b	-2.8717296
53	0x3f3900bb	0.7226674
54	0xbd3275ea	-0.043569483
55	0x3ea5f85f	0.32416055
56	0x3e51b364	0.20478588
57	0x3dcd051d	0.10010741
58	0xbe74c17d	-0.23901935
59	0x3cbe7721	0.023250164
60	0x3dd64b52	0.10463585
61	0xbe6c22b1	-0.23060109
62	0x3df07460	0.11740947
63	0xbe5c0a97	-0.21488415
64	0x3e5d0318	0.21583211
65	0xbcd5c01d	-0.026092583
66	0xbd070810	-0.032966673
67	0xbdc86788	-0.09785372
68	0x3f824038	1.0175848
69	0x3d937581	0.072001465
70	0x3d60eb1d	0.05491172
71	0xbe83f7d1	-0.25775006
72	0x3e752a3b	0.23941891
73	0xbff9aeeb	-1.9506506
74	0x3f26e51a	0.6519333
75	0x3e565565	0.20931013
76	0xbdfcbf6f	-0.123412006
77	0x3d65abc2	0.056072004
78	0xbe8404e2	-0.25784975
79	0xbe92ca0d	-0.28669778
80	0x3e4c4931	0.19949795
81	0xbeb9ee81	-0.36314777
82	0x3eaae3cc	0.3337692
83	0xbd08a625	-0.033361573
84	0x3be3b5d2	0.006949165
85	0xbdf98ebc	-0.121854275
86	0xbde69fef	-0.11260974
87	0xbea575ac	-0.3231634
88	0xbd1c4b9c	-0.038158044
89	0xbdb680f6	-0.08911316
90	0xc01b4c22	-2.4265218
91	0x3e12b636	0.1432732
92	0xbda55d21	-0.080744036
93	0x3ef93ef7	0.4868085
94	0xbd75e9ee	-0.060037546
95	0x3e002f71	0.12518097
96	0x3ce8ac64	0.028402515
97	0xbf6bf921	-0.92177016
98	0xbebf5f92	-0.37377602
99	0xbd8af396	-0.067847416
100	0xbe269eea	-0.16271558
101	0x3d9d8814	0.076919705
102	0x3c4735c7	0.012158818
103	0xbe7bba59	-0.24582805
104	0xc000d007	-2.012697
105	0x3e93049d	0.28714457
106	0xbd0c6187	-0.034272697
107	0xbe936787	-0.28789923
108	0x3d8a8eac	0.06765494
109	0x3e721315	0.23640092
110	0x3d85a12f	0.06524884
111	0x3f308c29	0.6896387
112	0xbaa58592	-0.0012628308
113	0xbdae0285	-0.08496574
114	0xbdbfeb71	-0.09371079
115	0x3ed47425	0.4149486
116	0xbe3eef61	-0.18646003
117	0xbf22a838	-0.6353793
118	0xbee4863a	-0.44633657
119	0x3ef1b722	0.47210032
120	0x3dafb9d4	0.08580366
121	0xbf0d4344	-0.55180764
122	0xbeda9b78	-0.42696738
123	0xbea70615	-0.32621828
124	0xbe29ca8a	-0.16581169
125	0xbf11c6ee	-0.5694417
126	0x3d4f0923	0.050545823
127	0x3e54f216	0.20795473
128	0xba9f4731	-0.0012151954
129	0x3c2efa54	0.0106798
130	0xbd90157a	-0.07035346
131	0x3d298a85	0.04139187
132	0xbc9aeec0	-0.018912673
133	0x3e162a48	0.14664567
134	0x3dd078ca	0.10179289
135	0x3e463f5f	0.19360112
136	0x3d8efe3d	0.06982086
137	0x3d0d4eca	0.034498967
138	0x3da05b55	0.0782992
139	0x3e27823e	0.16358277
140	0x3e524755	0.20535024
141	0x3e2a7cb2	0.1664913
142	0xbcccef80	-0.025016546
143	0x3de1a5cb	0.110179506
144	0xbfc03544	-1.5016255
145	0x3e294dc7	0.16533576
146	0xbc72896c	-0.014803272
147	0xbc8d1f40	-0.017226815
148	0x3e0bdcc6	0.13658437
149	0xbd4de401	-0.05026627
150	0x3e28d2e3	0.16486697
151	0xbdfb9310	-0.12283909
152	0x3da4d925	0.080492295
153	0xbd4cf51c	-0.050038442
154	0xbfb40c27	-1.4066209
155	0xbd096bdb	-0.033550125
156	0x3c6390d2	0.013889508
157	0xbceedcf2	-0.02915809
158	0xbb343bd0	-0.0027501471
159	0xbdd4597c	-0.1036863
160	0xbe5255a6	-0.20540485
161	0xbe1bca94	-0.15213996
162	0x3d7059d8	0.05867943
163	0x3c61301a	0.013744378
164	0x3e239570	0.15974975
165	0xbd492aa9	-0.04911295
166	0x3e8ec14f	0.27881858
167	0x3e3f7120	0.18695498
168	0xbcc21c70	-0.0236952
169	0x3d04bc6e	0.032406263
170	0x3cc1f8ba	0.023678172
171	0xbdd56cdc	-0.10421154
172	0x3d5584ef	0.05212873
173	0x3d6498da	0.055809833
174	0x3d96b041	0.073578365
175	0xbf037920	-0.513567
176	0xbe15b651	-0.1462033
177	0xbda9fd10	-0.08300221
178	0x3f0ffc68	0.56244516
179	0x3db37f25	0.08764485
180	0xbd179e6d	-0.03701632
181	0xbebf6152	-0.37378937
182	0xbf62a60b	-0.8853461
183	0xbd5f751d	-0.054555047
184	0xbd99bf33	-0.075071715
185	0xbd1d968c	-0.03847365
186	0xbea1a783	-0.31573114
187	0x3d200a80	0.039072514
188	0x3bb732eb	0.0055907867
189	0xbcc4ac33	-0.024007892
190	0xbe223b0f	-0.15842842
191	0xbdadab7c	-0.08479974
192	0xc00d99c6	-2.2125106
193	0xbc8fb8e6	-0.017544221
194	0x3de6251a	0.11237545
195	0x3c85bfff	0.016326902
196	0xbc9af043	-0.018913394
197	0xbdd90f92	-0.10598673
198	0x3e980011	0.2968755
199	0xbdc023ae	-0.09381805
200	0x3e2f390f	0.1711161
201	0xbe4704d3	-0.19435434
202	0xbf19d74b	-0.60094136
203	0xbde9e9b5	-0.11421529
204	0x3e9dc959	0.3081768
205	0xbe23c5bc	-0.15993398
206	0xbc916078	-0.017746195
207	0xbea50f34	-0.32238162
208	0x3c78d4ce	0.015187455
209	0x3ddefe42	0.108883396
210	0xbde7629c	-0.11298105
211	0xbd480d85	-0.04884102
212	0xbe59d3f3	-0.21272258
213	0x3dd5a5e4	0.10432032
214	0x3c1500da	0.009094441
215	0xbe0dd410	-0.13850427
216	0xbe26af45	-0.16277798
217	0x3e102a42	0.1407862
218	0xbc605a19	-0.013693356
219	0x3d85f087	0.065400176
220	0x39cc458f	0.00038961737
221	0xbc9b0012	-0.018920932
222	0xbdc1ca3e	-0.09462403
223	0xbea0ed4f	-0.31431052
224	0xbcae7b72	-0.021299098
225	0x3e10218e	0.140753
226	0x3ad16972	0.001597686
227	0xbea7f98d	-0.3280758
228	0xbf3f2727	-0.74669117
229	0xbaeb64aa	-0.0017959077
230	0xbe076f58	-0.13226068
231	0x3e2a7dfe	0.16649625
232	0xbc9f270c	-0.019427799
233	0xbdcc4a02	-0.09975053
234	0xc0149c59	-2.3220427
235	0x3baf7e87	0.0053556594
236	0x3e18d48e	0.14924833
237	0xbd5518eb	-0.052025717
238	0xbd461ef1	-0.04836935
239	0xbec6b4f3	-0.38809928
240	0xbe4417d1	-0.1914971
241	0x3b5b8384	0.0033495137
242	0x3dd9eda2	0.10641028
243	0xbb10bcf6	-0.0022085286
244	0xbee8b11b	-0.4544762
245	0xbdf29162	-0.11844136
246	0x3c005524	0.007832799
247	0xbe8eee54	-0.27916205
248	0x3e945d1a	0.2897728
249	0x3b88a8c0	0.004170507
250	0xbcc3cc1d	-0.02390104
251	0xbe9910a3	-0.29895505
252	0x3e1efa7e	0.15525243
253	0xbd5575c5	-0.052114267
254	0xbd59ba70	-0.053156316
255	0x3e8dab32	0.27669674

fc2.bias f4 [56]
0	0xbe3c6a91	-0.18400027
1	0x3f75402e	0.95801055
2	0xbee4a326	-0.44655722
3	0xbc4050da	-0.0117380265
4	0x3d346d9c	0.044049844
5	0xbdb376df	-0.08762907
6	0xbc1568b9	-0.009119206
7	0xbc9f8e15	-0.01947693
8	0xbe8a81ad	-0.2705206
9	0xbe07bc5e	-0.1325545
10	0x3ece544d	0.4029869
11	0xbe7dd7a6	-0.24789295
12	0xbea8aac2	-0.32942778
13	0x3d1aba03	0.03777505
14	0xbc4feba0	-0.012690455
15	0x3f6c8008	0.9238286
16	0x3e105361	0.14094307
17	0xbe4b9ce8	-0.19884074
18	0xbeac93cb	-0.33706507
19	0xbe3e8aea	-0.18607679
20	0x3dd7c1f3	0.1053504
21	0xbc649b22	-0.013953002
22	0x3d230ec1	0.039808992
23	0x3e9c1c3d	0.30490294
24	0xbe637ba6	-0.22215137
25	0xbdb03014	-0.0860292
26	0xbf1b5afa	-0.60685694
27	0xbdbafa8f	-0.091298215
28	0xbecd2e77	-0.40074512
29	0xbd6109fb	-0.05494116
30	0xbdb6c4e5	-0.089242734
31	0xbe629bd6	-0.22129759
32	0xbe1328aa	-0.14370981
33	0x3e296491	0.1654227
34	0xbf307f4e	-0.6894425
35	0x3c03f13a	0.008053118
36	0xbdf9113e	-0.12161492
37	0x3e7ae54a	0.2450153
38	0xbee6323c	-0.449602
39	0xbdaf552d	-0.08561168
40	0x3eab611e	0.33472532
41	0x3e44216e	0.19153377
42	0xbe382bfa	-0.17985526
43	0xbc90c0b0	-0.017670006
44	0xbd36e4c4	-0.04465176
45	0xbe518d4f	-0.20464061
46	0x3e4e1e0d	0.20128651
47	0xbed5f872	-0.4179111
48	0x3cb30869	0.021854596
49	0xbc9e2396	-0.019304078
50	0x3e21bd1f	0.157948
51	0x3dc8d3e3	0.09806039
52	0x3e7b8ab5	0.24564631
53	0xbe951d13	-0.29123744
54	0xbe0c138f	-0.13679336
55	0xbe93b40a	-0.28848296

fc3.weight f4 [1, 56]
0	0xbc32655d	-0.010888425
1	0x3d05ddac	0.032682106
2	0xbd97df34	-0.074156195
3	0x3d65dfd7	0.056121673
4	0x3dcd2f23	0.10018756
5	0x3d958706	0.07301144
6	0xbc7ecfc7	-0.015552468
7	0xbd37429a	-0.04474125
8	0xbe2ccece	-0.16875765
9	0x3d9a67ec	0.07539353
10	0xbc304dd1	-0.01076074
11	0x3c96d0ce	0.018410113
12	0xbe1d6aa7	-0.15372716
13	0x3d0838a1	0.03325713
14	0xbdc91ce1	-0.09819961
15	0x3d58be4b	0.052915853
16	0x3ce16b0d	0.027516866
17	0x3df034c2	0.11728813
18	0xbdd3cacc	-0.10341415
19	0xbd1244ab	-0.035710018
20	0x3d258718	0.04041204
21	0x3d31723c	0.043321833
22	0x3cc1a8ca	0.023640055
23	0xbdc37276	-0.09543316
24	0x3d5bf91c	0.053704366
25	0xbd1b19e9	-0.037866507
26	0xbc78373e	-0.0151498895
27	0xbddb6cf0	-0.107141376
28	0xbd17896b	-0.036996286
29	0x3d4cbfbb	0.049987536
30	0x3b3de8cd	0.0028977871
31	0xbe26deac	-0.1629588
32	0x3cabcfec	0.020973168
33	0x3d9b1aa4	0.07573441
34	0xbcd590ec	-0.02607008
35	0x3d709649	0.058737073
36	0x3d2ecedb	0.04267774
37	0x3ca46243	0.020066386
38	0xbd8e8453	-0.069588326
39	0xbdc6c1e3	-0.0970495
40	0x3c91f903	0.017818933
41	0xbdd0dc3c	-0.101982564
42	0xbe12fd07	-0.14354335
43	0x3c99fb4c	0.018796586
44	0xbdeb2d64	-0.11483267
45	0xbcba1edf	-0.022719799
46	0x3cd08f53	0.025458967
47	0xbd9235c1	-0.07139159
48	0xbca7e144	-0.020493157
49	0x3dce9330	0.100866675
50	0xbdaa2a32	-0.08308829
51	0xbc137df6	-0.009002199
52	0xbbd74e91	-0.006570645
53	0x3d532348	0.05154732
54	0x3e29308f	0.1652243
55	0x3d0c80d0	0.034302533
