checkpoint_critic.pth (torch_old, 45944 bytes, 9 tensors)

fcs1.weight f4 [128, 24]
000000 ca 10 c1 3f 29 40 01 be 43 0c 6a 3d d5 3f 84 bf
       1.5083249 -0.12622131 0.0571406 -1.033198
000010 af 04 17 3e d9 c1 50 3f 8c 0d 05 bd 9d 19 76 bf
       0.1474788 0.8154579 -0.032483622 -0.9613283
000020 93 00 a3 3f f0 de 2b be 3a ed d3 3e a2 38 01 bf
       1.273455 -0.16784263 0.41391927 -0.5047704
000030 4e af 63 bf a2 a3 6c 3f db 1f 71 3e 5c f6 09 bf
       -0.8893937 0.92437184 0.23547308 -0.5389154
000040 e1 95 c0 3f 1a fb d7 be b6 84 24 3e 27 e5 83 bf
       1.504574 -0.42183763 0.1606625 -1.0304307
000050 39 b1 1f bf 6a 81 78 3f 1f 23 b3 3e 0d 58 7d bf
       -0.62379795 0.9707247 0.34987733 -0.9896248
000060 02 fb f8 3e 82 77 28 bf 7d 1e 35 3d ba 50 56 3d
       0.48629004 -0.65807354 0.04421853 0.05232308
000070 b1 e5 c4 bd 9a e1 e2 be db 78 9a bd 77 60 b5 3b
       -0.09614123 -0.44312745 -0.075425826 0.005535181
000080 22 e4 3f 3f be c9 1b bf ae 54 c4 bc 84 28 1b bd
       0.7495748 -0.6085471 -0.02396616 -0.037880436
000090 7f b6 38 bf c0 a7 54 3f b4 aa 74 3c 46 e1 ab bb
       -0.72153467 0.83068466 0.014933277 -0.0052453605
0000a0 5b ae a0 3f 3b ec 1f c0 96 ff 29 3e 65 cb c1 bd
       1.2553209 -2.4987934 0.16601405 -0.094626226
0000b0 17 0f ae bf 18 89 26 40 8f 8a 84 bd d3 04 28 3b
       -1.3598355 2.6021175 -0.064717405 0.002563764
0000c0 71 14 bc 3f 60 11 8e be e1 fb ac 3d b4 1b a2 3e
       1.4693738 -0.2774763 0.084464796 0.3166176
0000d0 b8 41 8e bf 95 e7 c0 be 6d ae 4e bd b3 51 51 3e
       -1.1113806 -0.37676683 -0.050459314 0.20441322
0000e0 f3 79 9d 3f 82 73 e8 3d c8 8f 30 bc 80 3e 79 3f
       1.2302841 0.11350156 -0.010776468 0.9736099
0000f0 62 78 94 bf e9 6b 90 3e 6c e8 f5 3d c6 50 85 3f
       -1.1599238 0.2820733 0.120072216 1.0415275
000100 dc 4d 79 3f b7 51 0f bf 78 0b ac 3e ed 1f 0f 3f
       0.9738443 -0.5598406 0.336025 0.5590809
000110 56 27 b6 bf 8e fd af 3f 44 43 bf 3e d6 be 06 3f
       -1.4230754 1.3749254 0.37356007 0.5263494
000120 56 6d cb bf 1e 5b 4d 3f d6 d3 72 be 0a b0 57 3d
       -1.5892742 0.8021716 -0.23713621 0.05265812
000130 f8 f2 93 3c c3 10 cd bf 6a ea 6a bc b1 3a 6a 3e
       0.018060192 -1.602074 -0.014338115 0.22873951
000140 33 44 7c bf 8a e7 0a 3f eb 43 64 be d8 7b d8 3e
       -0.98541564 0.5425955 -0.22291534 0.42281985
000150 5a 19 90 3e ce f0 a9 bf 6b c4 19 bd 9f b3 f1 3e
       0.28144342 -1.3276613 -0.037540834 0.47207353
000160 e1 43 8b be 7d 46 02 3f 59 69 71 3e 87 74 c1 bf
       -0.27200225 0.50888807 0.23575343 -1.5113686
000170 ec 2a e7 3f df f1 a7 bf 87 81 ec bd c5 6c be bf
       1.8059974 -1.3120688 -0.11548143 -1.4876944
000180 27 1d ea 3f e5 2d 88 bf 5d ec 86 be 63 07 97 bd
       1.8290147 -1.0639006 -0.26352206 -0.07374456
000190 5b f2 80 3f 6f cf 88 3e 5b ee 28 be dd 14 e7 bd
       1.0073961 0.2672076 -0.16497175 -0.11283276
0001a0 31 5c 62 3f 9a 48 ae bf cf 4b 80 3d ce a6 c3 3d
       0.8842192 -1.3615906 0.06264459 0.095533
0001b0 3b ee a2 3f 53 bb 45 3f 38 d0 46 bc e5 f0 f9 3d
       1.2728952 0.7723896 -0.012134604 0.1220415
0001c0 bd cc 26 3f 65 db d6 bf 02 7f 73 3d 4a e9 e6 3e
       0.65156156 -1.6785704 0.059447296 0.4509986
0001d0 ae d7 e3 3f 13 99 26 40 4a 68 61 bd 2d 03 c7 3e
       1.7800195 2.603093 -0.0550311 0.3886961
0001e0 21 aa 85 3e fc 90 19 bf 7a ff 86 3d 69 7d f1 3d
       0.2610636 -0.59986854 0.06591697 0.11791498
0001f0 a5 24 5e c0 4c 77 bd be ad cc 89 bd 63 7e 05 3d
       -3.4709866 -0.3700508 -0.06728492 0.032591235
000200 8f 18 15 3e 8c ba 05 bf 87 99 09 3e 93 4b 44 3c
       0.1456015 -0.5223777 0.13437472 0.011980909
000210 6b ae 07 c1 2f 0a 0d bf de 04 2f be c4 c6 8e 3e
       -8.4800825 -0.55093664 -0.170917 0.2788602
000220 3a 54 84 bd cd 95 e3 3c 97 5c df 3d cc 82 c8 3d
       -0.064613774 0.027781392 0.10906332 0.097905725
000230 d2 b7 32 3e 58 7f 16 3d 08 8b 13 be f1 64 1b 3e
       0.17452934 0.03674254 -0.14408505 0.15175225
000240 6a 78 b5 be 11 48 82 3f 82 43 2a 3d c0 ec a3 3e
       -0.3544343 1.0178243 0.041568287 0.32016563
000250 9b 92 f7 be 5d 07 2e c0 68 c6 f0 3d 1d b6 c9 3e
       -0.4835404 -2.7191994 0.11756593 0.39396754
000260 4f 09 b4 bf 11 c7 a8 3f c2 dd 50 be 11 30 83 3e
       -1.4065341 1.318575 -0.20397094 0.2562261
000270 1a d0 a9 3d 4d fb 0c c0 d6 1a b9 be af 47 a9 3e
       0.08291645 -2.2028382 -0.36153287 0.33062503
000280 bc ad cf bf fb d9 b0 3f aa b8 06 be c8 51 d9 3e
       -1.6224895 1.3816522 -0.13156381 0.42445207
000290 07 92 47 3f 0f a6 b3 bf a1 4e 9e bd 1a e8 13 3f
       0.77957195 -1.4035052 -0.07729841 0.57776034
0002a0 ef df ad bc f7 70 57 3e 5b 62 4c be 32 e2 20 3f
       -0.021224944 0.21039186 -0.19959395 0.62845147
0002b0 e2 af 82 3f 14 3e 66 3f a2 c7 05 bd 1d d3 1c 3f
       1.0209925 0.89938474 -0.032661088 0.61259633
0002c0 15 23 15 3f a2 bd 39 3d fe 32 be 3e ca c4 d3 3e
       0.58256656 0.045346864 0.3714828 0.41361076
0002d0 96 09 88 3f 72 7e 94 3f de ca ac bb 1c a8 5a 3d
       1.0627925 1.1601088 -0.005273207 0.053382978
0002e0 d4 6b a0 3f eb ce 7d be 19 3f dc 3e 98 5d 02 bf
       1.2532907 -0.24785964 0.4301689 -0.5092406
0002f0 d8 fc d5 3f 84 6b e6 3f fa 9b f6 3e 2a 3c a8 be
       1.6717787 1.8001561 0.48165876 -0.32858402
000300 cc 5b d4 bf 11 16 6d 3e c7 e4 20 3d a6 6a 1e bf
       -1.6590514 0.23152949 0.03928068 -0.6188148
000310 05 ea b1 3e e7 75 03 3f 91 5e c3 bd 31 73 11 bf
       0.34748855 0.5135178 -0.095395215 -0.56816393
000320 3a 71 61 bf 53 e0 ea be 12 d7 12 3f 07 eb 9a bf
       -0.88063395 -0.4587427 0.5735942 -1.2102975
000330 0f 12 31 3f 0b ee c8 bb c8 85 dc 3e b4 f2 b2 bf
       0.6916818 -0.0061318926 0.43070817 -1.3980317
000340 5b 5c d5 bd 12 9c b1 be a9 b1 f1 3e 73 7f 5b be
       -0.10418006 -0.34689385 0.47205856 -0.21435337
000350 53 90 9b 3f 4f 2d 92 be a3 5e ee 3e b1 8a 80 be
       1.2153419 -0.28550193 0.46556577 -0.25105813
000360 ac ed 2b 40 f8 e6 d3 3f f8 4f c6 bd 26 71 70 3e
       2.6863813 1.6554861 -0.096832216 0.23480663
000370 8e b9 fe 3f 56 a8 26 c0 95 a3 3b 3b 09 a1 7c bd
       1.9900377 -2.6040244 0.0028631438 -0.061677013
000380 19 74 a7 3e c4 05 00 bf 24 b1 e2 bc 2f d9 fd 3d
       0.32705763 -0.500088 -0.027672358 0.1239494
000390 4f 76 d0 bd e6 6d 5a bf 8a e4 28 3c 2e e4 ab 3e
       -0.101788156 -0.8532394 0.010308394 0.33572525
0003a0 94 c6 c7 3d b7 b4 91 bf 6f b3 d4 3d 3d 06 20 bd
       0.09754673 -1.1383275 0.10385787 -0.03906845
0003b0 ad e6 16 3f af 87 b9 bf 26 4e 27 bd 18 5e 31 be
       0.58945733 -1.4494532 -0.040846013 -0.1732105
0003c0 7d 24 6b 3f 32 2d 28 40 3b 32 8f bd a3 57 67 bf
       0.9185255 2.6277585 -0.069920026 -0.903681
0003d0 7c 94 f3 3c 3b 1e 10 40 2f a0 b9 bd 2e 48 15 bf
       0.029733889 2.2518451 -0.09063756 -0.5831326
0003e0 55 78 a3 3f 55 0f 09 40 ec 4f 17 3d e5 d5 49 3e
       1.2771097 2.1415608 0.036941454 0.197105
0003f0 0f 11 cc 3e cd 60 97 3f 34 0f 07 bd d9 6b 6b 3d
       0.39856765 1.1826416 -0.032973483 0.0574759

fcs1.bias f4 [128]
000000 f4 05 02 3e 78 30 ad bc 9b 93 48 be c6 61 3e 3e
       0.12697583 -0.021141276 -0.19587557 0.18591985
000010 d5 be 38 3d 1c 22 55 3d 4d d9 2e 3e be ed 38 be
       0.045103867 0.052034482 0.17075081 -0.18059441
000020 3c 56 e4 3d 0d 79 26 3c 98 e1 8c bd 51 a5 87 bd
       0.111492604 0.010160697 -0.06878966 -0.066233285
000030 19 e6 f3 3d d2 bc 50 bc 2c 99 35 be f5 97 71 bc
       0.11909122 -0.012740331 -0.17734212 -0.014745702
000040 b2 b9 b2 bd 7c 2c 41 be 8d d6 3d 3e 2d 39 de bd
       -0.08726825 -0.18864626 0.18538876 -0.10850749
000050 fb 6e df 3a c1 6d 2e be 71 b4 21 be 91 27 f8 3d
       0.0017046625 -0.17034055 -0.15791489 0.12116922
000060 16 77 53 bd 81 cd 4e be 4f c3 98 bd dc 10 95 bd
       -0.05162724 -0.20195581 -0.07459127 -0.07278606
000070 61 89 91 bd e9 cc 33 be 7d 34 1e be 10 d8 44 be
       -0.07106281 -0.17558636 -0.1544971 -0.19223046
000080 eb b1 bd bd aa ac a3 3d 33 53 b3 bd 28 2d f9 3d
       -0.09262451 0.079919174 -0.08756103 0.12166816
000090 d5 8d 70 bd 4d ea 02 3c 16 4c d6 3d 3d fa 23 be
       -0.05872901 0.007990432 0.10463731 -0.16013427
0000a0 b1 0c bf bd c3 e2 b4 bd 0a af 32 be 4f f2 8b bd
       -0.093285926 -0.08832314 -0.17449585 -0.06833326
0000b0 81 14 21 bc 57 6e 1d be 16 3f de 3d da 7e 09 3e
       -0.009831549 -0.15374123 0.108518764 0.13427296
0000c0 a9 15 1f be af 2f 40 be 92 7e e2 bd 36 7d a7 3d
       -0.15535606 -0.1876819 -0.110592976 0.08178179
0000d0 55 f5 ec bc f6 81 3e be d5 61 aa bd 1f 36 ef 3c
       -0.028925577 -0.18604264 -0.08319441 0.029200612
0000e0 6e f6 3b 3e 92 86 02 be 0a fa 32 3d aa 10 14 be
       0.18355724 -0.12746647 0.043695487 -0.14459482
0000f0 8c 96 8f bc 44 e0 c5 3d 8b 09 2b be 48 0a 11 3e
       -0.017527841 0.09661916 -0.16702859 0.14164078
000100 df 7a 19 be b0 62 15 bd 70 29 12 be 54 6e eb bd
       -0.14988278 -0.03647107 -0.1427362 -0.11495653
000110 74 71 a2 3d 72 15 f8 bd e7 6b 5a bd 3d eb 2a 3e
       0.07931796 -0.12113465 -0.05332556 0.16691299
000120 ec 0e fc 3d 72 dc 3c 3e b7 09 72 3b 57 20 ff bb
       0.123075336 0.18443468 0.003693206 -0.0077858376
000130 24 c0 9e 3d 44 9c fb bd 24 94 3d be 04 c9 3f 3e
       0.07751492 -0.12285665 -0.18513542 0.18729025
000140 fc 22 16 be 1f c0 a2 bc 38 ed fa bd 29 f2 42 be
       -0.14661783 -0.019867001 -0.12252277 -0.1903769
000150 94 ab f5 3d 5e 4b d3 bc 03 36 63 bd f9 8e cd 3d
       0.119956166 -0.025792774 -0.05547143 0.100370355
000160 af d9 73 3d 5c a1 61 3d 84 a8 39 be 51 e7 c2 bd
       0.05953377 0.055085525 -0.1813069 -0.09516776
000170 07 4a 69 bc cf 15 04 3e c6 28 02 be 6c 10 4d be
       -0.014238841 0.12898944 -0.12710866 -0.20025796
000180 f5 fd 81 bd 2c cd 47 3e d6 6b e9 bd b8 41 e5 bd
       -0.063472666 0.1951186 -0.11397521 -0.111941755
000190 8c 2f 8c 3d 4a 9b 94 3d 18 9e 47 be 74 60 c9 bd
       0.06845006 0.072561815 -0.19493902 -0.0983285
0001a0 75 7a a9 bc 6a be 93 3d 04 ae 2b 3e 82 ad d6 3d
       -0.020688275 0.07214053 0.167656 0.10482313
0001b0 9d e7 41 3e 4f ad 6b bc 3f 18 81 bd 98 49 8e 3d
       0.1893601 -0.014384582 -0.06303453 0.06947631
0001c0 a3 a6 37 3e d6 6a 1e bd 21 dc ce bd ac b7 a9 bd
       0.1793466 -0.038676105 -0.1010058 -0.08286986
0001d0 52 94 97 bc 33 ce 80 3d f5 2e 49 be f5 c4 84 bc
       -0.018503342 0.062893294 -0.19646819 -0.016207198
0001e0 38 91 d1 3d d7 66 f4 ba f1 1c c6 ba 08 b1 8b bc
       0.102327764 -0.0018646371 -0.0015114826 -0.017052189
0001f0 3e 07 47 bd dd 65 6a bd 8c 6c 64 bd 25 98 ba 3d
       -0.04859089 -0.05722605 -0.05576758 0.091110505

bn1.weight f4 [128]
000000 2c 26 78 3e 2f 7f 4a 3f 91 95 13 3f 1c 19 1c 3f
       0.24233311 0.79100317 0.57650095 0.60975814
000010 5f d4 41 3f 38 87 83 3f 5c 52 d6 3e 64 a1 ef 3e
       0.7571468 1.027564 0.4185971 0.4680282
000020 88 90 a1 3e 7b 37 fe 3e 43 bb 72 3e 61 37 e4 3e
       0.3155558 0.49651703 0.23704247 0.445735
000030 f8 e2 53 3f 66 ad 29 3f 21 ed 71 40 64 65 3d 3e
       0.827682 0.6628021 3.7800982 0.18495709
000040 fc 02 aa 3e f6 99 20 3f e4 52 ae 3e 16 b1 f3 3e
       0.33205402 0.62734926 0.34047616 0.47596043
000050 fe 28 f2 3e 66 94 0e 3f 73 7c b1 3e 55 44 28 3f
       0.472969 0.5569519 0.3466526 0.65729266
000060 a3 41 72 40 8b a0 c4 3e 73 2e 20 3f fd 4c b5 3e
       3.7852561 0.38403735 0.62570876 0.354103
000070 4d 68 0a 3f ce fe 09 3f 6a ac 81 3e 5a e1 d8 3e
       0.540654 0.53904426 0.25326854 0.4235943
000080 67 05 df 3e 6e 0f ef 3e b5 73 21 3f 60 9f 0c 3f
       0.4355881 0.4669146 0.6306718 0.54930687
000090 e7 72 f2 3e 70 05 f9 3e 9d d0 8a 3e 42 6a a5 3e
       0.4735329 0.4863696 0.27112284 0.3230763
0000a0 cd d8 ed 3e f5 b3 6c 3f 3f 52 e6 3e 8e fd b7 3e
       0.46454468 0.9246209 0.44984624 0.35935634
0000b0 32 e2 37 3f 20 ef 70 3f 57 6e 12 3f 2b d4 0b 3f
       0.7182952 0.94114876 0.57199615 0.5462062
0000c0 ee d9 27 3f a1 6a 9a 3e bf d6 ce 3e bc fc ac 3f
       0.6556691 0.30159476 0.40398213 1.3514628
0000d0 20 48 46 3f be 4d eb 3e ad ed 40 3f 1a a9 8e 3f
       0.77453804 0.4595775 0.75362664 1.1145356
0000e0 73 aa 02 3f 95 a8 b5 3e 84 e0 1d 3f 8e 46 c5 3e
       0.51041335 0.3548018 0.6167071 0.3853039
0000f0 c5 29 e3 3e c2 80 ff 3e 9c cc bd 3f 39 65 fc 3e
       0.44367805 0.49902922 1.4828067 0.49295977
000100 8a 8e a2 3e 84 34 1d 3f 16 17 d4 3e d1 c2 c2 3e
       0.31749374 0.6140826 0.41423863 0.38039258
000110 bb ec 11 3f cc 8a 19 3f 4b d3 e0 3e 88 04 f1 3e
       0.5700185 0.5997741 0.43911204 0.4707377
000120 5d 11 33 3f 7f cd 0f 3f e5 c1 7f 3f 94 82 d0 3e
       0.6994837 0.5617294 0.99905235 0.40724623
000130 6b d8 78 3e 0f d3 c2 3e 5a 74 9d 3e 06 85 14 3f
       0.24301307 0.3805165 0.30752832 0.5801548
000140 18 96 30 3f 83 90 f5 3e 78 06 36 3f 55 d3 f0 3e
       0.68979025 0.47961816 0.7110362 0.47036234
000150 a9 18 4f 3e 6a 83 d5 3e 5e b7 d0 3e 0a fc cf 3e
       0.20224251 0.41701823 0.40764898 0.40621978
000160 8d b8 fd 3e 6e 67 4d 3f bd 0c 24 3f 9a 82 bc 3e
       0.49554864 0.80235946 0.6408194 0.3681839
000170 8e 5e 86 3f 86 bb cf 3e 18 65 47 3e 16 72 3d 3e
       1.0497606 0.40572757 0.19472158 0.18500552
000180 f1 ea f5 3e 76 30 4a 3f 5e dc f6 3f 26 f5 7a 3e
       0.4803081 0.78980196 1.9286001 0.24507579
000190 76 06 c3 3e 7a 82 ce 3e 0a 73 10 3f 2a f6 00 3f
       0.38090867 0.4033392 0.56425536 0.50375617
0001a0 4d e9 1a 3f f5 69 fa 3e aa 58 4d 3f f5 cc f2 3e
       0.6051224 0.48908964 0.80213416 0.47421995
0001b0 a2 5f cd 3e 41 39 30 3f 32 90 e9 3e c7 e5 ef 3e
       0.40112025 0.6883736 0.45617825 0.46854994
0001c0 48 98 a6 3e b0 a7 27 3f e2 3e 05 3f 82 c8 e4 3e
       0.32538056 0.65490246 0.52049077 0.44684225
0001d0 7f 98 a3 3e d6 18 a7 3f 53 73 5f 3e 19 6b 9d 3e
       0.31952283 1.3054454 0.21821336 0.30745772
0001e0 db a6 97 3e 95 7d 1b 3f ae dc 6d 3e 6f 46 e2 3e
       0.29619488 0.607385 0.23228714 0.44194362
0001f0 43 e2 1d 3f 16 ba bf 3e a0 be 14 3f 9b 05 ba 3e
       0.61673373 0.3744666 0.5810337 0.36332402

bn1.bias f4 [128]
000000 be 82 a8 bd 5d fc 04 bf 72 65 1f bf 82 63 98 bd
       -0.08228062 -0.51947576 -0.6226417 -0.074408546
000010 8f 65 0d bf 84 35 ae bd 40 85 81 be 78 2f a3 be
       -0.5523309 -0.08506301 -0.25296974 -0.31872153
000020 34 11 b3 bd c8 21 5f be 69 17 cf bd 61 69 c8 bb
       -0.087435156 -0.2179023 -0.10111887 -0.006116078
000030 c8 9e f1 be 7d ba 68 be d4 6a 31 3e 2e 6a 83 bc
       -0.47191453 -0.2272739 0.17325908 -0.016041841
000040 70 6c 17 be 7a f0 05 bf 60 cc cc bc 16 1e 7b be
       -0.1478746 -0.52320063 -0.024999797 -0.24523196
000050 ef 43 c2 be 1e 05 8e be f3 60 be be a6 de 95 3e
       -0.37942454 -0.2773828 -0.3718334 0.2927143
000060 4a f5 99 3e 8e f0 c1 be 11 4d 13 bf 64 a9 18 be
       0.30069953 -0.3787884 -0.5753947 -0.14908367
000070 db a2 92 be 3d 53 26 bf 26 fd 0d 3d 04 e3 40 be
       -0.28639874 -0.6497076 0.03466525 -0.188366
000080 34 96 d8 be 70 90 16 bf c9 82 e7 be 12 4c 2a bf
       -0.42302096 -0.58814144 -0.4521697 -0.66522324
000090 eb 38 c3 be 29 89 07 be 36 0d c0 3b 8a b7 a9 be
       -0.38129362 -0.13235916 0.00586095 -0.33147842
0000a0 76 88 f6 be 36 15 11 bf ab de cf bd 03 a0 49 be
       -0.48150986 -0.5667299 -0.101498924 -0.19689946
0000b0 41 f3 19 be 15 bd 00 3f 13 61 54 be 6c 2d e2 be
       -0.150342 0.50288516 -0.20740156 -0.4417528
0000c0 72 5d 54 bf 00 bd d9 bc 4f d4 1f bf 63 79 08 bd
       -0.82955086 -0.02657938 -0.6243333 -0.03331889
0000d0 0d 38 84 bf e6 9e 74 bf d7 87 17 bf 4f 36 bf be
       -1.0329605 -0.9555496 -0.5919165 -0.37346122
0000e0 f4 66 c7 bd 24 bc 3a be e9 84 e1 be 6b e3 c8 be
       -0.097364336 -0.18235832 -0.44046715 -0.39236006
0000f0 1f 50 d1 be cc c4 0f bf b6 06 6b bf 2e 3c e3 be
       -0.4088144 -0.56159663 -0.91807115 -0.4438185
000100 a7 49 ce be 8d cf fa be 63 5e aa be 0a 9e aa be
       -0.40290567 -0.48986474 -0.33275136 -0.333237
000110 27 d6 8e be ce 89 97 bd e4 f0 00 bf bf 4d 87 be
       -0.2789776 -0.07399331 -0.5036757 -0.26426503
000120 a5 3b 28 bc 92 e0 53 bf 04 e3 17 be a2 ed 03 bf
       -0.010268127 -0.8276454 -0.14832693 -0.51534474
000130 23 ac 0d bc 4c cf b7 be 78 94 7d 3d 5a 93 ab be
       -0.008646998 -0.35900342 0.06190917 -0.33510858
000140 d5 85 ea bd 6f 06 f6 be 8a 56 6d be 44 ca b3 be
       -0.11451308 -0.48051783 -0.23177543 -0.35115254
000150 07 39 ac bd cf 0a 90 be a9 93 10 be 39 18 32 be
       -0.084093146 -0.28133246 -0.14118828 -0.17392053
000160 49 cb cc bc e2 14 b5 be 90 57 2a be 4e 95 80 be
       -0.024999278 -0.35367495 -0.16634965 -0.2511391
000170 10 ab b0 be 0b 03 07 bf 6e dd b5 bd 98 fa 85 3c
       -0.3450551 -0.5273902 -0.08880125 0.016354844
000180 fa 6d ba be 42 b0 46 bf e4 10 6a bd 8b e1 47 be
       -0.3641203 -0.776127 -0.057145014 -0.19519632
000190 54 ea 76 be 7a 7d 3e be 6a 32 ec be 8a 94 a4 be
       -0.24112827 -0.18602553 -0.46132213 -0.32144576
0001a0 7a 59 8e bf 56 64 8b be 18 df be be 05 80 87 bd
       -1.1121056 -0.27224988 -0.37279582 -0.06616215
0001b0 6f 88 11 bf 94 b8 2f bf bf 4f b6 be c9 6c 13 bf
       -0.56848806 -0.6864102 -0.35607716 -0.5758787
0001c0 6a f3 53 be be 16 8d be 80 5e 3e bf 7d af 9e be
       -0.20698324 -0.27556413 -0.74362946 -0.30993262
0001d0 76 3a 08 be 01 12 ad bd 29 48 c7 bd 55 ca 07 bf
       -0.13303551 -0.084506996 -0.0973056 -0.5304311
0001e0 95 8d 3c bb 8f 51 77 bf 0d b4 52 3d 0f d6 9c be
       -0.0028770913 -0.96608824 0.05144124 -0.30632064
0001f0 71 bb b6 be 27 48 ba bd fc 8b e8 be 66 c1 3e be
       -0.3568988 -0.09095793 -0.454193 -0.18628463

bn1.running_mean f4 [128]
000000 1c 6a d8 c1 15 91 26 c1 02 e4 d7 c1 ad d7 05 41
       -27.051811 -10.41042 -26.986332 8.365155
000010 1f 85 84 c1 f5 e0 b3 c0 a4 9d 9e 40 60 84 40 bd
       -16.565 -5.6212106 4.9567432 -0.047001243
000020 4b d2 d9 41 0e 01 42 c2 12 3a aa c1 ad b8 69 42
       27.227682 -48.50103 -21.278355 58.430347
000030 bb 8d b1 41 fe 50 be 41 81 d3 86 c0 1c 91 45 41
       22.194204 23.789547 -4.2133183 12.347927
000040 9b 03 d6 c1 a2 ba e1 41 c9 bc 02 c2 cb c8 b4 41
       -26.75176 28.21613 -32.68436 22.598043
000050 4a 9d 39 c2 ee 26 0f 42 07 bf 33 c1 0a 01 03 bf
       -46.403603 35.788017 -11.234138 -0.5117346
000060 40 a1 04 c0 a4 18 08 c1 aa ac 5d 40 6f 60 87 41
       -2.072342 -8.506016 3.4636636 16.922087
000070 44 85 ad 40 d5 86 c5 41 ee 73 57 41 91 16 a8 c1
       5.422518 24.690836 13.465803 -21.011019
000080 bd e1 0a 42 09 9d 32 42 a0 89 28 c2 c1 d0 ed c1
       34.720448 44.653355 -42.1344 -29.72693
000090 23 66 7b 40 c3 75 c6 c1 e4 fb 83 41 6c b9 4f c1
       3.928109 -24.8075 16.497993 -12.982769
0000a0 a2 c5 11 c2 72 64 2a 42 b0 f9 04 42 04 8a ce 3f
       -36.443 42.59809 33.243835 1.6135869
0000b0 27 78 e6 be 8f 50 31 40 3b 24 f3 41 dc f9 f0 c0
       -0.45013544 2.770542 30.39269 -7.5305004
0000c0 c6 e5 dc bf 3f 95 3e c1 25 57 99 41 5a 27 6b bf
       -1.7257621 -11.911437 19.167551 -0.9185692
0000d0 2e 38 8a 40 4d 3e a0 c2 be a9 18 42 ea 06 2f c1
       4.319358 -80.12168 38.165764 -10.939188
0000e0 34 2a 0f 41 96 aa 62 42 42 ca 0a 42 65 ec 07 c0
       8.9478035 56.666588 34.697517 -2.1238034
0000f0 39 d1 bd 41 8c c0 c2 41 bc 23 92 c0 d9 4b 2c 42
       23.72716 24.344017 -4.566862 43.07407
000100 d0 d5 20 c1 01 21 1b 42 f8 38 1f c1 18 cf dc c0
       -10.0522 38.78223 -9.951408 -6.90028
000110 b3 0b db c0 a9 03 c4 41 74 4e 2b 42 36 27 e4 40
       -6.845178 24.501787 42.826614 7.1297865
000120 7e 88 89 3f b9 99 41 c2 ec ee f7 c1 47 fb f7 c0
       1.0744779 -48.40012 -30.991661 -7.7494235
000130 82 32 80 c0 a2 f3 c5 c1 a6 3e 8a c1 92 89 ce 41
       -4.0061655 -24.743961 -17.28059 25.817173
000140 4e e7 09 c1 1c ff a9 41 08 0b 98 40 5b b9 75 42
       -8.618971 21.249565 4.7513466 61.43101
000150 09 a0 a5 3f 12 5a ab c1 1a f0 4a 42 1a 98 03 41
       1.2939464 -21.41898 50.734474 8.224634
000160 9c 74 56 c0 c4 87 25 c1 ab 10 81 bd b6 1c 69 41
       -3.3508673 -10.345646 -0.06302007 14.5695095
000170 cb 61 cc 41 b7 56 80 c1 be 15 23 c1 ba 12 09 42
       25.54775 -16.042341 -10.192808 34.268288
000180 7f a2 a1 41 d3 43 7b c1 b7 64 aa c0 00 d1 ea 41
       20.204344 -15.704059 -5.3247943 29.35205
000190 16 28 2a c2 c4 80 24 42 f0 14 be 40 28 a3 1f 41
       -42.539146 41.125748 5.940056 9.977333
0001a0 23 eb b5 c1 50 9e 25 42 8c 9e d8 c0 2b 4c bd 41
       -22.739813 41.404602 -6.769354 23.662191
0001b0 b3 36 2c c2 c0 6d c1 c1 3d 71 45 40 14 98 2a c2
       -43.053417 -24.178589 3.0850365 -42.648514
0001c0 b5 1f f9 40 b5 70 40 c0 bb 41 06 c2 27 c1 45 42
       7.7851205 -3.006879 -33.56419 49.438625
0001d0 63 3b 2c 40 0b 4b d3 40 82 5c 11 c2 75 b5 0f c2
       2.6911247 6.6029105 -36.34034 -35.927204
0001e0 15 a1 00 42 07 99 4c 41 16 09 8f 41 69 ab 2b 42
       32.157307 12.78736 17.879436 42.917393
0001f0 c7 c8 f8 c1 07 de d0 c1 a0 87 16 42 93 db 99 c1
       -31.098036 -26.108412 37.632446 -19.232214

bn1.running_var f4 [128]
000000 f8 99 39 44 3e 53 54 43 0e 05 4b 44 41 6e bf 43
       742.40576 212.32516 812.079 382.86136
000010 bd 49 2e 44 16 20 82 45 ac 82 a7 43 c4 5b 3e 44
       697.15216 4164.0107 335.02087 761.43384
000020 bd 1c 4d 44 2d 0d ab 43 af 78 a8 43 a9 9e 3f 44
       820.44904 342.10294 336.94284 766.47906
000030 77 52 8f 43 76 ad 9b 43 d2 b7 64 46 3e d9 bc 44
       286.64426 311.35516 14637.955 1510.7888
000040 64 6c 66 43 9c 9b 73 43 6d 45 9c 44 65 54 6c 43
       230.4234 243.60785 1250.1696 236.32967
000050 6d 51 69 44 ce 03 0d 44 0e 7c 3a 42 de 0e 99 41
       933.2723 564.05945 46.621147 19.13226
000060 93 aa 9c 45 e4 36 0d 44 91 95 10 44 0d c2 7b 42
       5013.322 564.85767 578.337 62.939503
000070 bc 53 f2 43 91 cb 44 44 e3 2c c9 43 67 b3 35 44
       484.65417 787.1807 402.35068 726.80316
000080 8f 1f 15 44 66 55 dd 43 54 41 38 44 0a 54 82 43
       596.4931 442.66718 737.02075 260.65656
000090 09 83 45 42 25 fd 1c 44 18 85 70 44 73 2a e9 43
       49.377964 627.9554 962.0796 466.33163
0000a0 cc 93 ee 43 75 f9 6a 43 a7 f2 28 44 67 91 30 44
       477.15466 234.97444 675.79144 706.2719
0000b0 c1 ac 86 42 0c d9 37 42 b8 80 b5 43 2e 08 e2 43
       67.33741 45.96196 363.0056 452.0639
0000c0 4e 05 d8 43 61 d2 17 44 bc 5f 3c 44 9c d6 66 45
       432.04144 607.2872 753.49585 3693.413
0000d0 c8 87 bf 42 d7 9c 07 44 fb 8c 98 43 bd 2d 86 44
       95.7652 542.4506 305.1014 1073.4293
0000e0 72 61 1a 44 45 6c 13 44 9a 98 8f 43 a2 71 37 44
       617.5226 589.6917 287.1922 733.7755
0000f0 22 61 07 44 b7 4d 71 44 87 09 b3 42 45 5f 2b 44
       541.5177 965.2143 89.51861 685.4886
000100 03 88 14 44 d1 9f 91 43 bf b5 34 44 71 08 4d 44
       594.1252 291.24857 722.8398 820.1319
000110 df 9c 96 42 47 3d 70 44 a9 43 0a 44 a5 21 1e 44
       75.30639 960.95746 553.0572 632.5257
000120 a4 dd 59 41 a6 85 41 43 89 90 e6 44 21 6e be 44
       13.6166115 193.52206 1844.5167 1523.4415
000130 4d 7d d0 43 3d 30 97 43 4e ec 83 43 4c 16 6c 43
       416.9789 302.37686 263.84613 236.0871
000140 df 25 dd 44 0f 48 36 44 5c 9e 1a 44 a4 92 b2 43
       1769.1835 729.1259 618.47437 357.14563
000150 ef 78 53 44 cb 05 89 43 e6 45 b8 43 37 bd 47 43
       845.8896 274.04526 368.54608 199.73912
000160 a2 4d 3d 45 bd b1 6f 44 58 84 02 42 54 bb 23 44
       3028.852 958.77716 32.629242 654.927
000170 2f 64 32 44 40 d2 0e 44 21 9e 8a 43 00 65 d2 43
       713.56537 571.28516 277.23538 420.78906
000180 d5 65 3e 44 d2 5d 17 44 3f ba f3 44 49 e1 28 44
       761.5911 605.46594 1949.8202 675.5201
000190 4d 4a 53 44 e0 7b 67 43 dc 88 6e 43 13 0f 90 44
       845.16095 231.48389 238.5346 1152.4711
0001a0 2b 7e 28 43 2f 27 d4 43 4b 25 48 43 ba cd a1 42
       168.49284 424.30612 200.14568 80.90181
0001b0 e9 cb 21 44 4b 0c fe 43 3d 6a b9 42 e6 28 03 44
       647.1861 508.09604 92.7075 524.63904
0001c0 43 db 00 44 86 10 94 44 fc de a4 43 4e ff eb 43
       515.42596 1184.5164 329.74207 471.99457
0001d0 c9 cc 1f 44 6a 59 04 45 b6 8c 1d 44 5f 5b 46 43
       639.19977 2117.5884 630.1986 198.35692
0001e0 e2 f8 ff 43 b4 fb 71 43 64 f1 c2 42 45 09 99 43
       511.9444 241.98322 97.471466 306.07242
0001f0 4f c2 2c 44 ee 35 31 44 b0 65 2b 44 60 31 94 44
       691.0361 708.84265 685.58887 1185.543

fc2.weight f4 [56, 130]
000000 86 de 9d be d6 83 56 3d 25 c0 3a bd 5a a2 f9 3d
       -0.30833834 0.052371822 -0.0455934 0.12189169
000010 7c b4 88 be 94 35 02 3c 2d 21 16 3e 50 21 0f 3e
       -0.267002 0.007947344 0.14661093 0.13977551
000020 41 9e 15 3e bb 6b 13 3e cc b6 da be 03 5b bc be
       0.1461115 0.14396565 -0.42717588 -0.36788186
000030 4b e9 e0 3d 2c b9 00 3e b3 8a 19 3f 25 2f e6 be
       0.10981997 0.12570637 0.59977263 -0.44957843
000040 a7 a9 8d be bf 4e 01 3e 58 59 52 3e 9f 67 c2 3e
       -0.27668497 0.12627696 0.20541894 0.37969682
000050 31 7f 5a be 93 f7 9a 3e 82 09 13 bf de 78 cd be
       -0.21337582 0.3026701 -0.5743638 -0.40131277
000060 7e 2e 21 bf 0c ba 11 3c 43 6c c0 3d 09 8f 03 3d
       -0.62961566 0.008894455 0.09395649 0.03211883
000070 69 5f 97 be ae 5f 8f be 3f 8f 67 bd f5 1f 37 bb
       -0.2956498 -0.28002685 -0.056533094 -0.0027942632
000080 5e 73 1b be 9a c7 69 3d ed 70 cb bd cd 05 4d bc
       -0.15180728 0.05707512 -0.09933648 -0.01251359
000090 73 a5 05 bf e3 0c 53 be fb 95 aa 3e 93 f7 a7 3d
       -0.5220558 -0.20610385 0.3331755 0.08201518
0000a0 48 b3 a7 3e a7 85 90 bd d7 10 27 bd 32 76 dc bc
       0.32753968 -0.07056742 -0.040787544 -0.026911829
0000b0 20 56 11 3e 9b b5 d8 3e c8 72 88 3e 38 0d 8d 39
       0.1419301 0.42326054 0.2665007 0.00026903464
0000c0 79 b2 8e bd 73 3c 8d bd 67 bd 15 3e ed dd c3 3c
       -0.06967635 -0.068962954 0.14623033 0.023909533
0000d0 d4 da 3d c0 b9 22 3b 3f b0 aa ad bb 6f da a2 3e
       -2.9664812 0.7309986 -0.0052998886 0.31807277
0000e0 15 49 2d 3e e1 0e 14 3e 8a fc 74 be 93 94 62 bb
       0.1692241 0.14458801 -0.23924461 -0.003457342
0000f0 8a ec ba 3d 5a fc 90 be 96 fe 2a 3e 30 21 67 be
       0.091271475 -0.2831753 0.1669868 -0.22571254
000100 1a be 81 3e da 83 8b bc 34 e0 19 bc 1b cb fc bd
       0.25340348 -0.017030645 -0.009391833 -0.12343427
000110 cd 04 85 3f a8 b1 b7 3d d1 aa 96 3d e3 32 89 be
       1.039209 0.08969432 0.073567994 -0.26796636
000120 5a e3 70 3e fd 0d ec bf 8e 7f 27 3f 3d 4a 6f 3e
       0.23524228 -1.8441769 0.6542901 0.23368163
000130 2c 0c fa bd 7a cd a9 3c fe 2f 7f be 3d a1 83 be
       -0.12209353 0.020727862 -0.24920651 -0.25708953
000140 50 ae 41 3e 06 e6 bf be aa 86 a4 3e bd 39 e5 bc
       0.18914151 -0.3748018 0.3213399 -0.027981633
000150 49 30 75 3c bd 8f e5 bd 34 f3 74 bd 31 c4 af be
       0.014965125 -0.112090565 -0.05980225 -0.3432937
000160 48 16 23 bd d3 c8 cb bd fd e0 17 c0 7c 2f 42 3e
       -0.03981617 -0.099504136 -2.3731072 0.18963426
000170 f2 f1 b5 bd 28 af 00 3f 96 2e a2 bd 53 8d e2 3d
       -0.08884038 0.5026727 -0.07919042 0.11062112
000180 26 90 1e bd 4e cc 7d bf 6b ec b4 be 89 a3 fc bd
       -0.03871169 -0.9913987 -0.35336623 -0.12335879
000190 14 db 1c be a9 29 88 3d a5 0f 96 3d 1f da 67 be
       -0.15317947 0.06648571 0.07327203 -0.226418
0001a0 8d 30 08 c0 88 57 93 3e 7a 82 00 bd 96 06 97 be
       -2.1279633 0.2877772 -0.031374432 -0.29497212
0001b0 d3 8f 8e 3d fc e1 40 3e 3d 3e 05 3e 04 65 41 3f
       0.06961026 0.18836206 0.13012023 0.7554476
0001c0 ff e0 0d 3c bd f5 c8 bd 1e 37 f5 bd 37 49 d7 3e
       0.0086596 -0.09812496 -0.119734034 0.42048046
0001d0 8e 4c 16 be 4a e7 1c bf fb d5 e4 be 34 20 b2 3e
       -0.14677641 -0.6129042 -0.44694504 0.34790194
0001e0 ad 1c b0 3d 9e 35 07 bf 73 fd d7 be ae f7 98 be
       0.085992195 -0.5281619 -0.42185554 -0.29876465
0001f0 7b c6 10 be b7 a3 0a bf e1 fc 7b 3d 0f 96 59 3e
       -0.14138214 -0.5415606 0.06152046 0.21248649
000200 46 8e c6 3b db 9c 0a 3c c6 32 98 bd f8 ac ef 3c
       0.006059441 0.008460249 -0.07431559 0.029257283
000210 06 b4 b2 bc 43 0b 0a 3e a8 91 bd 3d 60 13 44 3e
       -0.021814357 0.13480859 0.09256297 0.19148016
000220 f9 bb 21 3d 62 2b b0 3c 17 f3 83 3d 6d 3e 1d 3e
       0.039485905 0.021505062 0.0644285 0.15355845
000230 e7 d2 6d 3e b6 93 25 3e 4c 4f f5 bb be fc d3 3d
       0.23224984 0.16169629 -0.0074862596 0.10350941
000240 f6 8e c1 bf 0b 80 26 3e 0f 3e 6a bc 50 66 a9 bc
       -1.5121753 0.16259782 -0.0142970225 -0.02067867
000250 4e c0 0a 3e df 65 ee bc 5b 1e 32 3e 07 f2 10 be
       0.13549921 -0.02910131 0.17394392 -0.14154826
000260 ae 61 cf 3d fe 84 5b bd 9b 81 b4 bf e5 13 fb bc
       0.10126053 -0.053593628 -1.4102052 -0.030649135
000270 82 4f b3 3c 4d 98 e6 bc ff bd 2a bc 45 8c e0 bd
       0.021888498 -0.028148795 -0.010421275 -0.10964254
000280 6b 71 2b be 67 73 23 be 2d d2 2c 3d 20 22 6a 3c
       -0.16742484 -0.15961991 0.042192627 0.014290363
000290 4a 3f 15 3e d6 5b 84 bd 6b 09 8f 3e 6f 09 44 3e
       0.14574924 -0.06462829 0.27936873 0.19144224
0002a0 89 25 c0 bc a0 df cf 3c b3 d4 f8 3c 62 b6 af bd
       -0.023455398 0.025375187 0.03037486 -0.08579709
0002b0 78 7a 2f 3d 61 92 3c 3d 11 91 aa 3d 1c 1e 04 bf
       0.042841405 0.046038035 0.083284505 -0.51608443
0002c0 fc b2 11 be 66 aa 9b bd 30 17 08 3f 37 28 af 3d
       -0.14228433 -0.0760086 0.5316038 0.08552592
0002d0 b3 31 43 bd 8d 39 bb be 72 54 4f bf fd 96 b5 bd
       -0.04765482 -0.36567345 -0.8098823 -0.08866689
0002e0 7b 55 9f bd b4 51 93 bb a2 af a3 be 15 49 e3 3c
       -0.07779976 -0.0044958238 -0.31969935 0.02774481
0002f0 f1 9e 8d 3c 26 53 97 bc 86 95 27 be 4d 97 a8 bd
       0.017287703 -0.018472265 -0.16365632 -0.08231983
000300 c5 40 0d c0 90 24 c9 bc 93 84 de 3d f9 5d 95 3c
       -2.2070782 -0.024553567 0.1086513 0.018233286
000310 ce 78 d4 bc f0 0d bd bd a6 1e 9e 3e d2 5e f8 bd
       -0.02593651 -0.09231174 0.30882758 -0.121274605
000320 9e 4c 38 3e 00 22 5f be bb 60 1d bf 1a 8c b8 bd
       0.17997977 -0.21790314 -0.61475724 -0.09011097
000330 69 53 96 3e 14 63 20 be 5b ed fa 3b 3e 51 90 be
       0.29360512 -0.15662795 0.0076576895 -0.28186983
000340 cb 2e 2b 3c 6d 9f c0 3d 65 19 e2 bd a4 b4 01 bd
       0.010448168 0.09405408 -0.1104 -0.031666413
000350 ed 22 50 be 6a e7 b7 3d e7 f1 da 38 9c 13 14 be
       -0.20325823 0.089796856 0.00010440108 -0.14460605
000360 0e ef 1f be fe 94 0c 3e dc 4a 92 bc df 0a 7d 3d
       -0.15618536 0.13728711 -0.017857961 0.061777946
000370 76 fd 93 bc 21 af 60 bc 47 0b b9 bd 74 2c 97 be
       -0.018065196 -0.013713629 -0.09035354 -0.29526103
000380 8b 31 14 bc 50 6e 15 3e d1 94 04 3d 64 4e eb be
       -0.009045015 0.14592862 0.032368485 -0.45958245
000390 f7 0d 49 bf 26 6d bf 3b dc a5 22 be 15 a3 0b 3e
       -0.78536934 0.005841869 -0.15883583 0.1363643
0003a0 5e 39 ac 3c eb 30 8d bd b5 ce 1c c0 72 6d 2c b9
       0.021023449 -0.06894096 -2.4501164 -0.0001644397
0003b0 52 fa 14 3e 96 0e 7f bd 18 6d 95 bc 55 0c e1 be
       0.14548615 -0.06226977 -0.018240497 -0.4395472
0003c0 51 9a 41 be 3e 6f 89 3c 88 dd f9 3d 1a 6a 26 3d
       -0.18906523 0.016776677 0.12200457 0.04062853
0003d0 94 43 de be 81 52 ed bd e6 24 b8 3b 55 70 86 be
       -0.43410933 -0.11588002 0.005619633 -0.26257578
0003e0 75 34 94 3e 52 c3 42 3c 2c 3e 19 bd d4 1e 8f be
       0.28946272 0.011887388 -0.037412807 -0.27953207
0003f0 a1 db 09 3e 3c ef 29 bd 34 2f 0a bd d4 1b 84 3e
       0.13462688 -0.041487917 -0.033736423 0.2580248

fc2.bias f4 [56]
000000 07 f4 20 be af 0e 73 3f 95 e7 ea be b5 bb e9 b8
       -0.15718089 0.9494428 -0.45879808 -0.00011145269
000010 74 ef 81 3d c9 b7 3b bd a0 fe f9 3c 84 1b 0a bd
       0.063445 -0.045829568 0.030516922 -0.033717647
000020 c8 ec 83 be 5e bc 07 be be 5f ce 3e ea ce 7a be
       -0.25766587 -0.1325545 0.4030742 -0.24492994
000030 92 29 90 be 3a b8 a0 3d 94 f8 74 ba 35 0d 6d 3f
       -0.28156716 0.078476384 -0.00093449024 0.9259828
000040 1b 17 18 3e 46 23 4b be ea af a9 be 3e 39 38 be
       0.14852564 -0.19837674 -0.33142024 -0.17990586
000050 12 c2 d8 3d ac 92 d1 bc ef ce 66 3d 73 38 99 3e
       0.10583891 -0.025582634 0.05634969 0.2992588
000060 57 2b 38 be 14 30 b0 bd 6b ba 1c bf da 7a ea bd
       -0.17985283 -0.0860292 -0.6122195 -0.11449213
000070 e9 c5 c1 be 6e 91 4e bd e5 c4 b6 bd 49 9a 44 be
       -0.37846306 -0.05043166 -0.089242734 -0.1919948
000080 02 88 0c be a1 91 24 3e 87 6d 31 bf 5f e8 93 3c
       -0.13723758 0.16071178 -0.6930775 0.01805514
000090 5f 47 ae bd 3f bf 86 3e 86 8f df be 87 b3 ce bd
       -0.08509707 0.26317784 -0.43664187 -0.10092836
0000a0 e7 43 a7 3e 41 81 3a 3e 9f 78 43 be 10 4c fd 3b
       0.32668993 0.18213369 -0.19088982 0.0077300146
0000b0 02 0e 92 bc 77 6a 43 be c4 a4 4f 3e 12 fb d0 be
       -0.017828945 -0.19083582 0.20277697 -0.4081655
0000c0 8c ed 2f bc d1 aa 79 bb 57 29 31 3e ba 1e c6 3d
       -0.010737788 -0.00380962 0.17300926 0.096738294
0000d0 4e 91 78 3e bd f7 67 be 81 f3 1e be 63 5e 8e be
       0.2427418 -0.22653098 -0.15522577 -0.27806386

fc3.weight f4 [1, 56]
000000 62 b2 16 bc ba 09 09 3d 4e 99 a5 bd ac da 87 3d
       -0.009197803 0.03345654 -0.08085881 0.06633505
000010 1c 58 ff 3d 7e 49 85 3d 80 a2 ac bc 63 14 3d bd
       0.124679774 0.06508158 -0.02107358 -0.04616202
000020 a2 9f 47 be ec 67 9a 3d 2f 26 5f bc 93 93 a0 3c
       -0.19494489 0.07539353 -0.0136199435 0.019601619
000030 00 81 22 be b8 6d ee 3c df d7 13 be 2b 64 56 3d
       -0.15869522 0.029105052 -0.14437817 0.05234162
000040 30 a3 9a 3c 0a f6 07 3e b4 3d 01 be 73 9b 02 bd
       0.018876642 0.1327745 -0.12621194 -0.03188653
000050 72 47 19 3d 84 59 0f 3d c9 c9 18 3d a5 48 ba bd
       0.03742165 0.034997478 0.037301812 -0.09095887
000060 bd fb 3f 3d e9 19 1b bd a0 08 84 bc b3 83 c0 bd
       0.046870936 -0.037866507 -0.016117394 -0.0940012
000070 5a ca 0a bd 0d bf 2c 3d cd e8 3d 3b 40 9b 16 be
       -0.033884384 0.042174388 0.0028977871 -0.1470766
000080 3e 3a af 3c 8c 5a b2 3d fa 30 a9 bc 7a c5 6a 3d
       0.021390077 0.08708677 -0.020653237 0.057317235
000090 16 33 77 3d 4b 28 a5 3c 28 85 b1 bd 7c b2 dd bd
       0.060351454 0.020160815 -0.08667976 -0.10825059
0000a0 29 16 a4 3c 42 2d 46 be 18 db 04 be ed 85 45 3c
       0.020030098 -0.19353202 -0.12974203 0.012055856
0000b0 34 a3 07 be 16 d5 a8 bc 40 c7 84 3c 7c 48 a9 bd
       -0.13245851 -0.02060942 0.016208291 -0.082657784
0000c0 1a 6d b0 bd 08 06 c9 3d 85 e0 b1 bd 51 51 1f bc
       -0.086145595 0.098156035 -0.08685402 -0.009723977
0000d0 e2 27 f7 bb c9 f4 44 3d dc f8 30 3e b4 22 09 3d
       -0.007542596 0.048085008 0.17282432 0.03348036
