checkpoint_critic.pth (torch_old, 45944 bytes, 9 tensors)

fcs1.weight f4 [128, 24]
00000000: 0a99 a03d 5787 283d b8ad d8ba a173 06bd
00000010: 2929 4e3e 7958 143e 26f0 babd 09f0 1f3d
00000020: 7b8b e9bc f7b9 af3d cfbf 493e 3cd0 9abc
00000030: be66 f5bd 9ca4 16be f519 983c 4940 59bd
00000040: 3ed2 513c 3888 443d e261 513c b7f7 d7ba
00000050: d8d7 d63d 18d9 ce3d cfd6 4e3e 7261 203d
00000060: 5bb3 aabc 3fae 31be 827d e93d 94c2 123e
00000070: 202c 263e 0dc9 f73d 22b0 b8bb 9bb2 c53d
00000080: f997 5d3e 2f09 133e a5b8 0abd 6ae3 b2bd
00000090: 8f18 f5bd 7a58 ac3d e2df a43b 1e1c 60bd
000000a0: 1fc0 7b3e 57eb d9bd e7c4 d53d ab74 1d3d
000000b0: 5e3b 10be 7cfe 193e 1762 01be a2e2 0a3e
000000c0: a457 d03d d03c 3abe 9bcd bf3d 021d 16bd
000000d0: 38d1 7a3d cb10 5e3e 460c 29bd 6a6c 18be
000000e0: 0348 08bd 884b 00bd 5da1 1fbe d11b cd3c
000000f0: a3d5 08be 8cfb ec3d 4421 cdbc e368 be3d
00000100: f8c6 2a3d ef7f 14be 4bef 143c bf1d 95bd
00000110: 89bc 0bbe 9c0b 633e 7afa 3e3d 9225 d8bd
00000120: 42c3 5fbe e49e 303e 9fed 0cbe f100 9d3d
00000130: 821a d43d 4c05 23be 916b ae3d d867 813e
00000140: 0155 afbd d972 81bd 913b 1ebe 3565 b2bd
00000150: 90f5 d0bd 6429 233e 02bf fc3c 0309 1bbd
00000160: 554d db3d 25d2 5d3b 7f96 613e 9aa7 57be
00000170: 5c1e 6ebe 9208 fb3c 4e13 06be 9a68 3fbe
00000180: 3d2e 353e 6d8f 21be c993 27be c118 a03d
00000190: cf30 b33d f20f 313e c354 85bd c818 203d
000001a0: b758 c3bd 7a73 883d f24a 133d 552d abbd
000001b0: f24b 323e 39ea 04bd 7600 1fbd b4c6 69bd
000001c0: 8803 ffbc a52c 9ebc 50ca 1f3d 979d 063e
000001d0: da35 ce3c 3673 243e a48d 9abd 39ad 8d3d
000001e0: 8e41 32be 9ef3 133e d577 1e3d b458 4e3d
000001f0: 6400 3dbe b583 5c3e a68f c1bd e724 0fbd
00000200: 4c43 f13d 51f9 26be 55cf f33d bf89 1abe
00000210: 5dab 43be 5462 2fbd d0b6 3ebe 217e ed3d
00000220: 5fc8 e33d edbb 61bd 0978 ab3d 82c0 9a3d
00000230: c54d 373c 23ae 1d3e b97d 2dbe 2083 043e
00000240: f332 163e fe56 413d e217 043c 27c9 6fbd
00000250: 78b6 48bc aed9 33be a126 ac3d 830a 7a3c
00000260: 4feb a6bc f547 793e da07 093d 9286 1bbe
00000270: dc7e 633c 36d5 56be 802c febd eeaf 9ebd
00000280: bc45 32be cf13 cebc 34ec 4cbd 0a8a 023d
00000290: cab8 b9bc 0268 94bc e5b8 8a3b 00a1 3d3e
000002a0: 02b4 67bd 5be9 c83c f1f6 40bd 4a1c 9ebd
000002b0: 3fc5 40bd 5cec 9c3b 1066 f53d f596 bebd
000002c0: 03c5 013e e900 b43d bfa1 823e 3ad3 96bb
000002d0: 5bb1 16be 479b e3bd 1215 f9bd c9c9 babe
000002e0: f5a1 1bbd b58b bebd f08d 823c 7674 84be
000002f0: 4d93 013e 9bcc 6b3e 2b17 8a3d 1bd0 9fbd
00000300: 49dc 3dbe 3f12 17be f790 57bd 316e 033e
00000310: 759b b73c 445d b53d a3cd 3fbe 2f4c 373e
00000320: c677 11be 4772 c33d f97f 083e d74c 983d
00000330: 0ee5 ec3d bf1a e33d d1ea 1cbc 6a34 e8bd
00000340: 06a6 00be ac01 ce3c 95c9 fd3d 8d59 3e3e
00000350: 3a28 bcbc 50da a6bd 617d f03d d0c3 183e
00000360: a5f1 103e 597b 2c3e ff55 29bd 58df 8bbd
00000370: 6f0f 0abd db13 5abe 8004 6f3d 16c4 babe
00000380: 4f8f eabd 4488 fcbd 8def 46be c6d2 f3bc
00000390: 2b1c c5bd ab25 a93d 320b 20be 6c63 3a3e
000003a0: 984b 423e f348 d23d c870 7f3c 9530 103e
000003b0: cb3b 1a3d 85e8 2bbe 5336 04be 9b7e da3b
000003c0: 7069 6e3d 2eb7 4e3b bf0c f4bd 3348 9ebe
000003d0: de24 223e 7844 6c3e 2e3d 0fbe 71cf 3a3c
000003e0: c322 f8bd de56 d5bc 3f93 67bc b0f9 903d
000003f0: e3c1 ec3d 95e1 633e 3022 acbd 24fc 8cbd
0.0784169 0.041144695 -0.0016531264 -0.032825116 0.20132889 0.14486875 -0.09127836 0.039047275
-0.028508892 0.08580392 0.19702075 -0.018898122 -0.11982487 -0.14711231 0.018567065 -0.053039823
0.012806473 0.04798147 0.012779685 -0.0016477023 0.10490388 0.10100001 0.2019913 0.03915543
-0.020837476 -0.17351626 0.11400892 0.14332038 0.1622777 0.12098894 -0.005636231 0.09653207
0.21640004 0.14358972 -0.033867497 -0.08734782 -0.11967575 0.08415313 0.0050315717 -0.054714315
0.24585007 -0.10640591 0.10437947 0.03844134 -0.14085147 0.15038484 -0.12635075 0.13563016
0.10172966 -0.1818726 0.09365388 -0.036648758 0.061234683 0.21686094 -0.04127147 -0.14885107
-0.0332718 -0.031322032 -0.15588899 0.025037678 -0.13362746 0.11571416 -0.025040276 0.09297349
0.041693658 -0.14501928 0.009090255 -0.07281064 -0.13646139 0.22172397 0.04662559 -0.10554041
-0.21851829 0.17248112 -0.1376252 0.07666195 0.103566185 -0.1591999 0.085166104 0.2527454
-0.08561135 -0.063207336 -0.1545241 -0.0871071 -0.10203087 0.15933758 0.030852798 -0.03785039
0.10708109 0.003384718 0.22030066 -0.21060029 -0.23253769 0.030643735 -0.13093302 -0.18692246
0.1769342 -0.15777369 -0.1636497 0.078172214 0.08749544 0.17291239 -0.06510308 0.039086133
-0.095384054 0.066626504 0.035960145 -0.08358256 0.17411783 -0.032449935 -0.0388188 -0.057074264
-0.031129614 -0.019308398 0.0390113 0.13146053 0.025172163 0.16059574 -0.07546547 0.06917805
-0.1740782 0.14448401 0.0386885 0.050377563 -0.1845718 0.21534617 -0.09451227 -0.034947302
0.11780414 -0.16306044 0.1190478 -0.15091608 -0.19108339 -0.042818382 -0.18624425 0.11596323
0.11122202 -0.05511086 0.08372504 0.07556249 0.011187975 0.15398459 -0.1694249 0.12940645
0.14667873 0.047202103 0.008062335 -0.058541443 -0.012250535 -0.17563507 0.084058054 0.015261295
-0.020375876 0.24343856 0.033454753 -0.15188053 0.013885226 -0.20979771 -0.124108315 -0.077484
-0.17409414 -0.02515593 -0.05002995 0.031869926 -0.022671122 -0.018116001 0.004233467 0.18518448
-0.056568153 0.024525335 -0.0471105 -0.077202395 -0.04706311 0.0047889184 0.119823575 -0.093061365
0.1267281 0.08789236 0.25514027 -0.004602817 -0.14716093 -0.11113601 -0.12162222 -0.36482075
-0.03799625 -0.09303991 0.015936822 -0.25870103 0.12653847 0.2302727 0.067427 -0.07803365
-0.18541063 -0.14753054 -0.052628484 0.12835003 0.022412995 0.0885568 -0.18730788 0.17900155
-0.14205846 0.09543281 0.13330068 0.07436531 0.11567126 0.11089086 -0.009577469 -0.11338122
-0.12563333 0.025147282 0.12391964 0.18588848 -0.0229684 -0.081471086 0.11742664 0.14918447
0.1415468 0.16843928 -0.041341778 -0.06829709 -0.033706125 -0.21296637 0.0583539 -0.36477727
-0.11453115 -0.12330678 -0.19427319 -0.02976359 -0.09624513 0.08259138 -0.1562927 0.18201989
0.18974149 0.1026782 0.015590854 0.14081033 0.03765468 -0.16787918 -0.12911348 0.0066679246
0.05820602 0.003154229 -0.119164936 -0.3091446 0.15834376 0.23072994 -0.13988182 0.011401997
-0.12116005 -0.026042398 -0.014134227 0.07078874 0.115604185 0.22254021 -0.08404958 -0.068840295

fcs1.bias f4 [128]
00000000: d304 023e f03b adbc f391 48be 9a62 3e3e
00000010: efaf 383d c017 553d c4de 2e3e e0ec 38be
00000020: c657 e43d 94ab 263c 42e1 8cbd a5a5 87bd
00000030: 5ad5 f33d 319d 50bc 819c 35be df83 71bc
00000040: 86b1 b2bd e237 41be 4ed4 3d3e c12b debd
00000050: 768b df3a a36e 2ebe c0b3 21be 4612 f83d
00000060: d071 53bd fecb 4ebe 5abe 98bd ec20 95bd
00000070: 7985 91bd b8cb 33be 173b 1ebe 63d8 44be
00000080: 0fb1 bdbd 00ae a33d 1e53 b3bd b72b f93d
00000090: 226e 70bd e1b2 023c fd4a d63d 62fa 23be
000000a0: 5a0c bfbd ddce b4bd 7aae 32be 6df1 8bbd
000000b0: c443 21bc 1968 1dbe 2040 de3d cb7f 093e
000000c0: 6717 1fbe 8830 40be 7c7f e2bd 4d88 a73d
000000d0: 33f0 ecbc 4681 3ebe 5359 aabd bc2d ef3c
000000e0: e2ee 3b3e 5586 02be 06ec 323d a30f 14be
000000f0: b999 8fbc 19e3 c53d d100 2bbe 640a 113e
00000100: b27b 19be 6273 15bd d728 12be 706e ebbd
00000110: 3178 a23d d015 f8bd c673 5abd deea 2a3e
00000120: 470f fc3d 3fd3 3c3e cc18 723b b722 ffbb
00000130: 7dc2 9e3d 1e97 fbbd 2393 3dbe 54ca 3f3e
00000140: e721 16be 0bbe a2bc 28ed fabd 1df6 42be
00000150: b5a9 f53d 5e54 d3bc e229 63bd 3192 cd3d
00000160: 93e1 733d 82a0 613d 2fac 39be b4e6 c2bd
00000170: 880f 69bc b815 043e 8e28 02be b90f 4dbe
00000180: 02fc 81bd 08cd 473e f36e e9bd 4b42 e5bd
00000190: cc2f 8c3d ce9c 943d 949c 47be a761 c9bd
000001a0: 72ed a9bc 4cbb 933d 23ad 2b3e 14a2 d63d
000001b0: f1e6 413e 5b10 6cbc 6c19 81bd 7b4a 8e3d
000001c0: cca9 373e 3b67 1ebd 45db cebd 7eb6 a9bd
000001d0: 5e90 97bc ead1 803d 7131 49be b9d5 84bc
000001e0: 5581 d13d 0ba1 f4ba 01a0 ceba 438c 8bbc
000001f0: 4c27 47bd 2f61 6abd 0470 64bd 2498 ba3d
0.12697153 -0.021146744 -0.19586925 0.18592301 0.04508966 0.052024603 0.17077166 -0.1805911
0.11149554 0.010172743 -0.06878902 -0.06623391 0.11905928 -0.01273279 -0.17735483 -0.014740913
-0.08725266 -0.18868974 0.18538019 -0.10848189 0.0017055112 -0.17034392 -0.15791225 0.121128604
-0.051622212 -0.20195004 -0.07458182 -0.0728167 -0.07105536 -0.17558181 -0.15452228 -0.1922317
-0.09262287 0.07992172 -0.08756088 0.12166541 -0.05869878 0.007977218 0.10463522 -0.16013482
-0.09328528 -0.088285185 -0.1744937 -0.06833158 -0.009842817 -0.15371741 0.108520746 0.13427655
-0.15536271 -0.18768513 -0.11059472 0.08180294 -0.02892313 -0.18604001 -0.083178185 0.029196613
0.18352845 -0.12746556 0.04368212 -0.1445909 -0.017529355 0.09662456 -0.1669953 0.1416412
-0.14988592 -0.03648699 -0.14273392 -0.11495674 0.07933081 -0.121135354 -0.053333066 0.16691157
0.123076014 0.18439959 0.003694105 -0.0077861208 0.077519394 -0.12284683 -0.1851316 0.18729526
-0.1466137 -0.01986601 -0.12252265 -0.19039197 0.1199526 -0.025797065 -0.055459864 0.100376494
0.059541296 0.055084713 -0.18132089 -0.095166594 -0.014224894 0.1289891 -0.12710783 -0.20025529
-0.06346895 0.19511807 -0.11398115 -0.11194285 0.06845054 0.072564706 -0.19493324 -0.09833079
-0.020743106 0.072134584 0.16765265 0.10480133 0.18935753 -0.014408196 -0.06303677 0.069478
0.17935866 -0.038672667 -0.10100416 -0.08286761 -0.018501457 0.06290038 -0.19647767 -0.016215192
0.10229746 -0.0018663717 -0.0015764238 -0.017034655 -0.04862146 -0.057221588 -0.05577089 0.0911105

bn1.weight f4 [128]
00000000: 107f 453e 373d 613f 1632 673f 527c 373f
00000010: e059 453f 36cc 653f d635 333f b8bd b53e
00000020: 0552 9b3e b0c6 603e d091 b13e ea0d 5d3f
00000030: d592 573e b2ca cf3e a829 e53e 2bd6 d03e
00000040: 20f6 283f c5f9 1a3f 3185 263f 17d4 203e
00000050: 8e0f 5a3f ca4d 593f 6da0 413f 3f79 ae3e
00000060: 7539 b33e 3d9c f93e b68a 273f 4dd4 2b3f
00000070: 2f0c 5c3f 7503 de3e 8a3d 123f 2d98 473e
00000080: cb2d 4a3f eead 073f 5759 1b3e 01b7 f83e
00000090: 9356 063f 069a 353f d576 7e3e 6c85 313f
000000a0: fbd9 753e 5e10 393f bdee 333f 36c7 183f
000000b0: 6571 9e3e 7f70 2e3f 26e2 243f 68e6 773f
000000c0: 1cd2 5f3f 5881 8d3e 12c5 213f f8d1 3a3f
000000d0: 3a31 5e3f 6a57 3e3e 557b 6d3f 2bbb 4b3f
000000e0: c2dd 1c3f 0f4c d53e ec85 3a3f ea8b ab3e
000000f0: bd43 dc3e 9882 2c3f 2a5b 1d3f cbc3 d63e
00000100: 90e9 033f 4d34 693f 3ff6 1f3f 7c42 7c3f
00000110: 8188 b33e 9fc1 203f 3f8c cc3e 1400 d33d
00000120: 9114 c13d 8648 d63e 7839 4b3f 756a 723f
00000130: d818 df3d a00c ea3e 6d59 1d3e 6708 783e
00000140: 9a6e e13e 644a 003e f168 0b3f ebfd 213f
00000150: e484 4c3f 9585 153f fb8a 3b3e 027f 2d3f
00000160: f8ed 723f 0ca0 053f 7cbf fd3e 5ca4 563f
00000170: dca7 0d3f 26e2 373f e987 9c3d 6f75 943e
00000180: ca11 2f3f c492 fd3d dabf 603f d6ac 673f
00000190: cbbb 6639 316b ea3e 77e2 433f 1916 f23e
000001a0: 2610 533d e1d7 223f 7771 d83e 9dd7 613e
000001b0: e556 c13e d8f7 323f 48be f73e e74b bb3d
000001c0: 6559 623f 7e81 2a3f 9373 253f debd a73d
000001d0: ccd2 f83d 17d6 213f 71e7 203f 02a9 b23d
000001e0: fa4e 133f d566 6d3e 5701 3c3e 4fa6 603f
000001f0: d370 1a3f dfd2 703f 4df2 4e3e 935c c13d
0.19286752 0.8798403 0.903108 0.7167407 0.77090263 0.89764726 0.7000402 0.35496306
0.30336013 0.21950793 0.3468156 0.86349356 0.21052106 0.40584332 0.44758344 0.40788397
0.66000557 0.6053737 0.65046984 0.15705906 0.85179985 0.8488432 0.75635415 0.34076878
0.35004774 0.48752013 0.6544603 0.6712082 0.8595609 0.43362013 0.5712515 0.19491644
0.78976125 0.5299977 0.15170799 0.4857712 0.5247585 0.70938146 0.24850018 0.6934421
0.24008934 0.722906 0.7028616 0.5967897 0.30945888 0.68140405 0.64407575 0.9683595
0.87429976 0.27637744 0.6319133 0.72976637 0.86793864 0.18588033 0.92766315 0.7958247
0.61275876 0.4165959 0.728606 0.33505183 0.4302043 0.6738677 0.6146723 0.41946253
0.51528263 0.9109543 0.62485117 0.9853895 0.35065082 0.6279544 0.3995075 0.10302749
0.09427751 0.41852206 0.79384565 0.9469369 0.108934104 0.45712757 0.15366144 0.24221955
0.44029695 0.12528378 0.54457 0.63278073 0.79890275 0.58406955 0.18314736 0.67771924
0.9489436 0.5219734 0.49560153 0.8384454 0.5533426 0.7182945 0.0764311 0.28995845
0.6838652 0.12381509 0.8779274 0.904981 0.00022004468 0.45784906 0.7651743 0.47282484
0.051529072 0.63610655 0.42274067 0.22054906 0.37761608 0.6990943 0.4838736 0.091453366
0.88417655 0.6660384 0.6462948 0.08190511 0.12149581 0.632173 0.6285315 0.08723642
0.57542384 0.23183759 0.18359886 0.87753767 0.60328406 0.94071764 0.20209618 0.09441485

bn1.bias f4 [128]
00000000: bc55 e3bc 4ee4 4f3d 7511 acba b940 85bc
00000010: e7e4 a7bc 6e1b 60bc 4cdd e8bd 0975 b83c
00000020: 81a2 49bc f43f 033b 9a71 cbbc ce37 93bd
00000030: d350 f03c 32c0 593c aa84 bcbb e2c7 993c
00000040: 273b 40bd cdc9 b83c a9fe f73c 29d8 1a3d
00000050: 7492 6bbc 6a02 f93c a484 7f3c 0694 b0bc
00000060: 8a06 d03c dd3e 203b 1733 973c 7235 84bc
00000070: 2e37 ea3c c446 24bc 353b 13bd 1acc 4f3c
00000080: 5f0f 00bc 4525 863c a654 b439 0be6 293c
00000090: 2565 d5bc f161 dcbc 0db5 bfbc 1858 713c
000000a0: 602c 8fbd e007 adbd 40e3 a9bd 435f 25bb
000000b0: 242d 53bc 90d7 11bb 579f 9dbb 62ff 10bd
000000c0: 5d1f 663c 7a97 a33c bf38 b93c 89df 0439
000000d0: f3c2 9e3c 15a0 31bd 3410 26bc a3f1 9ebc
000000e0: 04ff 713c 4fa2 b5bc d245 823d 3d3d 63bd
000000f0: d28a 173c 708c eabb 3017 12bd 9a35 9abb
00000100: 2aeb a0bd 1253 603d 6d44 09bc 3ee4 7cbb
00000110: 7061 c7bd e011 b7bc 6d62 cc3c dd6a 8cbb
00000120: dd10 473d 2a20 8ebd b0f2 063d c5ac 8ebc
00000130: aa0c 31bc 275c adbd 4b4d 98bc 7624 64bd
00000140: 2030 8ebd bb95 f8bc 5cfb 71bd 0fd9 d4bb
00000150: 4e45 2c3d 4bdd 86bc 30af d6bc 880b 4ebd
00000160: 135b cebc cec6 3f3d 16c2 6dbd a36e 19bd
00000170: acc6 343c f8eb 9b3c ea32 cf3b 2e82 8abb
00000180: eb29 03bc 66d2 5b3c c22e c1bc a7bc ebbd
00000190: 0e30 30bb e7ca 9abd c759 00be d8c5 603b
000001a0: a127 36bc 0b38 e03c f5ff d8bc 3163 04bc
000001b0: 23bf 783b 5a91 cfbc ba8c 94bc 295c 8ebd
000001c0: c511 1bbe f756 17bd 8f2b 64bc 0ab5 63ba
000001d0: 647c 9239 bccb febb 67c5 03bc d29b 22bd
000001e0: 21fa 59bb 2702 36bc 120f f6bd cd18 5d3a
000001f0: 9a9f 2c3c ee98 debc dad3 a4bc f9cc 0ebc
-0.027750842 0.050754838 -0.0013127761 -0.016266214 -0.020494891 -0.013678415 -0.11370334 0.022516744
-0.01230681 0.0020027133 -0.024834443 -0.07188378 0.029335415 0.013290452 -0.0057531195 0.01877207
-0.046931412 0.022557164 0.030272799 0.037803803 -0.014378179 0.030396659 0.015595589 -0.021554958
0.025393743 0.0024451532 0.018456979 -0.016138766 0.028590765 -0.010026637 -0.035945136 0.012682939
-0.007816165 0.016375193 0.00034395343 0.010369788 -0.026049206 -0.02690217 -0.023401761 0.014730476
-0.06990886 -0.08448768 -0.082952976 -0.0025233782 -0.01288918 -0.002225373 -0.0048102546 -0.035399802
0.0140455635 0.01996969 0.022610066 0.00012671774 0.019380068 -0.043365557 -0.010135699 -0.01940233
0.014770273 -0.022172121 0.063609734 -0.055478323 0.009249406 -0.0071578547 -0.035666645 -0.004706097
-0.07857354 0.054766722 -0.00837813 -0.0038588191 -0.097353816 -0.02234739 0.024949277 -0.0042852
0.048600066 -0.069397286 0.03294629 -0.017416367 -0.010806242 -0.08464842 -0.018591544 -0.055698834
-0.06942773 -0.030344835 -0.059077606 -0.006495602 0.04205828 -0.016462943 -0.026206583 -0.050303966
-0.025189912 0.046820454 -0.058046423 -0.037459027 0.011033695 0.019033417 0.006323208 -0.0042269444
-0.0080055995 0.013416862 -0.023581866 -0.11510592 -0.0026884112 -0.07558232 -0.12534247 0.0034297612
-0.011117847 0.027370473 -0.026489237 -0.00808029 0.0037955723 -0.025337864 -0.01813351 -0.06951172
-0.15143497 -0.03694817 -0.013926401 -0.000868634 0.00027939968 -0.007775752 -0.00804267 -0.039699383
-0.003326066 -0.011108912 -0.12014593 0.00084341766 0.010536099 -0.027172532 -0.02012055 -0.0087158615

bn1.running_mean f4 [128]
00000000: ae63 c840 d520 503f ce37 d63d b655 2dbf
00000010: e1ee 50c0 ae28 29c0 22a4 07c0 975e 9340
00000020: 2abe 9740 2077 17c1 fc62 743f 273d cebf
00000030: e3cb e7bc 686f 713f 6f1e 28c0 8987 9c40
00000040: bca6 c8bf b631 913f 3cd9 0841 4c82 5440
00000050: 04fb 79bd bea7 7840 8147 f93f 1fcc b9bf
00000060: d20b f43f b43d 85c0 0a27 93be 81b4 97bf
00000070: 1ded 8fbf 86f4 c8bf 79e4 15c0 bf4e 273d
00000080: a0e1 c6be a92e a340 3ff7 8dbf 196e 65bf
00000090: 8cb5 7d40 1cca 8bc0 490b 7cc0 eec6 e640
000000a0: 2674 1ac0 1898 7bbf b0ed 03c0 696c 84c0
000000b0: 8d80 a53f d077 c33f be7b 0441 e62b cfbe
000000c0: 9ca0 e23e 0f77 0b41 fdc4 ca3f 7c61 8740
000000d0: 771d f73f 136f 48c0 cf27 1740 5c6f 013f
000000e0: b781 963f b983 64c0 0505 9640 0aaf eabe
000000f0: 4b10 a040 69aa 7f40 0a65 2cc0 261c 8abf
00000100: eb88 07c1 537b 4940 bda4 8e40 a948 b440
00000110: 8a08 ecbf f42e 69c0 e089 67bf f6d0 2fbf
00000120: da96 f63f 9835 c8c0 9cf9 1340 77a5 0740
00000130: 82b8 1cc0 131e 46bf 5c95 93be f89e afc0
00000140: 5b90 8a3e ace9 b0bf a43e ab40 3985 0740
00000150: 375e a93f 2230 8bc0 a76d 8bbf 6e3a 1fc1
00000160: b4d2 18c0 453c 893f 1027 2dc1 df5c a0bf
00000170: fc3c 9a40 3dfe 0f40 ee86 5abf 8011 09c0
00000180: a25d d4bf dfa9 013f 66ce e1bf 9fce 913f
00000190: 126f 033e 835a 3bc0 a4e8 e1bf fdb2 b8bf
000001a0: 7652 f0bf 232c 4b3e 2788 57c0 55cb 8940
000001b0: c615 c33f 0c1e 4140 2764 c2c0 93f0 a7c0
000001c0: ebc5 a4bf 03fd d6c0 a96a bc3f 6494 05bf
000001d0: 634e 0dc1 0c7b e2bf 52de 8840 f4a2 7b40
000001e0: 7cb2 fa3f 8197 4fc0 4fce 55bf 0bea 3340
000001f0: 53fe 8cc0 0105 2ec0 5746 253f ec9a 09c1
6.262168 0.813001 0.10459863 -0.6770891 -3.26458 -2.643108 -2.1193929 4.6052966
4.7419634 -9.466583 0.9546354 -1.6112412 -0.028295463 0.9431062 -2.6268575 4.891545
-1.5675883 1.1343296 8.553036 3.3204527 -0.061030403 3.8852382 1.9474946 -1.4515418
1.9066107 -4.163782 -0.28740722 -1.185196 -1.1244236 -1.5699623 -2.3420699 0.040846583
-0.38844013 5.099446 -1.1091079 -0.8962112 3.9642057 -4.3684216 -3.9381888 7.2117834
-2.4133391 -0.9827895 -2.0613823 -4.1382337 1.2929856 1.5270939 8.2802105 -0.4046318
0.4426316 8.716567 1.5841366 4.23065 1.9305867 -3.1317794 2.3618047 0.50560546
1.1758336 -3.5705397 4.6881127 -0.4583667 5.001989 3.994776 -2.693667 -1.078984
-8.470927 3.148152 4.4576097 5.6338696 -1.8440106 -3.6434908 -0.90444756 -0.68678224
1.9264786 -6.256542 2.31211 2.1194742 -2.4487615 -0.7738964 -0.2882489 -5.4881554
0.2706326 -1.3821311 5.3513966 2.1175063 1.3231877 -4.3496256 -1.0892838 -9.951765
-2.3878603 1.0721518 -10.822037 -1.2528342 4.8199444 2.2498925 -0.85362136 -2.141693
-1.6591074 0.5064983 -1.7641113 1.1391181 0.12835339 -2.9273994 -1.7649121 -1.4429623
-1.8775165 0.19841056 -3.367685 4.306071 1.524102 3.017459 -6.0747256 -5.248117
-1.28729 -6.718385 1.472005 -0.5217955 -8.831637 -1.7693801 4.2771387 3.9318209
1.9585719 -3.243622 -0.83517927 2.8111598 -4.4060454 -2.7190554 0.64560455 -8.600323

bn1.running_var f4 [128]
00000000: d8d2 cd41 ebec bb40 2631 fe40 62b1 1a41
00000010: f4f4 6241 aaa8 7e41 fff0 8440 ac01 4a41
00000020: 54d6 4b41 1fd2 0342 dcb5 c741 a582 2841
00000030: ae48 bc40 f5b3 8c41 3502 bc40 de4d db41
00000040: c761 1941 f991 1641 a32d 2e42 60fa 7341
00000050: 46da 8340 8b34 6d42 f47d 3941 5453 0e41
00000060: e15e 8841 2255 b541 c790 b240 c89d b540
00000070: 458d 9941 54e4 7e41 19dd 0e41 c34f 4d40
00000080: 539f 3b41 676b 4441 7b03 9741 1aa4 1641
00000090: 56b3 0841 d89b 4741 f141 b941 1a18 2c42
000000a0: 56bd 9840 03f7 883f e6e8 b341 d33f 9041
000000b0: 8783 d840 3726 0441 4288 d941 9a03 fd40
000000c0: b255 8b40 34a7 6342 2848 6841 fb0c 0d41
000000d0: 9930 b741 97d1 3b41 a953 2b41 a185 7c40
000000e0: 8d7b c440 f07e ae41 d265 ca41 7e8d e040
000000f0: 99db 8341 23a7 a541 f39c e040 b4dc 0841
00000100: aa04 0842 87eb a340 8762 6741 1f5d b841
00000110: d737 6540 b864 c741 f93b c740 a8f4 a040
00000120: eaf0 7d41 f1f4 8241 3bfd 1341 7d74 6f41
00000130: 343b f540 8c5c 0041 d2f2 b540 997e 3a41
00000140: e526 1041 63de 7740 f38e 6041 6ba7 1c41
00000150: fab8 0c41 8714 8341 1ff5 8241 3608 0b42
00000160: df34 2941 6a7f 1e41 05af 3242 4463 8441
00000170: 5f25 8541 57b1 9541 a8e3 df40 81b9 1e41
00000180: 5ce1 1041 a25f 2341 3ebb 3441 8da2 1241
00000190: 5d14 b241 5f48 0a41 05a9 9e40 270f ff40
000001a0: 7b12 0f40 d57d 0641 0186 bb41 74f8 3841
000001b0: 848a 7041 6212 5541 3478 9241 b7f8 4b41
000001c0: 6ec8 ff40 96a4 c841 d01c 1b41 afa3 9040
000001d0: 07cc ef41 8586 a641 f480 cc41 7077 9c41
000001e0: d3d2 e840 2eaf aa41 d9ba e03f d2a8 c840
000001f0: 9b09 cb40 2744 ba40 97c3 cb40 90b9 4b42
25.727951 5.8726707 7.9434996 9.668306 14.184803 15.916178 4.1544185 12.625408
12.739826 32.955196 24.963799 10.531896 5.883872 17.58787 5.8752694 27.413021
9.586371 9.410638 43.544567 15.248627 4.1203947 59.30131 11.59325 8.895344
17.046328 22.666569 5.580173 5.6755104 19.19398 15.930744 8.928979 3.2079933
11.7263975 12.276221 18.8767 9.415064 8.543783 12.475548 23.157198 43.023537
4.7731123 1.0700382 22.48872 18.031164 6.7660556 8.25933 27.191532 7.9066896
4.354211 56.913284 14.517616 8.815669 22.89873 11.738669 10.707925 3.945656
6.140082 21.811981 25.299717 7.017272 16.482225 20.70661 7.019159 8.553883
34.004555 5.122501 14.461555 23.04547 3.5815332 24.92418 6.226071 5.0298653
15.871317 16.3696 9.249324 14.9659395 7.663477 8.022594 5.685891 11.655908
9.009496 3.8729484 14.0349 9.790874 8.79516 16.385023 16.369688 34.75802
10.575408 9.906107 44.670918 16.54847 16.643248 18.711592 6.99654 9.920289
9.055019 10.210848 11.295713 9.164685 22.259943 8.642669 4.9581323 7.9705997
2.235503 8.405721 23.440432 11.5606575 15.033817 13.316988 18.308693 12.748221
7.9932165 25.080364 9.694534 4.519981 29.974623 20.815683 25.562965 19.55832
7.2757354 21.335537 1.7557021 6.270608 6.3449225 5.8208194 6.3676257 50.931213

fc2.weight f4 [56, 130]
00000000: 4cfb 93bd a781 d73c 4977 533d e8e0 8b3c
00000010: b032 953d 3bb7 3f3d 0232 9d3c a63a 163d
00000020: 47dc 95bd 07f7 9ebb d04f 253d 4e27 98bd
00000030: 2ec5 77bc 2601 0b3d e412 ac3d 6c08 a53c
00000040: 22f9 993a 6e12 0dbc 824a 2b3c 30d2 2b3d
00000050: 7d6f e43b 87a3 873d f18f 3ebd 1679 61bc
00000060: 76f2 fd3c 2b77 9a3d 511b 033d 2069 7e3d
00000070: 8b40 9bbc cbf6 53bd db0c 49bd 61eb b63c
00000080: dc05 e2bc e811 9d3a 56ed 6bbd ce50 d63c
00000090: 2abd 84bd 512a debc ae13 7cbc 1603 443d
000000a0: d653 183c fc22 8d3d d493 8cbc 6f51 08bc
000000b0: 5757 71bd 73ab 7f3d 841a b03d 470b 933d
000000c0: d549 84bd eacc 983c 5785 3fbd fe59 21bd
000000d0: b857 a3bd 4e29 793c 3835 3f3d 67e9 593d
000000e0: 14e2 993b 3315 023d c59f 8c3c 583f 993d
000000f0: a462 90bd 80fa b2bd 258f ff3b a8e1 b13d
00000100: 7bac fdbb 730b e63c 1fdd 323d 9c6c 853d
00000110: f87c 16bd aee1 8ebc 330e 96bd a28a 893d
00000120: ad81 e03b e80e 3ebd d827 68bd b4b4 42bd
00000130: b3b1 ad3d e93e 4f3d 7dd1 85bc a5a4 9ebd
00000140: e35d 8e3d 4d38 3d3d 0f7b b23c 0de9 713c
00000150: f29b af3d a746 93bd ede3 5cbd a110 d4bc
00000160: 1f4c 593d c597 5ebd 08da 51bd 87a2 ec3c
00000170: dd5a 73bd 767f 22bc 2aed 5d3c a3af 0b3d
00000180: b36f 3dbd 0c2f fe3c d3cb 4ebd f2bf 363d
00000190: e92a 683d 443a 5b3c 2c8c 9fbc c8e9 73bd
000001a0: 907a a73d 25a9 683d a1d6 963c d9ca c0bc
000001b0: b586 963d bf1c 25bd 0cb8 6fbc c4ad a73d
000001c0: c44b bc3c 4f07 edbc 00cf 853d 8e3f 71bb
000001d0: e30a a93d 525f c7bb 4ba8 c43c 8bba 43bd
000001e0: 901f 92bc 7f88 643d 36ea 94bc e3c9 9bbd
000001f0: c571 663c 6ece 513d 11e4 4bbd a2dd 1b3d
00000200: 40a7 46bd 95f3 88bd 1665 093d 6fe5 e8bc
00000210: 838f 43bd 30d0 1ebd ecbe 6dbd 577f 7f3d
00000220: 26c4 e5bc b3f8 a63d b38a e83c bc52 1cbd
00000230: a314 45bd 3398 1ebd 1c7f c93d 8ed1 993c
00000240: 438e 82bd 3e41 8d3d f261 c0bd 24bc a23d
00000250: 73a2 69bd 94b9 2e3d 7e20 70bd e269 a2bd
00000260: e081 e03c 7a05 eb3c a43d 183d 5b9d 1b3d
00000270: 20f4 9b3d 7c17 4fbd b353 9a3d ded9 753c
00000280: fe3a 34bd ac64 53bc 321b 89bd e05e 863d
00000290: dec4 763d 04c4 fa3c 8c2d 543d a2cb 51bd
000002a0: a383 0d3c 3d4d a23d 0791 9ebd ba8f 883d
000002b0: c0dd 5abd 70f1 7abd 820f 59bc c875 ccbc
000002c0: 91c3 5abd 6445 293d 9460 8d3c 683c ab3d
000002d0: 5143 993d 539b 503c 2b3b 7b3c 1a8d 94bd
000002e0: 138e 633d 7470 c3bc 5266 9bbd 6d41 bf3c
000002f0: fc76 b13c 4df2 953d 4809 9e3d 33d4 053d
00000300: 4819 e9bd 3b32 993d 5e2b 2fbd 15e0 f0bc
00000310: 1e4f e6bb 70ee 673d b8d9 eb3c 72f7 0f3d
00000320: 665c c43c d936 7d3d 7867 0cbd 8a7e e9bc
00000330: 24fb 663d 9f3f 21bd e69b b23d 818f a8bc
00000340: 9b1c 383d e11f 22bd 9744 3fbc 5549 8d3d
00000350: d481 70bd fbe3 933c 9cd2 543d 4b1d ef3b
00000360: 4b3e bebb 1680 8dbd d4ed 2e3c d2b3 25bd
00000370: bbe8 f8bc 4e08 953d 110d 16bd e448 1f3c
00000380: 1d18 6bbd 92ec 70bd f8df 04bc 2850 5d3d
00000390: 0e03 7ebb b679 b03d 1b74 a43d 4eed 86bb
000003a0: eeed 613d 506a 4a3c ef0d 5ebd 8664 3b3d
000003b0: 31ab 1f3c a466 a23d 30f3 a5bc 3771 2fbc
000003c0: 3635 a13a 707d d63a 197d 883d d65d 55bd
000003d0: 31bd 613d d429 253d 10e7 323c 33b5 1dbc
000003e0: ebb3 e139 b04f ddbb 2d84 6f3d 66f3 4ebd
000003f0: c77c f83a b63c 0fbd efae 6d3d 78c2 0d3d
-0.072256655 0.02630694 0.05162743 0.017075017 0.072850585 0.0468056 0.019188885 0.036677025
-0.07317405 -0.0048512253 0.04035932 -0.07429372 -0.015122695 0.033936642 0.084020406 0.020145617
0.0011747221 -0.008610351 0.010454776 0.041948497 0.0069712983 0.06622987 -0.046523992 -0.013761779
0.030999403 0.07542261 0.032008473 0.062111974 -0.018951675 -0.051749032 -0.049084526 0.022329034
-0.027590685 0.0011983486 -0.057599388 0.026161578 -0.06481393 -0.027119787 -0.015385551 0.047854505
0.009297332 0.06891438 -0.017160334 -0.0083201965 -0.058921184 0.062419366 0.085988075 0.07179885
-0.06459395 0.018652398 -0.046758022 -0.039392464 -0.079757154 0.015207602 0.046681613 0.053201105
0.00469614 0.0317585 0.017166028 0.07482785 -0.07050064 -0.08739185 0.0077990466 0.08685619
-0.0077415085 0.028081631 0.04366791 0.06514856 -0.036740273 -0.017441597 -0.07326927 0.06715895
0.006851396 -0.046400934 -0.056678623 -0.047535613 0.08481159 0.050597105 -0.016335243 -0.07746247
0.06951501 0.04619627 0.021787195 0.014765036 0.08574666 -0.0719121 -0.053928304 -0.025886836
0.05305111 -0.054343957 -0.05123332 0.028886093 -0.059412826 -0.009918084 0.013545314 0.034103047
-0.046249103 0.031028293 -0.05048735 0.044616647 0.056681547 0.013380591 -0.019476019 -0.059549123
0.08177674 0.056801934 0.01841289 -0.023534225 0.07349912 -0.040310618 -0.014631283 0.0818744
0.022985347 -0.02893415 0.06533623 -0.0036811563 0.082540296 -0.006084361 0.02400603 -0.047785323
-0.017837316 0.055794235 -0.018178087 -0.07606866 0.014065211 0.051222257 -0.049778048 0.038053162
-0.048499346 -0.066870846 0.03354367 -0.028429715 -0.047744285 -0.03877276 -0.058043405 0.0623773
-0.028047632 0.08152904 0.02838645 -0.03816484 -0.048115384 -0.038719367 0.09838697 0.018776681
-0.063747905 0.068972096 -0.093936816 0.07946041 -0.05703969 0.04265745 -0.058624737 -0.07930352
0.02740568 0.028689135 0.03716816 0.037991863 0.076149225 -0.050559506 0.075354956 0.015005557
-0.04400157 -0.01290242 -0.0669464 0.06561065 0.06024634 0.030611046 0.05180125 -0.05121959
0.008637342 0.07924888 -0.077425055 0.06668039 -0.053434134 -0.06126541 -0.013248326 -0.024958506
-0.053409163 0.04132594 0.017257966 0.08361131 0.07483543 0.012732345 0.015333931 -0.072534755
0.055555414 -0.023857333 -0.075878754 0.023346627 0.021663181 0.07321606 0.07716614 0.032673072
-0.11381775 0.07480284 -0.042765968 -0.029403726 -0.0070284745 0.056623876 0.02879034 0.03514809
0.02396984 0.061819885 -0.034278363 -0.028502721 0.05639185 -0.039367314 0.087211415 -0.02057624
0.044949155 -0.039581183 -0.011674068 0.068987526 -0.058717564 0.018053045 0.051958665 0.007297193
-0.0058057657 -0.06909196 0.01067682 -0.040454693 -0.030384412 0.072769746 -0.036633555 0.009721968
-0.057396043 -0.05881936 -0.008110039 0.05403152 -0.0038759145 0.086169645 0.08029958 -0.0041176444
0.055158548 0.012354448 -0.054212507 0.045750163 0.009745405 0.079297334 -0.020257562 -0.010708145
0.0012299183 0.0016364288 0.066644855 -0.052091442 0.055112068 0.040323094 0.010919347 -0.009625721
0.00043049394 -0.0067538843 0.058475662 -0.05052509 0.0018958085 -0.034970008 0.058028158 0.034609288

fc2.bias f4 [56]
00000000: ed74 2e3d a02b 9e3d 608c 1c3d c772 ac3c
00000010: 0798 dbbd 6ee7 81bd 5ff6 1c3d 7b18 033d
00000020: 8bfb 833c b94b b0bd dcf0 e73c d7ee 493c
00000030: 4c18 bdbc 4583 94ba af22 1bbd b564 573d
00000040: 9101 1fbd f6bd 283c c709 4ebd d2fd 86bd
00000050: 542d b6bd 945c 993d 4ca2 e63c 2b31 233d
00000060: 6b66 5d3d 04ba d8bd 2c3f a7bd 24c0 95bd
00000070: 97fb 86bd 80aa 55bd 6144 7abd 7495 b53d
00000080: 8c5e 04bd da2a 383d 7939 89bd 0e1e 74bd
00000090: d815 2bbb 9bed 653d b7a4 29bd 582d 30bd
000000a0: 5856 b93c 7a77 4d3d 7207 453d 89c2 8e3c
000000b0: 392b eabc ebc5 a9bc 868a a2bc dd82 5f3d
000000c0: 8e8e 603d c456 4dbd b711 4b3d 1a38 183b
000000d0: 7322 983d c6d5 bc3b c815 a4bd 6124 89bd
0.042591978 0.077231646 0.03821981 0.021050824 -0.10722356 -0.0634297 0.038320895 0.03200577
0.016111156 -0.08608193 0.028313093 0.01232501 -0.023082875 -0.0011330625 -0.037874874 0.052586276
-0.038819853 0.0102991965 -0.050302293 -0.06591381 -0.088953644 0.07488361 0.028153561 0.039841812
0.05405275 -0.10582355 -0.08166346 -0.073120385 -0.06590956 -0.052164555 -0.061100367 0.088663965
-0.03231673 0.04496274 -0.06700415 -0.059598975 -0.002610555 0.0561348 -0.04141685 -0.043011993
0.02262418 0.05016277 0.048102804 0.017426746 -0.028585063 -0.020724257 -0.019841444 0.05456816
0.05482345 -0.050131574 0.04957744 0.0023226799 0.07428446 0.0057627885 -0.08011967 -0.06696392

fc3.weight f4 [1, 56]
00000000: 5850 28bd f5fc 803d 2cd5 fcbc 0b56 4a3c
00000010: 0fe5 5f3e 0221 5c3d 8f6c 03bd dec5 89bd
00000020: 0e74 6c3c 289d ef3d 0247 89bd 8078 e4bb
00000030: d5a2 96bc af43 ca3d 847f d8bd 73b9 b13d
00000040: 3fe3 5f3d 6a16 ac3d a65a 33bd 9e10 85bd
00000050: 0284 883d 233a db3d acfe d13d b717 adbd
00000060: 936d 503c a8fa 42be 1b27 41bd c747 15bd
00000070: af76 eabc ad8b 493d ebaa 273d 649d 57bd
00000080: ada3 913d dcc3 253d 4138 a8bb 2b8d 463d
00000090: 8e79 2d3d e43b d83c c18c b4bc c30a 94bc
000000a0: b142 f23c d800 aabc deb2 53bd a353 d73d
000000b0: 04c0 92bd eb46 70bd 9939 c23c a3f5 d4bd
000000c0: 9364 d5bd 57b9 073e dbd4 ddbd b9dd 96bd
000000d0: 8cd5 c3bc 5608 863d bc5c 9b3d 5cfc 453d
-0.041092247 0.06298248 -0.030863367 0.012349616 0.21864723 0.053742416 -0.03208595 -0.06727193
0.0144319665 0.11699897 -0.06702997 -0.0069723725 -0.018388191 0.09876191 -0.10571197 0.0867795
0.05466008 0.08402713 -0.04378762 -0.0649731 0.066658035 0.10704448 0.10253653 -0.08451789
0.012721437 -0.1904093 -0.047156435 -0.036445405 -0.028621046 0.04920547 0.040934484 -0.052640334
0.07111297 0.04046999 -0.005133659 0.048474472 0.04235225 0.026395746 -0.022039773 -0.018071538
0.029572817 -0.020752355 -0.051684253 0.10513999 -0.0716553 -0.058661383 0.023709105 -0.10398414
-0.10419574 0.13254295 -0.108316146 -0.07366509 -0.023905538 0.06544559 0.07586047 0.04833637
