checkpoint_actor.pth (torch_old, 43194 bytes, 6 tensors)

fc1.weight f4 [128, 24]
000000 86 6a a3 3e 62 e0 41 3f 6c 38 c9 bb bd ed d7 3e
       0.31917208 0.75733006 -0.006140759 0.42173567
000010 20 3e 8b 3e 0d d6 1b 3f c4 20 c4 bd d8 b9 fc 3e
       0.27195835 0.6087349 -0.09576562 0.49360538
000020 ad 5a 3d 3e 80 17 5a 3f 46 b9 0a 3e a8 c6 d6 3c
       0.18491621 0.8519211 0.13547239 0.026217774
000030 1c b9 9b 3e 4c 2a 96 3e 00 0e 30 bd 0e cf 01 bc
       0.30414665 0.29329145 -0.0429821 -0.007922901
000040 56 bf a2 3e d0 d9 36 3f fc ff da 3a cb 0a 89 bf
       0.31786603 0.71426105 0.0016708369 -1.0706419
000050 eb 29 3c 3f 38 05 c5 3e dc 76 43 3e c9 d1 83 bf
       0.7350146 0.38480544 0.1908831 -1.0298396
000060 46 98 90 3e f7 f1 a5 be 3b 09 8a 3d 4c b6 9a 3e
       0.28241175 -0.32411167 0.06740042 0.30217206
000070 84 23 80 3e a6 6a 72 3e 40 fe 55 bd a7 c1 82 3e
       0.25027096 0.23673496 -0.052244425 0.2553837
000080 68 bd 08 3f 68 29 53 be b0 5e ca bd 34 ac 20 be
       0.5341401 -0.20621264 -0.098813415 -0.1569069
000090 ee 81 ca be c3 aa 10 3f d4 67 75 bd 2c 83 fe bd
       -0.39552253 0.5651056 -0.05991347 -0.12427363
0000a0 88 76 8e 3f a8 44 98 be 53 16 ae 3e 9d e5 26 3f
       1.1129923 -0.2973988 0.34001407 0.6519411
0000b0 c9 97 1e bf 02 15 47 3f 3e d0 df 3d ee c6 3f 3f
       -0.61950356 0.7776643 0.10928391 0.7491292
0000c0 eb 18 f4 3e 4e 8a 2f bf dc 51 25 3c 8d 46 0f bf
       0.4767526 -0.6857041 0.010090318 -0.55967027
0000d0 81 3c 3a 3f 2f ba 10 3e 04 aa ff bd c3 ff 2b bf
       0.7274857 0.14133523 -0.124836 -0.67187136
0000e0 ea 95 d3 3d 94 4e 63 bf 71 c7 3c be ec 9f c6 bd
       0.10331328 -0.88791776 -0.18435456 -0.096984714
0000f0 bc 85 8a 3e 9b 5a 32 3f 00 27 5b bd ad f6 ed bc
       0.27055156 0.696695 -0.05350399 -0.029048288
000100 32 c9 d7 3e ad 99 05 bf 0b 6b 25 3d 19 cc 82 3e
       0.42145687 -0.52187616 0.040385287 0.2554634
000110 8a 3d b5 3d c2 0e 26 3f 5a 95 9f 3d 53 14 64 3e
       0.08849628 0.6486627 0.077921584 0.22273378
000120 b5 59 11 3e 07 e5 16 bf 82 51 5d be 91 6c 84 3e
       0.14194377 -0.5894322 -0.21613124 0.2586408
000130 66 47 de 3d 88 61 60 be d1 36 da 3b f1 93 de 3e
       0.10853462 -0.21912205 0.0066593667 0.43472245
000140 3c 27 9a 3e a0 74 40 bf 5f b7 54 be ad 35 9e 3d
       0.30108058 -0.75177956 -0.20773076 0.077250816
000150 8b fd ef be 61 b2 57 3e 33 1a b7 bc 48 8b 01 3e
       -0.46873125 0.2106414 -0.02235136 0.12650788
000160 6a a8 d7 3e 28 8d 47 be 10 f3 dc 3b b8 fb f5 3c
       0.42120677 -0.1948744 0.0067428425 0.030027255
000170 3d ab 65 bf 73 f1 06 3e 36 61 b0 be dd f9 5b 3d
       -0.89714414 0.13178043 -0.34449166 0.053705085
000180 34 19 31 3f 89 6a 96 3f 57 56 87 bd 0a d1 9a 3e
       0.6917908 1.1751262 -0.06608265 0.3023761
000190 e0 1c 8c bd 4f f4 12 3f 5a f9 04 3d e9 cd 86 3e
       -0.06841445 0.57404035 0.032464363 0.26328972
0001a0 6a d6 13 3e 6c a9 98 3f 2d 71 17 3d 2a bd 35 bc
       0.14437261 1.1926703 0.036973167 -0.0110924635
0001b0 1f e6 b0 3e 99 7b 30 3f 2b da 1a bd 97 96 7c 3c
       0.34550568 0.68938595 -0.037805717 0.015416763
0001c0 b9 c0 2f 3e 29 64 24 3f 8b 04 03 3e d2 06 bb be
       0.17163362 0.6421533 0.12794702 -0.3652864
0001d0 1f d3 f0 3e ba d1 86 3f 73 b9 5c 3c 6d ea da be
       0.47036073 1.0532753 0.013471949 -0.42756978
0001e0 48 86 9e bd 37 22 03 3f 15 eb 00 3e 8f 48 94 be
       -0.07740456 0.5122408 0.12589677 -0.28961608
0001f0 e7 d0 1e bf a8 3d 34 bf f2 4d ef bb 4e f8 bf be
       -0.6203751 -0.7040658 -0.007302993 -0.3749413
000200 f0 f5 d4 3e 71 55 7d 3e 12 a4 33 3e d0 d5 ba 3e
       0.41593885 0.24739625 0.17543057 0.3649125
000210 51 b2 88 be bd c2 86 bf 20 fa 04 be 6c bd 21 3f
       -0.26698545 -1.052818 -0.1298604 0.6317966
000220 ab 49 7b 3e 34 d2 83 3e ae 3e d2 bd 4c 82 18 bd
       0.24539821 0.2574631 -0.102658615 -0.037233636
000230 80 db c0 3e 37 3a 62 bf ac 2c b6 be 37 13 88 3c
       0.37667465 -0.8837008 -0.35580957 0.016610725
000240 3a c0 80 3f c0 b9 af be 05 43 83 3d 3b 61 ed 3d
       1.0058663 -0.34321404 0.06409267 0.11590811
000250 d8 f4 53 be b8 bd 8d bc a0 73 0f 3e 58 43 42 3e
       -0.20698869 -0.017302379 0.14008951 0.18971002
000260 ee 43 7e 3f 45 fc 37 bb f4 e8 0b 3c 4d 99 c0 3e
       0.993224 -0.0028073948 0.008539427 0.3761696
000270 b1 74 bf be 30 82 a1 be 6d 99 18 be 9f b0 e6 3e
       -0.37393716 -0.31544638 -0.14902277 0.45056626
000280 44 71 9d 3e 5c 01 eb be 0b 55 68 bc ac 90 0a 3f
       0.30750477 -0.45899475 -0.014180432 0.54127
000290 07 fa f5 be 19 c4 4d 3e d8 2f 24 3d 3b d0 31 3f
       -0.48042318 0.20094337 0.04008469 0.6945836
0002a0 4f 52 6b 3e 09 7c 7b bf 83 5f 66 3d cf 64 1f 3c
       0.22980617 -0.9823614 0.05624343 0.0097286245
0002b0 7b 17 87 3e bc 74 39 bf 05 89 64 3e 92 e9 c8 bb
       0.26385102 -0.7244375 0.22317894 -0.0061313594
0002c0 55 62 d4 3e 6f 0b 99 bf 14 45 ee 3d 79 40 97 be
       0.4148127 -1.1956614 0.11634269 -0.29541376
0002d0 2b e3 bf bd 60 e5 c5 be b1 55 85 be 22 d7 27 bf
       -0.09369501 -0.38651562 -0.2604194 -0.6556264
0002e0 69 a4 a8 3e 42 a3 ae bf eb 43 0c 3e 82 34 a1 bf
       0.32937935 -1.3643572 0.13697784 -1.2594149
0002f0 6e 65 c0 3d a6 fa 68 3e 56 fd 40 3e 42 14 8a bf
       0.09394346 0.22751865 0.1884664 -1.0787432
000300 cc 65 7a 3e 85 cf eb 3e f8 d9 2e be 21 e3 5e 3e
       0.24452895 0.46056762 -0.17075336 0.2176633
000310 59 1f 2a 3f 50 7c 5d 3e 87 61 9c be 69 60 89 3e
       0.6645408 0.21629453 -0.30543157 0.26831368
000320 9e 4d b4 3d f1 6e f5 3e 13 1c 96 3d 0d 04 1e be
       0.08803867 0.47936204 0.073295735 -0.15431233
000330 4c 13 f2 3f 0f 0f 55 3e 6e 81 8e bd 61 22 af be
       1.8912139 0.20806526 -0.069582805 -0.34205917
000340 b9 38 09 3e 30 fd 22 3f e6 8c 91 3c 11 62 3b be
       0.13400544 0.63667583 0.01776738 -0.18299128
000350 e7 94 02 40 66 61 c5 be f5 b6 38 3c 5e f7 60 be
       2.0403383 -0.38550872 0.011274089 -0.21969363
000360 1d 5a 4a be 21 e7 58 3f db 1a 70 be 96 28 a4 3e
       -0.19760938 0.84727675 -0.23447745 0.32062215
000370 26 00 10 bf ae c1 47 bf e7 03 0a be 3b c7 c5 3c
       -0.56250226 -0.78029907 -0.13478051 0.024142852
000380 6d ba b4 be 31 84 30 3f aa 6d 06 be 2f bd f5 3d
       -0.35298482 0.6895171 -0.13127771 0.119989745
000390 a0 a5 0f be 90 be 5b bf 15 13 bf bd 32 de a9 3e
       -0.14028025 -0.8583765 -0.093298115 0.33177334
0003a0 5d d8 0c be cc 67 60 3f ae 90 07 be d5 2b 40 3e
       -0.13754411 0.8765838 -0.13238785 0.1876672
0003b0 60 3a cc 3e c0 60 da bf ec de 8d be 37 39 5b 3d
       0.39888287 -1.7060776 -0.27709138 0.05352136
0003c0 93 a6 5f 3e 5b 0d 14 3d 73 ba ee bd 60 96 03 3e
       0.21840887 0.03614555 -0.11656656 0.12850332
0003d0 09 b1 b6 3e 5a 0a d1 3e 0b 94 0c be c1 e9 e5 3e
       0.35681942 0.4082821 -0.13728349 0.44904903
0003e0 26 84 0a 3e 18 f9 b1 3d 8f 58 41 bd 73 6f 1a 3d
       0.13526973 0.08690089 -0.047203597 0.037703943
0003f0 02 4a 84 be 91 c9 02 3f c7 dc ef bd 5d be d0 bd
       -0.25837713 0.51088816 -0.11712032 -0.10192559

fc1.bias f4 [128]
000000 12 05 35 bd 87 7b 19 bf 3c 61 1c bf 47 0b 27 bf
       -0.04419429 -0.5995411 -0.6108587 -0.6525158
000010 7c 29 74 3d 09 4e 56 3e 68 d5 11 be 71 1d 8f be
       0.059609875 0.20928206 -0.14241564 -0.2795215
000020 22 73 b0 3d 79 a1 c6 3e 1b 8d 09 bf 33 d3 3c bf
       0.0861571 0.3879507 -0.53730935 -0.73759764
000030 89 9e 47 3e 5a 31 22 bf 2e 11 2b 3d 6f 42 de be
       0.1949407 -0.63356555 0.04176443 -0.4341006
000040 1e b4 08 be a2 90 df be 85 a3 44 bf ca 99 02 be
       -0.13349959 -0.43665034 -0.7681201 -0.12753978
000050 05 46 aa be 34 36 c8 be ed 16 25 bf bc 04 b9 bd
       -0.33256546 -0.39103854 -0.64488107 -0.09034106
000060 55 38 86 be 48 c3 05 be 7c 65 e9 bd 08 da 28 3d
       -0.26214853 -0.13062775 -0.1139631 0.041223556
000070 29 54 54 bf 8a 2b 00 bf cc 75 b1 3e 0d e3 fa be
       -0.8294092 -0.50066435 0.34660184 -0.4900135
000080 03 88 c6 3d 1c 22 20 bd bc 4a e8 be e6 5d 0d bf
       0.09693911 -0.03909503 -0.45369518 -0.552214
000090 3b 0f a1 be 60 45 be be 47 fa 1e bf 5e c9 0a bf
       -0.31456932 -0.37162304 -0.6210064 -0.5421351
0000a0 ef a9 90 be f9 a2 7c bc 59 2d 2c 3e fd 24 90 be
       -0.2825465 -0.015419715 0.16814174 -0.2815322
0000b0 76 59 70 be 2d df 24 bd ae e7 fb be 67 69 83 bd
       -0.23471627 -0.0402519 -0.49200195 -0.06416588
0000c0 6e 4a f4 be 31 46 99 be 6d 30 e5 be 53 1c a6 be
       -0.47713035 -0.29936364 -0.44763508 -0.32443485
0000d0 0c c8 61 bf f7 35 fa be af cc 30 bf 77 46 50 bd
       -0.8819587 -0.48869297 -0.6906232 -0.05084845
0000e0 a5 e2 8f be 93 3e 1e bf 5d fd 98 be bb f9 a1 bc
       -0.28102604 -0.6181423 -0.298808 -0.019772401
0000f0 08 8b 95 3e 4d c6 a4 3e 0c 51 10 bf 3d dd e6 3e
       0.29207635 0.3218254 -0.5637367 0.45090666
000100 f2 fa 5f 3d 65 dd 1e bf b3 09 bb bb 86 fb 62 bf
       0.05468268 -0.6205657 -0.0057079433 -0.88665044
000110 5a d5 94 bd 89 83 1c bd f8 54 50 bf d6 9b eb be
       -0.07267256 -0.03821138 -0.8137965 -0.4601733
000120 f5 ed 9d 3d 29 6e db 3e 61 a4 f2 bd 70 68 54 3d
       0.07711402 0.42857483 -0.11847759 0.05185741
000130 cf 08 2e be 4d 9f 9b 3b 2d ab 98 be 4b 4b 51 be
       -0.16995548 0.0047492147 -0.29818097 -0.20438878
000140 e6 b7 22 bd e3 e6 f2 be f0 53 1f bf ea 42 85 bf
       -0.03972616 -0.47441778 -0.62237453 -1.0411046
000150 fe 14 87 bd 89 06 f3 bd 73 ed 2f bf 05 d8 38 3f
       -0.06595801 -0.11866481 -0.68721694 0.7220462
000160 ab bb 7c 3f d6 2c 90 be be e0 0a 3d f7 9f 75 bf
       0.9872386 -0.28159207 0.033905737 -0.9594721
000170 80 38 0b bf 0e e7 2e 3c db 19 d9 3e ad b6 11 bf
       -0.5438309 0.010675205 0.4240254 -0.56919366
000180 47 04 ea bc f2 f5 7c bd 39 b9 0a bf 88 3e 6f 3e
       -0.028566493 -0.06175799 -0.5418888 0.23363698
000190 44 6a 2e be 6a 5d 2e 3e 4e 61 3e be b8 33 b4 3d
       -0.17032725 0.17027822 -0.18591806 0.08798927
0001a0 78 63 c4 bd 9d a4 89 bc 84 71 05 be 41 ed aa be
       -0.09589285 -0.016802127 -0.13031584 -0.33384135
0001b0 99 24 80 bc ef 71 0d bf f9 9f ea be 67 19 12 be
       -0.015642451 -0.55251974 -0.45825174 -0.14267503
0001c0 39 f7 da 3d b2 33 64 bc 7e 3d 07 bf c2 dc 3e 3d
       0.10691685 -0.013928341 -0.52828205 0.04659725
0001d0 4d 8a a3 3e 1d 53 aa be 04 aa 1b bf 51 92 1c bf
       0.31941453 -0.33266535 -0.608063 -0.6116076
0001e0 af ad d3 be 50 a7 ce be 18 e2 7a be 4a 03 89 be
       -0.41343448 -0.40362024 -0.2450031 -0.26760322
0001f0 ec f4 12 3e db 7d c5 be 79 a4 0b bf fb a5 e6 be
       0.14351243 -0.38572583 -0.5454784 -0.45048508

fc2.weight f4 [56, 128]
000000 9b 3d 80 be d5 50 8b bd c5 10 fe 3d 96 25 ab be
       -0.25047 -0.06802527 0.12405542 -0.33427113
000010 98 df cc be b0 24 7b 3e f9 73 81 3e b4 47 e3 be
       -0.40014338 0.24525714 0.25283793 -0.44390643
000020 36 d8 d3 be f4 38 04 bf 64 88 dc be 24 a0 26 3d
       -0.41375893 -0.51649404 -0.43072808 0.040680066
000030 b3 8f 9c 3d 2a 6c e6 3e 6b c3 04 3d 03 82 ac bf
       0.07644596 0.45004398 0.032412928 -1.3477176
000040 66 7d 78 bd 70 a5 61 3e a5 b9 07 3e 83 0e 21 be
       -0.060666464 0.22035766 0.13254412 -0.15728192
000050 a0 d7 36 3e 74 66 d0 be 0a e6 dc be 94 fc 15 be
       0.17855692 -0.40703166 -0.43144256 -0.14647132
000060 89 5d 0c bf 01 28 fd bd e0 e6 81 3d b1 9c cf be
       -0.54830223 -0.12361146 0.06342864 -0.40549234
000070 74 92 99 3d a4 65 07 bf 72 f1 47 bf f0 5f 80 3d
       0.07498637 -0.52889466 -0.7810279 0.062682986
000080 f2 11 0b bf 37 db 4a bf 7d 4c 97 3d 75 07 3a 3e
       -0.5432426 -0.79240745 0.07387636 0.18166907
000090 6b 4f 5e bf 2c 02 9c be 20 4c a3 be 1d 13 84 3e
       -0.8683993 -0.30470407 -0.31894016 0.25795832
0000a0 ca e2 78 bf 1d e2 dd 3d f9 03 4e 3e c4 af 0a 3f
       -0.9722105 0.10834143 0.20118703 0.5417445
0000b0 29 16 90 be 98 5d ea be 76 f9 98 bd e8 7d c3 3e
       -0.28141907 -0.4577453 -0.07469456 0.38181996
0000c0 39 25 0e bd 0e aa 2c be 38 af c1 3d 3b ea d6 bd
       -0.034703467 -0.16861746 0.094572484 -0.10493895
0000d0 1a f4 f0 bd ad b5 ca be 6a 0d 2c be 72 13 02 3e
       -0.11765309 -0.39591733 -0.16801992 0.1270273
0000e0 0e 02 46 bf bf 47 11 be 29 8d 2b bf ce db 6f 3e
       -0.77346885 -0.14187525 -0.6701227 0.23423693
0000f0 e1 a4 91 be 3d ca 5f bd 77 97 a2 be e5 a3 9e 3e
       -0.28446105 -0.05463623 -0.31756184 0.30984417
000100 be cd eb 3e fc 45 9a be 3d 50 e8 be 2f 90 20 3e
       0.46055406 -0.3013152 -0.45373717 0.15680002
000110 0c 7a 21 bf 43 c6 ba 3d 5d ac a3 3d d2 6d 44 3e
       -0.63076854 0.09119847 0.0799186 0.19182518
000120 42 3f a6 3d 93 4a f1 bd da f9 43 be e2 ed 7b be
       0.08117534 -0.11781802 -0.1913828 -0.24602464
000130 7e 6a 10 bf 4a 9a dd be da 79 5b 3d 81 58 a1 3d
       -0.56412494 -0.43281776 0.053583004 0.07878209
000140 e8 21 22 be f9 f8 62 3c 0c d9 02 3e f5 d3 5c 3e
       -0.15833247 0.013853305 0.1277811 0.2156523
000150 db d0 1c bd 89 83 93 be 33 01 b8 3d fd a8 ab bd
       -0.038285118 -0.2881129 0.08984604 -0.08381841
000160 e7 96 4f bf 1c e1 29 bf 86 1f d4 be 68 66 99 3e
       -0.81089634 -0.66359115 -0.414303 0.29960942
000170 d0 29 2e 3e 87 37 b8 bd 45 1b 61 bf 9a a0 81 3e
       0.17008138 -0.08994966 -0.87932235 0.25317842
000180 b7 82 d5 3d 63 69 d0 3c 7d 7e 07 3e cb c2 b2 be
       0.104253225 0.025440877 0.13231845 -0.3491424
000190 97 52 ce 3e fe af a1 bc ad 6c 4e 3e 4e 2e 88 3e
       0.40297386 -0.01973724 0.20158644 0.26597828
0001a0 b7 ff 07 3c 78 5d c9 3b 67 3f ad bd 20 90 4a bd
       0.008300713 0.0061451755 -0.08459359 -0.049453855
0001b0 82 56 6e bd 20 d4 68 3d 06 60 ad be e7 2d ca be
       -0.05818797 0.056842923 -0.33862323 -0.39488146
0001c0 e1 3d 13 3f 85 9d 2f 3e 6d 3b e1 be e0 91 de be
       0.57516295 0.17149933 -0.4399065 -0.4347067
0001d0 61 29 fd bd 7c 45 82 3e c9 9a d8 bd 54 10 52 3c
       -0.12361408 0.25443637 -0.10576398 0.012821276
0001e0 28 35 27 3c d0 fe fe be 71 b4 a4 bf db f0 2d be
       0.0102055445 -0.49803782 -1.2867566 -0.1698641
0001f0 ff 23 99 be 2b 79 b3 3e c7 33 ce bd e7 cf 1e bf
       -0.29910275 0.3505338 -0.100684695 -0.62035984
000200 45 4d 01 3e a8 a1 c0 3d a3 79 1b 3f b5 04 cf 3d
       0.12627132 0.094058335 0.6073248 0.1010832
000210 6d 8c 13 be 24 fc 12 3b 86 e3 4d 3c c7 f7 d8 be
       -0.14409037 0.002242812 0.012566453 -0.4237654
000220 d3 a8 59 bf 7b 14 f3 bd 38 3a 1f 3e ad 8b a6 bd
       -0.8502323 -0.11869141 0.15549552 -0.0813211
000230 74 d2 bf bc 14 22 23 3e 57 1b df 3e d6 a5 48 3e
       -0.023415782 0.15930969 0.43575546 0.19594511
000240 67 85 9c bc db c3 22 3e 77 b9 02 3d b6 66 48 3e
       -0.01910658 0.15895025 0.031915154 0.19570431
000250 16 7f dc be 9b a9 43 3e da fb 04 bf cc 4c 13 3e
       -0.4306571 0.19107668 -0.51946795 0.14384764
000260 0b de 2f be 12 c5 93 3f d2 76 54 3e 4c 4b d3 3d
       -0.17174546 1.1544516 0.20748451 0.10317096
000270 1e 76 b9 bd 65 6c b9 3e ae 5e 4f bf 29 2e 1d bd
       -0.09055732 0.3621551 -0.81003845 -0.0383741
000280 e0 36 b6 bd 6f 76 55 bd 31 78 e2 bd f7 b1 1e 3e
       -0.08897185 -0.0521149 -0.11058081 0.15497576
000290 02 60 27 bf a9 94 20 3f 37 c4 3d be f2 46 84 3c
       -0.6538087 0.6272684 -0.18531881 0.01614711
0002a0 da bd d7 be ed b0 9b 3e 04 93 9b be 43 59 8b be
       -0.42137033 0.3040842 -0.30385602 -0.2721654
0002b0 da 80 bc be 04 5b 89 be 46 11 0d 3e da fb 5e 3f
       -0.36817056 -0.26827252 0.1377612 0.87103045
0002c0 a1 40 63 bf 12 86 3d be ee ae c3 3e d5 a1 5c be
       -0.8877049 -0.18508175 0.38219398 -0.21546109
0002d0 e5 c6 fa be b5 7d ca 3e a9 fb 5d 3e a1 f4 38 3e
       -0.4897987 0.39549032 0.21678032 0.18062069
0002e0 bf 4f e1 3e b9 d5 37 bd c7 2a 08 bf d5 9a db bd
       0.44006154 -0.044881556 -0.53190273 -0.10722891
0002f0 74 4f e6 be 6c d7 bb 3e bf 48 9d 3e 92 33 78 3d
       -0.44982493 0.3668779 0.30719563 0.060596056
000300 ab 1f 15 3e c9 99 08 bf e6 76 1b 3e 50 55 e1 3e
       0.14562862 -0.5335966 0.15182075 0.440104
000310 a4 c6 37 3f 51 32 aa 3d ab a4 c2 be f8 e0 98 3e
       0.71787477 0.08310378 -0.38016257 0.29859138
000320 8d 69 20 bd dc 9e f6 be 41 c1 4a be 04 a6 27 bf
       -0.03916316 -0.48168075 -0.19800283 -0.65487695
000330 17 94 ef be a0 85 f6 3e fb f3 84 3e c9 d8 c8 be
       -0.4679267 0.48148823 0.25967392 -0.39227894
000340 bd 6f ab be 48 a8 70 bd 6f 2f d2 3d 1e 9a 71 3d
       -0.33483687 -0.058754236 0.102629535 0.05898487
000350 23 86 6a be 18 e4 27 bf df 78 94 be c5 3b e7 3e
       -0.22902732 -0.6558242 -0.28998467 0.45162788
000360 d6 b3 10 3f b7 9a d0 be b4 ec d5 3e 7a b5 4f be
       0.5652441 -0.40743038 0.41782153 -0.20284072
000370 1c a6 d8 be ae 5d e4 3e 76 9e 36 bf 24 8f 87 3e
       -0.4231423 0.44602722 -0.7133554 0.26476395
000380 96 72 f9 3e 2f 79 58 3e 4a 6f 88 be 1f 9c 0b bf
       0.48720235 0.21139978 -0.26647407 -0.54535097
000390 b4 8d e3 be 92 19 8c 3e 02 d5 f5 be 6d f9 a7 3c
       -0.44444048 0.2736326 -0.48014075 0.020504678
0003a0 eb 96 2e 3e d2 f6 08 3e df 16 2a 3e aa 39 7c be
       0.17049758 0.13375404 0.16610287 -0.24631372
0003b0 0b fd 02 be 71 ce 36 3e ff 38 ff bc 01 4c ec bd
       -0.1279184 0.17852189 -0.031155108 -0.11537934
0003c0 ad 0b f3 3e 32 93 af bd 31 e9 2b be b5 e3 85 be
       0.47469845 -0.08572997 -0.16788174 -0.2615029
0003d0 fb b3 6d be 15 3b ca bb b1 1e 06 3f a7 7c ab bd
       -0.23213188 -0.006171594 0.5239058 -0.08373385
0003e0 77 cf f6 be 25 c3 0f 3f 22 47 7f be 14 1c 41 3d
       -0.48205158 0.5615714 -0.24929479 0.047145918
0003f0 94 b7 1c bf d1 63 78 bb 93 8a 0a be 20 92 22 3d
       -0.6121762 -0.0037901292 -0.13529424 0.039690137

fc2.bias f4 [56]
000000 3e d9 94 be 2e e1 fe bd c6 c0 87 be ab 5b c3 be
       -0.29071993 -0.12445293 -0.26514262 -0.38155875
000010 a8 ad ae bd f0 a6 ce bc e5 25 b0 bd 07 3c f9 be
       -0.08529216 -0.025226086 -0.08600978 -0.4867861
000020 42 9b 5b be 11 b7 b9 be 61 21 8f be 31 b0 38 3e
       -0.21445945 -0.3627248 -0.27955154 0.18035962
000030 06 fa f0 be 31 41 7b bc d5 52 d6 3b 63 07 a6 be
       -0.47065753 -0.015335367 0.006540636 -0.3242751
000040 65 d7 56 3e 1f 9b 18 be 5c 16 4c be 66 71 f6 3c
       0.20980604 -0.14902924 -0.19930404 0.03008337
000050 99 77 14 3e 05 e9 85 be 6d e4 91 be 51 63 8b bd
       0.14498748 -0.26154342 -0.28494588 -0.068060525
000060 5f 41 8f 3d 2e ab 02 be ee e3 ee be 5f be 5d be
       0.069948904 -0.12760612 -0.46658272 -0.21654652
000070 91 d0 7f 3c f5 48 8b be e7 dd 10 be 3f f6 62 be
       0.015613691 -0.272041 -0.14147149 -0.22164248
000080 64 72 06 be 8c 00 33 bd 34 94 08 be e4 78 68 bd
       -0.13129574 -0.043701693 -0.13337785 -0.056755915
000090 02 a3 2b 3e ab 7b 08 bf b2 31 c1 bd c5 00 ee be
       0.16761401 -0.533137 -0.09433307 -0.46484962
0000a0 da 08 d3 be b1 1a bb 3c e7 00 cd be 9d c6 22 3e
       -0.4121769 0.022839876 -0.4003975 0.15896077
0000b0 b8 30 15 3e 9f a2 44 be 0b ee 72 3e ed d2 29 3e
       0.14569366 -0.1920266 0.23723619 0.16584368
0000c0 43 df 8a ba f4 b2 56 3e 9b 16 dc bd d6 05 6c bf
       -0.0010595102 0.20966703 -0.10746499 -0.92196405
0000d0 bb d4 eb be bf 22 70 be bf b7 94 be 45 f2 82 3d
       -0.46060738 -0.23450755 -0.29046437 0.063938655

fc3.weight f4 [2, 56]
000000 a8 7c 85 be 04 a2 dd be b6 c4 de be 36 13 a1 be
       -0.26071668 -0.4328767 -0.43509454 -0.3145997
000010 dd 02 37 be b3 3d a1 bd 7e 05 63 3e 98 7b 65 be
       -0.17872186 -0.07873096 0.22170064 -0.22410429
000020 20 d5 74 bc 52 37 dc bc b4 83 95 be ad 05 25 3f
       -0.014943391 -0.026881848 -0.29202044 0.64461786
000030 0b 94 e8 be 30 07 e9 bd 13 76 13 bf 6e 3e 41 bf
       -0.45425448 -0.11378324 -0.5760204 -0.75485885
000040 24 fc 1e 3d c2 9c a5 be 43 75 48 3d ba a3 93 3d
       0.03881468 -0.3234616 0.048939954 0.07208963
000050 bb 68 4e 3f 41 fd 1e bf 4c c7 a6 3d c7 62 3c bf
       0.80628556 -0.62105185 0.081434816 -0.7358822
000060 92 6b 6e be 00 e5 0e bf 81 52 06 bf 09 95 9e bd
       -0.23283222 -0.55818176 -0.5246964 -0.0774327
000070 77 0e d2 bd fb a7 41 3d 8a 2e 20 be cd 1c 70 3d
       -0.10256665 0.04727934 -0.15642753 0.058621217
000080 df 02 1b 3f d1 fa eb be 7e 03 12 3f b3 33 6f bd
       0.60551256 -0.46089795 0.5703658 -0.058398914
000090 20 1d 30 3f d5 bc 95 bd 87 43 2f be 12 8d 4a 3e
       0.6879444 -0.073114075 -0.17115603 0.19780377
0000a0 39 12 ef bd a1 7a 9c bf fa 86 fd be 07 71 28 3e
       -0.116733976 -1.2224923 -0.4951704 0.16449367
0000b0 9e 2a 6d 3f a5 74 dc be 62 a4 06 bf b3 43 e0 3b
       0.92643154 -0.43057743 -0.5259458 0.006844008
0000c0 38 67 25 bf 68 82 90 3f a2 06 27 3d bd 37 8d bf
       -0.64610624 1.1289797 0.04077781 -1.1032635
0000d0 ae 50 87 3f 76 be ca 3b dd 5f 7d 3d de 46 67 3f
       1.0571496 0.0061872555 0.061859 0.9034251
0000e0 f4 2e 77 3f f0 9c 60 bf e9 62 ee 3e a5 c5 07 bf
       0.9655602 -0.8773947 0.46559837 -0.53035957
0000f0 f9 e5 0d bf 50 a2 99 bc 60 5f 9d bf 38 8d 1d bf
       -0.55429035 -0.018754154 -1.2294731 -0.6154361
000100 b6 07 43 3f 34 a3 6c bf e4 5e c7 bc 16 06 04 bf
       0.7618364 -0.9243653 -0.02433724 -0.51571786
000110 db 51 ac 3e 10 3e 6b 3d 46 a4 c7 3e 5b 0a 6d 3c
       0.336562 0.057432234 0.38992518 0.014467801
000120 3c e7 ec 3e 77 68 b9 3d bf aa 54 3f b3 0a 37 3e
       0.46270168 0.09053128 0.8307304 0.17875175
000130 4e 8e 40 3c 8c 9b 16 bf 83 0f 38 3f a7 24 80 bf
       0.011752678 -0.58831096 0.7189867 -1.0011185
000140 9d 70 78 bf 90 83 cb bd 57 3f 81 be 00 97 40 3e
       -0.97046834 -0.09937203 -0.25243637 0.18807602
000150 d5 4f 99 bd 1b eb 7d bf ee 5f 7f bc 7e 7f 11 bf
       -0.0748593 -0.9918687 -0.015586836 -0.5683516
000160 4a 6d 17 3f b3 36 95 be e1 22 43 3c 99 45 53 3f
       0.59151137 -0.29143295 0.011910171 0.8252807
000170 22 9e 33 be da ab c2 bd 21 0d 47 be 35 7f 46 3f
       -0.17540792 -0.09505434 -0.19438602 0.7753785
000180 ce 5b 6b bf a7 14 61 3d 6b 10 a5 3d 4e 9b 56 bd
       -0.9193696 0.054951336 0.08059772 -0.052394204
000190 40 75 b5 3d a7 c6 8e 3f 66 eb 01 3e 61 92 0d 3e
       0.08860254 1.1154374 0.12687454 0.1382537
0001a0 ba 8f e7 bc 21 77 f0 3d 60 1e 6f bd 4d 9b d0 3e
       -0.028266776 0.11741472 -0.058378577 0.40743485
0001b0 8f 5d 5d 3e 5c 18 78 be fa ee 06 be 7b 2b 6c be
       0.21617721 -0.24228042 -0.131771 -0.23063461

fc3.bias f4 [2]
000000 98 dc 02 3f 2c d6 ff 3e
       0.5111785 0.49968088
