checkpoint_actor.pth (torch_old, 43194 bytes, 6 tensors)

fc1.weight f4 [128, 24]
000000 c1 d9 42 3f f4 47 8d bd 8c 87 3b be db d3 96 3d
       0.76113516 -0.068984896 -0.18313426 0.07364627
000010 e4 bf 93 3e 33 54 1a 3d 20 a7 8b be ac 02 15 3e
       0.28857338 0.037677955 -0.27275944 0.145518
000020 1e 74 f9 3e 9a 3d be be 03 6d 4f be 00 eb ef be
       0.48721403 -0.37156373 -0.20256428 -0.46858978
000030 35 88 d1 be fe 69 d4 be f3 13 c3 be d1 b2 00 bf
       -0.4092423 -0.41487116 -0.38101158 -0.5027285
000040 2e 0c 50 3f 86 31 b6 be 3b e1 a0 3e 52 55 8e bf
       0.81268585 -0.35584658 0.31421837 -1.1119788
000050 67 4c 04 bf bd 74 01 bf 1a e1 00 3f 10 1c 89 bf
       -0.5167908 -0.50568753 0.5034348 -1.0711689
000060 62 ce 5a bd b7 a2 24 3d dd 34 f4 3d b6 87 e1 be
       -0.05341948 0.04019424 0.11924145 -0.44048852
000070 f7 94 da 3f 75 82 dd bc c1 8e d3 b9 d5 7c f9 be
       1.707671 -0.027039746 -0.00040351416 -0.48728052
000080 b2 29 c8 3d e1 3b 2e 3f c8 68 f7 3d 7b 9b 6b be
       0.09773578 0.6806012 0.12080532 -0.2300853
000090 66 8d ec bc 3a 58 d7 3e f2 89 23 3e dc 30 4a be
       -0.028876018 0.420595 0.1597059 -0.19745201
0000a0 ef be 56 be f6 89 ce 3e d9 3a 91 bd 72 f7 6f 3e
       -0.20971273 0.4033963 -0.070913024 0.23434237
0000b0 23 2a bc bf 15 d0 79 3f 8b 72 9a be 71 be a9 3e
       -1.4700359 0.97583133 -0.30165514 0.33153108
0000c0 15 63 94 3e f3 21 d5 be 83 cd 98 be 98 e0 11 bd
       0.28981844 -0.41627464 -0.29844293 -0.03561458
0000d0 e0 ac 71 3e 52 c8 e6 3e 90 e2 dd be 68 5d 17 be
       0.23601103 0.45074707 -0.43336916 -0.14781725
0000e0 fe 0d 6b 3e 10 66 61 be cc e3 f2 3d bf 9b 1a be
       0.22954556 -0.2201159 0.11859855 -0.15098475
0000f0 51 b4 f0 be 9d e6 7e 3f 6e 6f 7f 3e cd 14 aa bd
       -0.4701257 0.9957064 0.24944851 -0.08304749
000100 31 af ba 3e e5 19 03 bf 08 3c 9c 3e 78 7f 65 bf
       0.36461785 -0.51211387 0.3051455 -0.89647627
000110 8e c1 30 bf 3a 3c f7 3f 09 74 af 3e 97 e0 6d bf
       -0.6904534 1.9315255 0.34268215 -0.9292082
000120 c6 79 95 3e da 2f 8b 3f a9 72 b1 be 12 ad 58 3f
       0.29194468 1.0873978 -0.3465779 0.84639084
000130 56 7a 04 3e 54 f9 9f bf 4f 82 fd bd 78 df 82 3f
       0.12937292 -1.2497964 -0.1237837 1.0224447
000140 2b 3a 1d be 1f 73 43 3f c7 c7 42 be 70 dc cb 3e
       -0.1535422 0.76347536 -0.19021522 0.39816618
000150 ac 08 94 bd 59 d3 44 bf 22 78 9e bb 65 15 e5 3e
       -0.072282165 -0.7688499 -0.0048360983 0.44742885
000160 8b e9 98 bc ad 1d 76 3f 2a 68 11 3e 8d b2 3d bf
       -0.01866605 0.9613903 0.14199892 -0.7410057
000170 6b 87 6e bd 79 d5 6a bf a4 41 56 be d2 a2 37 bf
       -0.058234613 -0.91731983 -0.20923477 -0.7173282
000180 90 3f 7f 3e 92 45 90 bf e0 5d 82 bd b4 05 29 bf
       0.24926591 -1.1271231 -0.063655615 -0.6602433
000190 0b 60 5d 3f 91 28 c9 3f 59 ea 0e 3d 44 07 33 bf
       0.86474675 1.5715505 0.03489146 -0.6993296
0001a0 cf c3 88 3e 6f 83 d4 be c2 e5 86 bd a9 ee 4b 3d
       0.2671189 -0.41506526 -0.065867916 0.04978815
0001b0 50 dd dc 3f 8b f4 ff be cb 05 10 be 97 41 9c 3d
       1.7255039 -0.4999126 -0.1406471 0.07629698
0001c0 70 6e c4 3e 6a 97 0f bf 60 66 06 3e eb eb 1f 3f
       0.38365507 -0.56090415 0.1312499 0.6246936
0001d0 9a 6a 38 40 5d 5e 00 c0 9a 68 89 3c 5b fa 0f 3f
       2.8815064 -2.0057595 0.01677351 0.5624139
0001e0 d2 3f ba 3e 3f c7 5e bf 52 7b 61 3c a2 73 b7 3e
       0.36376816 -0.87022775 0.013762312 0.35830408
0001f0 dc 19 eb bd 56 e1 27 3f fb 9d f4 bd 2e c4 8b 3e
       -0.11479542 0.6557821 -0.11944195 0.2729811
000200 16 11 76 3f 49 c5 ee bf c7 16 2a 3e b3 72 2f 3f
       0.9611982 -1.8653957 0.16610251 0.6853439
000210 ad b6 1c bf 62 54 1b 3f 6f 87 0e be 44 c4 73 3f
       -0.6121624 0.6067563 -0.13918851 0.9522135
000220 73 21 79 3f e2 71 ad bf 70 e1 61 3e 2a 4a 6b 3f
       0.97316664 -1.3550379 0.22058654 0.9191004
000230 7d 23 62 bf 6f f2 9a 3f e1 64 05 bd f3 12 79 3f
       -0.883354 1.2105235 -0.03256691 0.9729454
000240 cc 0d 52 be 70 a6 c4 be e9 18 01 be c8 c1 9a 3e
       -0.20513076 -0.38408232 -0.12607159 0.30225968
000250 d9 85 8d 3d 02 e9 34 be a4 1d 4d bd 4b 8b c0 3e
       0.06910295 -0.1766701 -0.050077096 0.37606272
000260 46 e0 f3 be bb 91 f7 3c 62 5d 5c bd 73 a4 91 3e
       -0.47632045 0.030220857 -0.053799994 0.28445777
000270 23 1e 19 40 de c2 a4 3e 6c 6f 58 be 91 bb b7 3e
       2.3924644 0.32179922 -0.21136254 0.3588529
000280 21 f2 21 bf 15 6f ac 3e c4 31 00 bf da 93 d6 3e
       -0.63260084 0.336785 -0.50075936 0.41909677
000290 3e eb f2 40 f4 4f 42 3f 5c 9b e4 be d3 88 12 3f
       7.591216 0.7590325 -0.4464978 0.5724003
0002a0 8e 9d 6a 3f da 7a eb bc 0a e8 ab 3d 73 fe 7b 3f
       0.9164666 -0.028745104 0.08393867 0.98435134
0002b0 b1 94 91 bf e0 b1 a1 bf 93 72 80 3e 42 ef 77 3f
       -1.1373502 -1.2632408 0.25087413 0.96849453
0002c0 3f d2 bc 3f 36 a8 10 3e 8f 32 7f 3e b2 d0 90 bf
       1.4751662 0.14126667 0.2492163 -1.1313689
0002d0 6a 6b 54 bf 5f 1c 2f bf 6b 9a 02 be a7 ec be bf
       -0.829764 -0.68402666 -0.12754218 -1.491597
0002e0 b7 1f 77 3f 4f 7b 86 bf 1b 9a 08 be d9 17 8a bf
       0.9653277 -1.0506381 -0.13340037 -1.0788528
0002f0 02 ae c1 3e 9c 4a 82 3f 86 bf a7 bd 3c ee 65 bf
       0.3782807 1.0179019 -0.08190827 -0.8981664
000300 b4 03 01 bf 77 7d 4d bf 0c a0 03 3e 13 7d 9c 3e
       -0.50396276 -0.8026957 0.12854022 0.30564174
000310 e5 a1 49 bf ee 0e 3b bf c6 27 c9 bb e9 6b b6 3e
       -0.78762656 -0.73069656 -0.0061387746 0.35629204
000320 c9 80 e7 be 61 4b 29 bf 10 96 ea 3d ec 72 5a 3e
       -0.45215443 -0.66130644 0.114544034 0.21332902
000330 05 ac 99 3e ce c2 7c bf d6 1c e8 bc a7 94 d1 3c
       0.30014053 -0.9873475 -0.028334063 0.025583578
000340 6f 5f e8 be a1 0d 47 bf 21 4a 38 be 4f ca 43 3e
       -0.4538531 -0.7775517 -0.17997028 0.19120143
000350 e9 db 97 3f 71 1b b2 bf 4b f0 3e be c5 34 1e 3e
       1.1863986 -1.3914624 -0.18646352 0.15449817
000360 f0 e5 f2 bd f0 0f c3 3f 94 0e 9d 3c e7 df 49 3d
       -0.11860263 1.5239239 0.01917199 0.049285796
000370 41 e2 0f bf ef d5 70 be 74 71 f3 3d de 20 7d be
       -0.5620461 -0.23519109 0.11886874 -0.24719569
000380 c9 32 c7 be cd b4 9c 3f 0c e9 b5 3d e7 8d 27 3f
       -0.38905933 1.2242676 0.08882341 0.654509
000390 d8 6a 6e be 15 77 d6 bf d7 d8 01 3e 54 c5 5d 3f
       -0.23282945 -1.6755091 0.12680374 0.86629224
0003a0 63 1e 5f be 28 75 9b 3f 66 c6 8d 3e 26 0f fb bd
       -0.21788935 1.2145128 0.27690428 -0.12258749
0003b0 8a 37 96 3e ff f5 8f c0 df 5e 07 3e 20 71 83 be
       0.29339248 -4.498779 0.13219784 -0.25672245
0003c0 bf c5 23 3f da 4b 6d 3f b5 a5 2e be fd 9a 40 3e
       0.6397361 0.92693865 -0.170554 0.18809123
0003d0 07 6a 1a bf 09 21 96 3f 67 dc 43 be 58 36 02 3f
       -0.60318035 1.1728832 -0.19127046 0.5086417
0003e0 ae 35 ed 3e 44 f1 89 3f 98 83 63 be 81 84 ef 3d
       0.46330017 1.0776753 -0.22218168 0.11695195
0003f0 bd a0 b3 3f 53 4b 39 3f e6 8d 95 be b9 c4 b9 bc
       1.4033428 0.7238056 -0.29209822 -0.022676812

fc1.bias f4 [128]
000000 ea aa f6 3e da f4 93 bf 56 3a 66 bf bc ed b2 3d
       0.48177272 -1.1559098 -0.89932764 0.087367505
000010 42 fb 0d bf 77 fa 28 bf d6 97 93 3f 47 4c 89 bf
       -0.55461514 -0.6600718 1.1530712 -1.0726403
000020 bd 6f 0b 3f 21 04 e2 3f 79 f0 cf 3e eb c2 40 be
       0.54467374 1.765751 0.40613154 -0.18824355
000030 4a 75 a8 bf 59 ba 84 be 59 65 62 bf 5f 38 36 3f
       -1.3160794 -0.25923422 -0.88435894 0.71179765
000040 ab 37 d9 bd ea 8e ce bc 6d 27 e5 be 13 5b cb bf
       -0.10606321 -0.025214631 -0.44756642 -1.5887169
000050 f1 5f 5e be c7 02 21 3f bc e5 12 3e 74 71 0d 40
       -0.21716286 0.6289486 0.14345449 2.2100496
000060 b3 3e a9 be 2b ee e2 bf 7d 36 d8 3d 36 76 2f bf
       -0.33055648 -1.7728933 0.10557268 -0.6853975
000070 82 46 2d bf 0a 36 1d 3d c1 24 85 bd 9e 48 ed bf
       -0.6768571 0.038381614 -0.06501151 -1.8537786
000080 ad 97 d4 bf 98 d7 5f bf 36 c4 b4 3d a3 48 f9 be
       -1.6608788 -0.87438345 0.08826487 -0.4868823
000090 25 8d b2 3e ec b0 1a bf 77 7d 21 3f cd a1 6a bf
       0.3487331 -0.6042621 0.6308207 -0.9165314
0000a0 5d ac 95 be a5 f1 b5 be 98 2f 00 3e b2 e7 95 bf
       -0.29233065 -0.35535923 0.12518156 -1.1711333
0000b0 a3 d4 9e bf c2 6e be bd 91 df 86 be 93 eb 14 3e
       -1.2408642 -0.09298469 -0.26342443 0.1454299
0000c0 b9 a8 c9 3f f9 55 a8 bf e2 4f 7c bf c1 2e 9d 3d
       1.5754615 -1.3151237 -0.9855939 0.07674933
0000d0 d7 bc 27 be ec 81 41 bf 4a 1d fe be 8e 83 3f 3d
       -0.1638063 -0.7558887 -0.4963172 0.04675632
0000e0 fd 5e d7 bf e9 ee 1c bf b5 8b 01 bf b1 0a 7b be
       -1.6825863 -0.6130205 -0.506038 -0.24515797
0000f0 6e 5b 87 bf da b2 47 bf 1e f6 d7 bf 5d c2 54 3f
       -1.0574777 -0.7800728 -1.6871984 0.83109075
000100 43 93 d5 bd 88 90 2b be ce 84 3e 3e 6c 03 83 be
       -0.104284786 -0.16754353 0.18605348 -0.25588548
000110 88 96 7e bf 36 df c3 bf a5 c0 8d bf a8 66 1a bf
       -0.9944844 -1.5302494 -1.1074415 -0.6031289
000120 dd 9d 69 3e 23 ad 9a 3f 53 db b3 bd e5 59 e5 bd
       0.22814126 1.2084087 -0.08782067 -0.11198787
000130 c6 68 71 bf a3 0b 28 3f 56 45 59 3e 79 83 09 3f
       -0.94300497 0.65642756 0.21217856 0.53716236
000140 cd 42 8a bf d3 a3 98 bf 84 c1 33 3f fc 2b 10 c0
       -1.0801636 -1.1924995 0.70217156 -2.2526846
000150 15 cd 91 bf 6c 3d 9f 3f 6e dc 54 bf 77 c4 08 c0
       -1.1390711 1.244062 -0.8314885 -2.1369913
000160 d9 5c 1b 3e 1d 86 ae 3f 8b 65 84 bf 51 d9 dc be
       0.15172137 1.3634678 -1.0343488 -0.4313455
000170 3a cd 9d 3f 13 b6 86 be 5c 5c 48 3f fc eb a4 be
       1.2328255 -0.26310787 0.7826593 -0.32211292
000180 c2 4f 21 3f fc cb 2b 3f a0 90 c0 bf 9d 31 60 bf
       0.63012326 0.6710813 -1.5044136 -0.87575704
000190 8a 0d 80 3f 03 08 ae 3f 60 b9 61 bf eb 3b 91 3e
       1.0004132 1.3596195 -0.88173485 0.28366026
0001a0 3a 96 92 3e f8 bd 8a 3e ec 3e 22 3f 62 95 cb bd
       0.2863024 0.2709806 0.6337726 -0.09940602
0001b0 32 49 0c be 96 4d 23 bd 80 45 32 3f 21 80 39 bf
       -0.13699797 -0.039868914 0.696373 -0.72461134
0001c0 3b 57 58 bf 05 e5 6a bf 69 fc aa 3e e6 41 5d 3f
       -0.84508103 -0.91755706 0.333957 0.8642868
0001d0 0a 45 9c bf 0d 6d a3 be 16 07 03 bf ed 9e 90 3f
       -1.2208569 -0.31919137 -0.5118269 1.12985
0001e0 99 b8 cf bf 6e 8f cb bf e1 48 5a bf 3a 58 04 3e
       -1.622821 -1.5903146 -0.85267454 0.12924281
0001f0 3d 31 1c bf c7 a8 46 3f 4e 1d 09 bf 4b 0f d2 be
       -0.6101263 0.77601284 -0.5356034 -0.41027293

fc2.weight f4 [56, 128]
000000 b1 45 02 be 90 9a 1f bc bc c0 27 bf b8 48 51 3f
       -0.12721898 -0.00974144 -0.65528464 0.81751585
000010 5f 41 6b bf fd c8 25 bf 47 d9 b1 be 8d ee c1 bd
       -0.91896623 -0.6475981 -0.34736082 -0.09469328
000020 21 97 a9 be ce da 0a 3f bb fe ea 3e 07 c2 e1 3d
       -0.33123115 0.5424012 0.4589747 0.11023336
000030 0a 1c a4 bf 28 32 e7 bd d7 96 9a bf 0b b8 46 bf
       -1.2821057 -0.112888634 -1.2077283 -0.7762458
000040 c5 29 0b bf 9c be c2 be 44 d6 88 3f 97 64 69 bd
       -0.5436061 -0.38036048 1.0690389 -0.056980696
000050 0a d8 0f bf 74 28 a6 3f 21 68 e8 be 2a 6f a4 bf
       -0.56189024 1.2981095 -0.45391944 -1.2846425
000060 b7 f1 ba be 68 46 64 be 63 22 04 3e 62 48 84 be
       -0.3651254 -0.22292483 0.12903742 -0.25836474
000070 50 74 65 3f 88 d2 bb 3e 51 36 bd 3e 11 94 ac bf
       0.89630604 0.3668406 0.36955503 -1.3482686
000080 30 ce 6e be 8f 42 6b 3f d5 70 c0 3d 75 a3 96 bf
       -0.23320842 0.91898435 0.09396521 -1.1768633
000090 fb 09 e9 3c 07 eb 42 3f 89 7f 85 3f 18 ce 48 bf
       0.028447142 0.76139873 1.0429546 -0.78439474
0000a0 d1 6b 37 be d2 fb 1d 3f 2d 86 b2 3e 77 ec ad 3f
       -0.17912222 0.6171237 0.34867993 1.3587788
0000b0 c5 db 69 3e 70 64 f4 3e 56 c8 df be 08 66 00 3e
       0.22837742 0.47732878 -0.43707532 0.12538922
0000c0 c0 2b 80 3f 6d 74 b5 3e 13 69 9c be 53 a5 0a 3f
       1.0013351 0.35440388 -0.30548915 0.54158515
0000d0 4c 71 7a bf d7 df 0f 3e c4 eb a4 3f d1 2b c5 bf
       -0.9782913 0.14050232 1.288445 -1.5403997
0000e0 c8 41 08 3e 9a c8 a3 be 1e c2 4b bd 8b df 8f be
       0.13306344 -0.31988984 -0.04974567 -0.28100237
0000f0 97 b7 76 3f ed 93 f2 3d 48 7f b8 3e e6 3b 12 be
       0.96373886 0.11844621 0.36034608 -0.14280662
000100 62 0b 3b bf a1 b6 38 bf 4e 1e 50 be 62 b2 c9 bd
       -0.73064244 -0.7215367 -0.2032406 -0.09848477
000110 52 5b a0 bd 13 9e a3 bf 17 93 d5 bd f8 c0 8a bd
       -0.07829918 -1.2782615 -0.10428446 -0.06775087
000120 fd ea f0 3d 0a 56 6f 3e fc 44 f7 3e de 1f c8 be
       0.117635705 0.23372665 0.48294818 -0.39086813
000130 fb d2 35 3f 67 37 e6 be 5a cd be be f6 94 17 bf
       0.71025056 -0.44964144 -0.37266046 -0.5921167
000140 5f e1 e1 be 87 0e ba 3e 15 e0 05 3e 3d 48 5b 3e
       -0.44117257 0.36339208 0.13073762 0.21414275
000150 28 1d 19 40 da 62 de be d6 04 87 3e 29 46 ab be
       2.3924046 -0.43434793 0.26370877 -0.33451965
000160 22 2e 9c be 34 19 11 3f d5 29 27 3c f0 b8 b8 3e
       -0.30503947 0.5667908 0.010202845 0.36078596
000170 a8 e3 10 c0 27 85 c2 be 6d ad ea 3f 89 57 d9 be
       -2.263895 -0.37992212 1.8334175 -0.42449597
000180 c4 36 f9 3e 8b 8b 93 3d 21 60 67 3d ac e3 58 3f
       0.48674595 0.0720435 0.05648816 0.847224
000190 ab ed 1e bf 7c e1 bc 3f 70 4a d6 bd f0 d8 f8 3e
       -0.620814 1.4756312 -0.104634166 0.4860301
0001a0 65 cf 48 3f 5a 34 88 3f 77 86 ec 3d a4 27 fa be
       0.7844146 1.0640976 0.11549085 -0.48858368
0001b0 18 db 05 bf fa 26 2a 3f 7d bc f2 3e 38 ab 9a 3e
       -0.52287436 0.66465724 0.4740943 0.30208755
0001c0 7c e0 7c 3f 01 dd 26 be 44 86 57 be 91 2a 23 3f
       0.98780036 -0.16295244 -0.21047312 0.63736826
0001d0 fd f3 ba be df 6e e5 bd 2c a3 98 bd 42 fc 28 3e
       -0.36514273 -0.112027876 -0.074529976 0.16502479
0001e0 d0 4f a0 be d9 73 08 3f 8a 62 1d bf 1f 96 5c be
       -0.31310892 0.5330177 -0.61478484 -0.21541642
0001f0 11 dc 8b 3f 96 3d ad 3e 53 47 93 be 7f a9 aa 3d
       1.0926534 0.3383605 -0.28765354 0.0833311
000200 20 d2 e0 be 36 aa 97 3e 0c 47 20 3e ae 79 51 3e
       -0.43910313 0.29622048 0.15652102 0.20456573
000210 7c 15 45 bf db 1f 88 3d 2a 88 48 be 76 df af 3e
       -0.7698591 0.06646701 -0.19583192 0.34350175
000220 ee 48 f0 3c ed ab ff 3f 79 74 8e be c1 89 b3 3d
       0.02933165 1.9974343 -0.27823237 0.08766509
000230 43 d2 da 3b 9f 83 3e bf 49 6d d1 bb 19 c8 8a be
       0.006677897 -0.7441959 -0.0063912016 -0.27105787
000240 c0 1e ac 3d c9 b5 85 be 6c 4f 42 3f d5 e1 c2 3d
       0.084043026 -0.26115254 0.7590244 0.0951573
000250 a3 93 8b 3e 7d 36 96 3e af b1 5e bf 3f e3 3a bf
       0.27261075 0.29338446 -0.86989874 -0.73003
000260 7b b1 8c be 16 c3 9d 3f 00 ec 49 bf dd e1 20 be
       -0.27479157 1.232516 -0.7887573 -0.1571116
000270 4a 07 93 bf 33 06 57 3d 15 80 81 3e 0d 55 e9 3b
       -1.14866 0.052496146 0.2529303 0.0071207345
000280 14 b6 02 3e 7f 01 5b 3f 56 65 3e be e8 31 c5 3f
       0.1276477 0.8554916 -0.18593344 1.5405855
000290 a7 42 25 bf 46 44 c2 bf 2c a2 04 c0 3e e8 48 bf
       -0.6455483 -1.5177085 -2.0723982 -0.78479373
0002a0 3b a0 59 bf 46 0e bd bd 7c 2a 9e 3d 51 f4 8c 3f
       -0.8501012 -0.09231238 0.07722947 1.101206
0002b0 f4 71 a8 3e 90 43 9b be ca e8 93 bf 46 8e bc bf
       0.3289944 -0.30324984 -1.1555417 -1.4730918
0002c0 df 90 8e bf 3b 8a e2 3f 60 9b d0 be c8 20 0b be
       -1.1137961 1.7698435 -0.40743542 -0.13586724
0002d0 52 ba 01 c0 0d cd 83 be 26 7b 29 be af 42 87 3f
       -2.026997 -0.2574238 -0.16550884 1.0567225
0002e0 8c 20 ad bf bd a2 99 bf c8 42 3a 3e eb 9a cd be
       -1.3525558 -1.2002789 0.18189538 -0.40157256
0002f0 f6 c3 4c 3f d8 f8 66 3f 2a 92 83 3d 94 59 1e c0
       0.7998651 0.90223455 0.06424363 -2.4742174
000300 70 41 8b 3e 78 f2 bc 3d 68 01 2e 3f 28 c3 9b 3e
       0.27198362 0.09225935 0.67970896 0.3042233
000310 ed 9f f4 3e e6 8d 41 bf 61 f9 b9 be ce 3f bb 3e
       0.47778264 -0.75607145 -0.36323074 0.36572117
000320 2c 56 0d bf b2 c6 ca be 48 fd c6 bc da 6c f3 be
       -0.5520961 -0.39604717 -0.024290696 -0.47543985
000330 6d 1f 99 bf 6a 73 27 bf 0c 10 40 3e 76 bf 1e bf
       -1.1962715 -0.6541048 0.18756121 -0.62010896
000340 8d c3 ba 3f ee ce 00 bf 2c 14 08 be fe 3b 74 3f
       1.4590927 -0.5031575 -0.13288945 0.9540404
000350 79 7f fa 3e e9 9b 8e 3e 6b d0 a3 3f 54 ff 8a be
       0.4892538 0.27853325 1.2797979 -0.27147925
000360 34 43 ea bf 90 9c 22 3d 45 b7 f0 3e d5 55 ba 3f
       -1.8301759 0.03970009 0.47014824 1.4557444
000370 2b 90 d0 be b1 64 df bc de f3 14 3f e2 1b 95 3e
       -0.4073499 -0.027269693 0.5818461 0.29122835
000380 de 71 20 3e 6c 44 de bd c8 8c 48 bf c7 d4 56 bf
       0.15668437 -0.10852894 -0.78339815 -0.8391842
000390 1a e1 b9 3f e6 05 16 c0 cb 2f 08 40 19 85 b5 bd
       1.452182 -2.34411 2.127917 -0.08863277
0003a0 07 8f 4d bf 45 aa e7 be 52 50 f9 3e 0d 3c 9c 3e
       -0.8029637 -0.45247093 0.48694092 0.30514565
0003b0 28 37 59 3e be df dd 3f c6 a5 2c bf c8 b6 0b 3f
       0.21212447 1.7333906 -0.6744045 0.5457578
0003c0 a9 8d 09 be 02 b6 7d 3e 61 34 b1 bf e1 71 9c be
       -0.13432945 0.24776462 -1.384411 -0.30555633
0003d0 5f 64 58 3e aa d4 1a bf b8 c1 02 3e 18 30 37 bf
       0.21132039 -0.6048075 0.1276921 -0.7155776
0003e0 b9 56 11 bf e3 05 d7 bf cd a2 84 be d1 bc 2f bf
       -0.56772953 -1.6798671 -0.25905457 -0.68647486
0003f0 4f e1 aa 3f 91 02 b1 be e1 c4 7b bf e4 69 d8 3e
       1.3350009 -0.3457227 -0.9834729 0.42268288

fc2.bias f4 [56]
000000 c9 29 e9 bf bd c3 ec be 45 d6 85 bd 7c 66 2c bf
       -1.8215877 -0.46243086 -0.06535009 -0.6734388
000010 f9 23 92 bf 30 8e d0 bf 2a bc ee bf e7 2d 91 bf
       -1.1417228 -1.6293392 -1.8651173 -1.1342133
000020 1d 81 20 bf 47 e6 85 bf ff c2 74 bf 0d 5c ca 3e
       -0.6269701 -1.04609 -0.9561004 0.39523354
000030 db b7 40 bf bf 2c 35 bf 7f a9 46 bf 8c 70 4c be
       -0.7528054 -0.707714 -0.7760238 -0.19964808
000040 8c 97 b9 3f a7 04 80 bf fa bd 1a bf b8 85 d5 be
       1.4499373 -1.000142 -0.6044613 -0.41703582
000050 6c b3 69 3e b8 20 00 bd d8 97 27 3f d3 7d 54 3d
       0.2282235 -0.031281203 0.6546607 0.051877808
000060 d9 c0 15 3d ef 2e 9d bf 30 99 8a bd b2 44 99 be
       0.036560867 -1.2279948 -0.067674994 -0.29935223
000070 3e 73 95 be dc 9f 6d 3f 08 bb e5 3e 79 28 29 bd
       -0.29189485 0.9282205 0.44869256 -0.041298363
000080 56 20 0e bf 9e 65 0c c0 17 af a0 bf f5 cf 3b 3f
       -0.5551809 -2.1937022 -1.2553433 0.7336419
000090 8f 21 49 be 2d a6 bf be 99 25 ca 3e e1 88 3c 3e
       -0.19641708 -0.3743147 0.3948181 0.1841159
0000a0 d2 e1 1d be 71 ad 83 3d 3a 3c 64 3e f2 ae ae be
       -0.15418175 0.06429566 0.222886 -0.34117848
0000b0 6b 48 84 bf fc 6f 6f bf 0a e3 86 3f 8a bb 11 c0
       -1.03346 -0.9353025 1.0538037 -2.2770715
0000c0 61 c6 88 be fa 37 83 bf d7 bd 1e c0 82 c4 0d bf
       -0.2671385 -1.0251458 -2.480337 -0.5537797
0000d0 18 ff 41 bf ca 90 cf be 9b 9d d5 be b5 44 16 c0
       -0.7577987 -0.40540153 -0.41721806 -2.3479435

fc3.weight f4 [2, 56]
000000 e3 8a 9d be 67 7d 9f 3d 3b 6a ad bd e4 eb 4e 3d
       -0.30770025 0.077875905 -0.084675275 0.05051793
000010 e8 53 12 bf 97 5b c8 bb ec f6 94 3e c9 c2 43 3e
       -0.5715928 -0.006114434 0.29094636 0.19117273
000020 f7 43 62 40 ac 3a e6 ba 7a 9b ea bf d8 dd cf bd
       3.5353982 -0.0017565093 -1.8328698 -0.10149735
000030 0a 8d 55 c0 f4 ea 32 3f e4 1a 36 bf 33 75 a4 3b
       -3.3367333 0.6988976 -0.7113478 0.005018854
000040 75 cc 69 3d a4 1a 93 3d 39 d8 23 3d 63 26 de bc
       0.05707975 0.07182816 0.040001128 -0.027117914
000050 cb 93 14 3d 8d 95 8a be e6 a6 55 bf b3 4e aa bd
       0.03627376 -0.27067223 -0.8345779 -0.08315792
000060 5d 19 81 bc 71 d4 73 bd 50 d1 26 c0 a4 32 12 be
       -0.015759164 -0.05952877 -2.6065254 -0.1427713
000070 81 f7 14 c0 00 1a f2 be d7 cc 24 3f 38 1c 58 3d
       -2.3276064 -0.4728546 0.6437506 0.052761286
000080 77 95 15 bc ca 6f bb be 0e 73 8d 3e 64 b0 36 bd
       -0.0091298735 -0.36608726 0.27626842 -0.044601813
000090 88 59 b8 3c 9c 0d b2 3e bf 9e 18 3e 0b e3 34 be
       0.02250363 0.34776008 0.14904307 -0.17664735
0000a0 c3 cd 47 3f 04 1c cc bf fb 30 e5 bc 41 9b 02 3d
       0.7804834 -1.594605 -0.027977457 0.031886343
0000b0 8f de 09 3b 9e 73 f7 be 3c c4 b4 3b 3d 13 0d c0
       0.0021037196 -0.48330396 0.005516557 -2.2042992
0000c0 b9 c4 23 bf 3b 10 1d bd 22 48 db bb dc a9 2a 3d
       -0.6397205 -0.038345557 -0.0066919485 0.041665897
0000d0 7f 16 10 3f e5 39 03 be 56 f7 58 3d 50 6c 01 3e
       0.56284326 -0.12815054 0.052970253 0.12638974
0000e0 2c 64 90 3f ff 31 94 bc 3d c2 02 3d e4 8a 5b 3d
       1.128057 -0.018090246 0.03192352 0.053599253
0000f0 b7 c7 41 be 6d bc e4 bf 5d 20 94 be 80 66 2f 3d
       -0.18923841 -1.7870003 -0.2893094 0.04282236
000100 d6 98 6e 3f 6c 79 f1 bf f3 2d 20 40 8f 19 b3 bc
       0.9320196 -1.886518 2.5028045 -0.021862773
000110 61 2a 40 bf 69 d4 56 3d 56 73 bb bd 2e ad 76 3e
       -0.75064665 0.052448664 -0.09152858 0.240895
000120 93 65 74 bc 48 02 b2 bf d4 7e 9d bf c5 d3 8a 3f
       -0.014916795 -1.3906946 -1.230433 1.0845877
000130 a6 80 9c 3f cc 6a 57 3d 8a fb 43 3c 26 a9 b9 bd
       1.222676 0.052592084 0.011961827 -0.09065466
000140 4d a0 39 3d c3 8c 21 bd 7a 93 e2 3e 8d 3f ba 3f
       0.04531889 -0.03944088 0.4425314 1.4550644
000150 33 00 d7 3e cb 46 e6 bf 63 ed 72 3b 73 37 62 bd
       0.4199234 -1.7990354 0.0037067763 -0.05522866
000160 cb ab c8 3e 66 e0 7f c0 b6 55 3a c0 d1 2d 68 3d
       0.39193568 -3.9980712 -2.9114814 0.05668432
000170 1f 84 33 be 67 1c 42 c0 e0 ce 90 3f b7 63 87 3f
       -0.17530869 -3.0329835 1.1313133 1.0577306
000180 97 8a 03 bf 2b 08 e3 3d 2c f4 c6 3f 87 77 84 bd
       -0.51383346 0.11085542 1.5543265 -0.064681105
000190 d1 80 9b bf 2d 12 d5 bc d5 56 e4 3d 9d 4b 9c 3e
       -1.2148687 -0.026009643 0.111493744 0.30526438
0001a0 4e 91 d0 bf 6c 52 fa bc 19 02 3f bf c9 48 77 3f
       -1.6294343 -0.03055688 -0.74612576 0.96595436
0001b0 fd 50 0d be 12 9f a2 3d 43 03 25 bf 96 fb b3 bf
       -0.13800426 0.079404965 -0.644581 -1.4061153

fc3.bias f4 [2]
000000 2f 2b 13 3d 14 04 00 3f
       0.035929855 0.5000622
