D4PG/checkpoint_critic.pth (torch_old, 526023 bytes, 5 tensors)

first_net.0.weight f4 [400, 24]
0	0x3e4efe5c	0.20214218
1	0x3d919b8c	0.07109746
2	0xbe41ca0d	-0.18924733
3	0x3c3cbe0b	0.011519919
4	0xbe168ea7	-0.14702855
5	0xbe55b34e	-0.2086918
6	0xbdd8c212	-0.10583891
7	0xbd75691d	-0.059914697
8	0x3e823d32	0.25437313
9	0xbd27d778	-0.04097697
10	0x3dd2ac1e	0.10286735
11	0xbdaed4ad	-0.085366584
12	0x3deeb198	0.11654967
13	0xbd2e7d3d	-0.042599905
14	0x3db73478	0.089455545
15	0x3a7e4834	0.000970009
16	0x3dfddebb	0.12395998
17	0x3e3e3fda	0.18579045
18	0xbd370ebb	-0.044691782
19	0xbc05cfa1	-0.008167178
20	0x3da49238	0.080357015
21	0xbe764bfd	-0.24052425
22	0x3c0a5ce9	0.008445003
23	0x3de21c68	0.11040574
24	0x3d8c70e6	0.06857471
25	0xbe85fe10	-0.26170397
26	0x3d7c1af9	0.06154916
27	0xbe3a9f39	-0.18224801
28	0xbb0ea67d	-0.0021766715
29	0xbd364b1d	-0.044505227
30	0x3dd95733	0.10612335
31	0x3e2d1708	0.16903317
32	0xbd1f9b4d	-0.038966466
33	0x3d1c3c59	0.03814349
34	0xbe826305	-0.2546617
35	0xba911089	-0.001106755
36	0x3e389e9d	0.18029256
37	0xbd39c7b0	-0.045356452
38	0x3dc97724	0.098371774
39	0x3d17fef3	0.037108373
40	0x3e8cfe30	0.2753768
41	0xbe737ab4	-0.23777276
42	0xbe388de0	-0.18022871
43	0xbd6df408	-0.058094054
44	0xbc43dd6d	-0.0119546475
45	0xbcf8c5bd	-0.030367726
46	0xbdb2adfc	-0.08724591
47	0xbd1f14ec	-0.038838312
48	0x3d32d82d	0.043663193
49	0x3f178d4d	0.5919998
50	0xbcaef511	-0.021357091
51	0xbe083cc8	-0.13304436
52	0xbd06dd5b	-0.032925945
53	0xbe17b502	-0.14815143
54	0x3d87e67a	0.06635757
55	0x3e4ea11f	0.2017865
56	0xbddcbfd3	-0.10778775
57	0x3ebbf977	0.36713764
58	0xbd16a55c	-0.036778793
59	0x3e281f9e	0.16418311
60	0xbe1a4f77	-0.15069376
61	0x3dd4f05a	0.10397406
62	0x3d83c45c	0.06433937
63	0xbdd0e80c	-0.102005094
64	0x3e45f0f2	0.19330195
65	0x3d9670bf	0.07345723
66	0xb901467a	-0.00012328653
67	0x3de774c9	0.11301572
68	0x3db88b6b	0.09010967
69	0x3d9e09f5	0.07716743
70	0xbe798dcc	-0.24370497
71	0x3d181e9c	0.037138566
72	0xbd2d313c	-0.04228328
73	0xbe49c959	-0.19705714
74	0x3d9ae648	0.07563454
75	0xbcf28dbd	-0.029608602
76	0xbe19c3f5	-0.15016158
77	0xbe34885e	-0.17630145
78	0xbd7ffd6b	-0.062497538
79	0xbe4b3ae2	-0.19846681
80	0xbe1cf087	-0.15326129
81	0x3e1be354	0.15223438
82	0x3d66f2a9	0.056383763
83	0x3e20c37a	0.15699568
84	0xbd6e14b5	-0.058125217
85	0xbe1c7c3b	-0.15281765
86	0xbdf6d87c	-0.1205301
87	0x3ca99b13	0.020703828
88	0xbb8f29dd	-0.004369004
89	0xbceaf40a	-0.02868082
90	0xbe287061	-0.16449119
91	0xbdec2002	-0.115295425
92	0x3e0abe85	0.1354924
93	0xbe1f6c5c	-0.1556868
94	0x3e06a0f5	0.13147338
95	0x3d7277ec	0.059196398
96	0xbe58a203	-0.21155553
97	0xbe1d7427	-0.1537634
98	0xbd7f7971	-0.062371675
99	0xbe3516bc	-0.17684454
100	0x3c65ed34	0.014033604
101	0x3e501bff	0.2032318
102	0x3de8e0ad	0.113709785
103	0x3d7d2c3f	0.061809774
104	0x3e7fa366	0.24964675
105	0x3e3a9936	0.18222508
106	0xbd9ff3ae	-0.0781015
107	0x3dc06a9d	0.09395335
108	0x3de0de2d	0.10979877
109	0xbda5bca5	-0.08092622
110	0xbe0b2461	-0.13588096
111	0xbe4aaaba	-0.1979169
112	0x3e325c30	0.17417979
113	0xbbf6e0b4	-0.007534111
114	0x3e033908	0.12814724
115	0x3e349ae0	0.17637205
116	0x3bd5b117	0.006521355
117	0x3cd47f7a	0.025939692
118	0xbde653ba	-0.11246438
119	0xbe16c84c	-0.14724845
120	0xbe2ef6e2	-0.17086366
121	0xbd8713e4	-0.06595591
122	0xbe889aed	-0.266807
123	0xbe2105c4	-0.15724856
124	0xbe0f6acc	-0.14005584
125	0xbc806f10	-0.015677959
126	0xbe998632	-0.29985195
127	0x3d4ec713	0.05048282
128	0xbe184aa1	-0.14872219
129	0xbe1ed528	-0.15511
130	0x3de643b8	0.11243385
131	0xbcc52c34	-0.02406893
132	0xbd0f3690	-0.034964144
133	0xbc728201	-0.014801503
134	0xbd41c511	-0.047307078
135	0xbd446c43	-0.04795481
136	0x3e229381	0.15876581
137	0x3e4c60fe	0.19958875
138	0xbc1c708d	-0.009548319
139	0x3d971403	0.07376864
140	0xbd8e7bdf	-0.0695722
141	0xbd7b62a5	-0.06137337
142	0xbe3d3142	-0.18475822
143	0xbd3499ed	-0.044092108
144	0xbd30e5a7	-0.043187764
145	0xbea2c4df	-0.31790826
146	0x3e2bcfe4	0.16778523
147	0xbe6b2cd5	-0.22966321
148	0xbe25e575	-0.16200812
149	0xbe2c33ab	-0.16816585
150	0xbe2332a5	-0.15937288
151	0xbe28ae5c	-0.16472763
152	0x3e716a91	0.23575808
153	0xbe03391f	-0.12814759
154	0xbe1ac4ef	-0.15114187
155	0xbd9bc90b	-0.07606705
156	0x3d4206ab	0.04736964
157	0x3dcac493	0.09900775
158	0x3ccfaff0	0.025352448
159	0x3df80b2b	0.12111505
160	0x3cccd665	0.025004575
161	0xbdebf7c0	-0.11521864
162	0xbd91c9d2	-0.07118572
163	0x3e2b3ee8	0.16723216
164	0x3de74b92	0.11293711
165	0xbe274c49	-0.16337694
166	0x3d61583e	0.055015795
167	0xbde11c68	-0.10991746
168	0x3bbec8f0	0.0058222935
169	0x3da22be6	0.07918529
170	0x3e006561	0.12538673
171	0xbe1d6b7b	-0.15373032
172	0x3dbfda76	0.0936784
173	0xbf3eaff0	-0.7448721
174	0x3e10cb9d	0.14140172
175	0xbe3aa6b6	-0.18227658
176	0x3e3f0664	0.18654782
177	0xbe83953d	-0.25699797
178	0xbe5b7a5e	-0.21433398
179	0x3cbfc540	0.023409486
180	0xbd8e4484	-0.06946662
181	0xbedba369	-0.4289811
182	0x3e25932c	0.16169423
183	0x3c96324d	0.018334532
184	0x3d0dbee0	0.03460586
185	0xbe354356	-0.17701468
186	0xbe6605a2	-0.22463086
187	0x3d1496a2	0.036276467
188	0x3c0f1637	0.008733324
189	0xbe7ad3fe	-0.24494931
190	0xbe3e5c5a	-0.18589917
191	0x3a9efd19	0.0012129872
192	0x3e8d2ac3	0.27571687
193	0xbf36f4af	-0.7146711
194	0xbc01badd	-0.007918087
195	0x3e524466	0.20533904
196	0xbe1e8e12	-0.15483883
197	0x3e2ae6d8	0.16689622
198	0x3c9a7665	0.018855283
199	0x3ddfc71d	0.1092665
200	0x3ee4f28d	0.44716302
201	0xbef9404b	-0.48681864
202	0xbdbb6cca	-0.09151609
203	0x3dcb2fec	0.0992125
204	0xbe15b710	-0.14620614
205	0x3e8813bf	0.26577565
206	0xbd943379	-0.0723638
207	0xbc4ce2a5	-0.012505208
208	0x3eb1af94	0.34704268
209	0xbe26d94e	-0.16293833
210	0xbd9a91ac	-0.07547316
211	0x3e16ece8	0.1473881
212	0xbb16cd03	-0.002301038
213	0x3eadf72e	0.33977646
214	0xbe396eba	-0.18108645
215	0x3ea6f883	0.32611474
216	0x3e839c2b	0.25705084
217	0x3e0f6712	0.14004162
218	0xbdca7f8b	-0.09887608
219	0x3e1fea2c	0.15616673
220	0xbde5f04d	-0.11227474
221	0x3cc591bf	0.024117349
222	0x3cc2688c	0.023731492
223	0x3e4b40e5	0.19848974
224	0x3dacf184	0.08444503
225	0x3e3b7a6f	0.18308423
226	0x3da48f4b	0.080351435
227	0xbe2ee3ff	-0.17079161
228	0x3c45caa7	0.012072242
229	0xbe23609d	-0.15954824
230	0xbce89443	-0.02839101
231	0x3dafd35e	0.08585237
232	0x3e91383c	0.28363216
233	0x3e7eabf8	0.24870288
234	0x3dc8731a	0.09787579
235	0x3e4230fc	0.18963999
236	0xbdaf8597	-0.08570402
237	0xbe306cbd	-0.1722898
238	0xbe06e16d	-0.1317193
239	0xbded4507	-0.115854315
240	0x3d8feb28	0.07027274
241	0xba21f600	-0.00061783195
242	0xbd3dae94	-0.04630907
243	0x3e423e06	0.18968973
244	0xbd00aae8	-0.03141299
245	0xbd8ff1a4	-0.07028511
246	0xbe05ca9a	-0.13065568
247	0xbd2e4460	-0.042545676
248	0x3e1753a6	0.14778003
249	0x3d8fc108	0.0701924
250	0xbe472961	-0.19449379
251	0xbe1a523d	-0.15070434
252	0xbe1a879e	-0.15090796
253	0xbe17001f	-0.1474614
254	0x3e3ff29a	0.18744889
255	0x3d512058	0.051056236

first_net.0.bias f4 [400]
0	0xbdcc4b48	-0.09975296
1	0xbe935a35	-0.2877976
2	0x3d789343	0.060687315
3	0xbe71d84a	-0.23617664
4	0x3df3e5dc	0.119090766
5	0x3ccd7237	0.025078876
6	0x3d7acdbb	0.061231356
7	0x3e1b159c	0.15144962
8	0xbe90edf3	-0.2830654
9	0xbe675c6b	-0.22593848
10	0x3c5f96eb	0.0136468215
11	0x3d227809	0.039665256
12	0xbdacc24c	-0.08435497
13	0xbe811915	-0.2521445
14	0xbe9b62ce	-0.3034882
15	0x3de8bfb3	0.11364689
16	0xb88a9f2d	-6.6100016e-05
17	0x3b992b7d	0.0046743737
18	0x3c0efe28	0.008727588
19	0xbd000be9	-0.03126136
20	0x3e077ef1	0.13232018
21	0xbe5ade51	-0.2137387
22	0xbe824037	-0.25439617
23	0x3dc6ac40	0.09700823
24	0xbe8758c7	-0.2643492
25	0xbd808c8e	-0.06276809
26	0x3dd441ab	0.10364088
27	0x3c9c7491	0.019098552
28	0x3d4b1e5e	0.049589507
29	0xbe7b6239	-0.24549188
30	0x3dceaa48	0.10091072
31	0xbe1b47b4	-0.15164071
32	0xbe1224a4	-0.1427179
33	0xbe1f3c75	-0.15550406
34	0xbd07a74e	-0.03311854
35	0xbe497bae	-0.19676086
36	0xbe78bf88	-0.24291813
37	0xbd91c5c6	-0.071178004
38	0x3e1bc1d0	0.15210652
39	0xbe7d000b	-0.24707048
40	0xbd921577	-0.07133
41	0xbe454527	-0.19264661
42	0xbe28d343	-0.1648684
43	0x3da19d8b	0.07891377
44	0x3dabc65f	0.08387446
45	0xbbc26820	-0.005932823
46	0xbe8d8dbf	-0.27647206
47	0xbd9600e1	-0.073243864
48	0xbe1bc20d	-0.15210743
49	0xbe8307ec	-0.2559198
50	0x3cf66e70	0.030081958
51	0xbe67d5f4	-0.2264021
52	0xbd22b5d6	-0.039724194
53	0xbd826e04	-0.0636864
54	0xbdeed4d6	-0.11661689
55	0xbe279e59	-0.16368999
56	0xbc6c62ee	-0.014427884
57	0x3de13cad	0.10997901
58	0xbe6f5b31	-0.2337463
59	0xbe1ba64b	-0.15200154
60	0x3d5d1ea3	0.053984296
61	0xbe1d3fad	-0.15356322
62	0xbe52f774	-0.20602208
63	0xbe0e697c	-0.13907427
64	0xbe41ae84	-0.18914229
65	0x3cfe81af	0.031067697
66	0xbe93b77b	-0.28850922
67	0xbe391244	-0.18073374
68	0x3e099f9c	0.13439792
69	0xbe4390ab	-0.19098155
70	0xbe046a56	-0.12931189
71	0xbc9cfd62	-0.019163791
72	0x3caf92da	0.021432329
73	0x3e013190	0.12616563
74	0xbb8a4789	-0.0042199534
75	0xbc4b747e	-0.012417911
76	0x3ccf12b6	0.025277477
77	0xbd8e98b8	-0.069627225
78	0xbe00e0a8	-0.125857
79	0xbe5ea228	-0.21741545
80	0xbd8b03b9	-0.067878194
81	0xbea8afce	-0.32946628
82	0x3dcd90ff	0.100374214
83	0xbcd2c2c4	-0.025727637
84	0xbd7c7eb2	-0.061644264
85	0xbda140c6	-0.07873683
86	0xbdfb9485	-0.12284187
87	0x3dc12547	0.09430938
88	0xbdc126fc	-0.09431264
89	0x3df36818	0.11885089
90	0xbe20457f	-0.1565151
91	0xbe5029b5	-0.2032841
92	0xbe7ace73	-0.24492817
93	0xbdd8182e	-0.10551487
94	0xbe0794ac	-0.13240308
95	0xbe9a60e6	-0.30152053
96	0xbe9007af	-0.28130862
97	0xbe86901b	-0.2628182
98	0x3dff331a	0.12460919
99	0x3dc0bfe9	0.09411604
100	0xbe9a60c8	-0.30151963
101	0xbd51a0ff	-0.05117893
102	0xbddfc898	-0.10926932
103	0x3d3920c9	0.045197282
104	0xbc863a8d	-0.016385341
105	0xbdf98823	-0.12184169
106	0xbc892fd4	-0.016746439
107	0xbe1d256d	-0.15346308
108	0xbd6457a7	-0.055747654
109	0x3d411402	0.04713822
110	0xbe0edb86	-0.13950929
111	0x3c03f512	0.008054035
112	0xbe838225	-0.2568523
113	0xbd43e919	-0.04782972
114	0xbd937e40	-0.07201815
115	0xbe3ca148	-0.18420899
116	0x3dff7032	0.124725714
117	0xbd3846b2	-0.044989295
118	0xbe560968	-0.20902026
119	0xbd98f879	-0.074692674
120	0x3ddf8c6c	0.10915455
121	0x3e2dad9e	0.16960761
122	0xbe1c9025	-0.15289362
123	0xbe0f9201	-0.1402054
124	0xbe239631	-0.15975262
125	0x3e28a5d9	0.16469516
126	0xbe0487b5	-0.12942393
127	0xbe5a538d	-0.21320935
128	0x3e0d2bdc	0.13786262
129	0xbe239b01	-0.15977098
130	0x3dcc2020	0.09967065
131	0x3e1668ba	0.14688388
132	0x3caee5a1	0.02134973
133	0x3db7556e	0.08951841
134	0xbe131029	-0.14361633
135	0xbcd9196c	-0.02650138
136	0xbe32d9a4	-0.17465836
137	0xbd8c8c92	-0.06862749
138	0xbdefcd15	-0.11709038
139	0xbda3e79b	-0.080031596
140	0x3b3f3078	0.0029173177
141	0xbe812c88	-0.25229287
142	0xbe03407e	-0.1281757
143	0xbe8c5fa3	-0.27416715
144	0x3dcc6734	0.09980622
145	0xbe44b5ba	-0.19209948
146	0x3e1b7ab8	0.15183532
147	0xbe8b5bad	-0.2721838
148	0xbe3348bb	-0.17508213
149	0xbd4c52b2	-0.049883552
150	0xbc7d0a27	-0.015444315
151	0x3cdead54	0.027182259
152	0xbe36be88	-0.1784612
153	0xbd88a87a	-0.06672759
154	0xbd984f26	-0.07436971
155	0xbe894c3d	-0.26815978
156	0xbdcccb33	-0.09999695
157	0x3dca7310	0.09885228
158	0xbe8001a3	-0.2500125
159	0xbdd3bcf6	-0.10338776
160	0xbe1bfc80	-0.1523304
161	0xbb811426	-0.0039391695
162	0xbd801d43	-0.06255581
163	0xbb7cf2f4	-0.003859696
164	0x3dc7b3a7	0.09751063
165	0xbdae0b79	-0.08498282
166	0xbdbfc97f	-0.09364604
167	0x3e028683	0.12746625
168	0xbe597e07	-0.21239482
169	0x3ce00eb2	0.027350757
170	0xbe0bc085	-0.13647659
171	0xbe345f8c	-0.17614573
172	0xbdab926d	-0.08377538
173	0x3d8c1974	0.06840792
174	0x3d7cfec3	0.061766397
175	0xbe42e60c	-0.19033068
176	0xbe546169	-0.20740284
177	0xbd4ae301	-0.049532894
178	0xbcfbee10	-0.030753165
179	0xbdf6067c	-0.120129555
180	0x3d57d264	0.05269088
181	0xbe1d6e6a	-0.15374151
182	0x3d673ed1	0.05645639
183	0xbc3e5115	-0.011616011
184	0x3d1f248f	0.038853224
185	0xbdf155b0	-0.11783922
186	0x3d123064	0.03569068
187	0xbe05b88a	-0.13058677
188	0xbb08a307	-0.0020849125
189	0xbb9efecb	-0.004852151
190	0xbd97ea04	-0.07417682
191	0x3d85c398	0.06531447
192	0xbe0cf199	-0.13764037
193	0xbe8fbc0e	-0.28073162
194	0x3d286608	0.04111293
195	0xbd17b186	-0.037034534
196	0xbe007761	-0.1254554
197	0xbe4cfa15	-0.20017274
198	0x3c1f7dc4	0.009734575
199	0xbe4ce339	-0.20008554
200	0x3ce8a1e0	0.0283975
201	0xbe2863af	-0.16444276
202	0xbc85a222	-0.016312663
203	0x3d44ac3b	0.048015814
204	0xbe3415ec	-0.17586488
205	0x3d5ee3f7	0.054416623
206	0xbe33be4f	-0.17553066
207	0x3de005f5	0.10938636
208	0x3c80b361	0.015710535
209	0xbe90e85a	-0.2830227
210	0x3df11b80	0.11772823
211	0xbd06e99b	-0.032937627
212	0x3dc07610	0.09397519
213	0x3df02689	0.117261
214	0xbe030cae	-0.12797806
215	0xbe2d2168	-0.16907275
216	0x3d999a50	0.07500136
217	0x3dfbd966	0.12297325
218	0xbe87cb87	-0.26522467
219	0xbd03b937	-0.032159057
220	0x3d978ff8	0.07400507
221	0x3c004aa6	0.007830298
222	0x3bbd831c	0.0057834517
223	0xbd5c2499	-0.05374584
224	0xbdf998c0	-0.12187338
225	0x3e0f3381	0.13984491
226	0xbe471816	-0.19442782
227	0xbe7a283a	-0.24429408
228	0x3cd647d2	0.026157293
229	0xbe31010c	-0.17285556
230	0xbdc5d1b0	-0.09659135
231	0xbd832449	-0.06403405
232	0xbe0c6c48	-0.13713181
233	0x3db8e0c6	0.09027247
234	0xbd2e1bcd	-0.04250698
235	0x3e02bd50	0.1276753
236	0xbe191f8b	-0.14953439
237	0xbe5d5a87	-0.21616565
238	0xbd8267d2	-0.063674584
239	0xbdac9fff	-0.08428954
240	0xbe60cb0c	-0.21952456
241	0xbe505650	-0.20345426
242	0x3ddcc501	0.10779763
243	0xbcbd8066	-0.023132514
244	0xbd6d43f6	-0.05792614
245	0x3da3fd13	0.080072545
246	0x3dd9d326	0.106359765
247	0x3d7fe205	0.06247141
248	0x3e230990	0.15921617
249	0xbe0883e1	-0.13331558
250	0xbe1579f0	-0.14597297
251	0xbcf5fc9a	-0.030027676
252	0xbe0a0055	-0.13476689
253	0x3e0fbd68	0.14037097
254	0xbd19e851	-0.03757507
255	0x3c95622f	0.018235294

last_net.0.weight f4 [300, 402]
0	0x3d226749	0.03964928
1	0x3bb011be	0.005373209
2	0xbd7cfd11	-0.06176478
3	0x3ca9de66	0.02073593
4	0x3d31ae5d	0.043379176
5	0xba9634ac	-0.0011459789
6	0xbc87dab4	-0.016583778
7	0x3cc34d40	0.023840547
8	0xbd3b1084	-0.045670047
9	0x3c9cda40	0.019147038
10	0x3cbee3aa	0.023301918
11	0xbd2fe56f	-0.042943414
12	0xbca5f9e0	-0.020260751
13	0x3c791c8e	0.015204562
14	0x3c711aea	0.0147158895
15	0xbceaa15f	-0.0286414
16	0xbb96af16	-0.0045985086
17	0xbd14f857	-0.036369648
18	0xbc685bdc	-0.014182057
19	0xba8106ba	-0.0009843924
20	0xbc062e98	-0.00818982
21	0xbd205ee7	-0.039153006
22	0xbb8d922f	-0.004320405
23	0x3cbb0f0b	0.022834321
24	0xbd2e6838	-0.04257986
25	0xbc7a3ff5	-0.015274038
26	0xbd59accc	-0.053143308
27	0x3bbfcf7c	0.0058535915
28	0xbcf3de57	-0.029769106
29	0x3c1fc036	0.0097504165
30	0xbd1d7ff3	-0.0384521
31	0x3b15231d	0.0022756525
32	0xbd1b80de	-0.037964694
33	0x3cae1485	0.021250019
34	0x3c8dd4d3	0.017313397
35	0xbd87306e	-0.06601034
36	0xbd234f1b	-0.039870363
37	0xbc9fd706	-0.01951171
38	0xbcde7ce3	-0.02715916
39	0xbc2777b3	-0.01022141
40	0x3bd8b32e	0.0066131568
41	0x3c9724eb	0.018450221
42	0xbdba20d8	-0.09088296
43	0x3bd85b36	0.00660267
44	0x3cc9aef8	0.024619564
45	0x3cf3bc48	0.029752865
46	0x3aa7402e	0.0012760216
47	0xbd2e3ed0	-0.04254037
48	0xbd2347ce	-0.0398634
49	0xbb63e3d0	-0.0034773238
50	0xbc8b1cf2	-0.016981576
51	0x3cbdfd92	0.0231922
52	0xbd1b8ded	-0.037977148
53	0xbd3e40a2	-0.046448357
54	0x3a53cabe	0.0008079222
55	0x3c368c17	0.011141798
56	0xbd0e9bfb	-0.034816723
57	0xbd33cc8a	-0.043896236
58	0x3b52e89c	0.0032182103
59	0x3ce2457d	0.027621025
60	0xbc72981b	-0.014806773
61	0x3c2f1f90	0.010688677
62	0xbd238569	-0.03992215
63	0x3cff1004	0.031135567
64	0x3d4dbf9c	0.05023156
65	0x3d287220	0.041124463
66	0xbd2ac492	-0.04169137
67	0xbd333071	-0.04374737
68	0x3b7f0566	0.003891313
69	0xbbf66331	-0.0075191488
70	0xbcca2a51	-0.024678381
71	0xbba1ab54	-0.004933754
72	0x3d02beff	0.03192043
73	0x3c116385	0.008873825
74	0xbc45801e	-0.012054471
75	0xb9ca1919	-0.00038547142
76	0xbb596dfc	-0.0033177128
77	0xbd05e551	-0.032689396
78	0xbbba4d4d	-0.0056854845
79	0x3d39742a	0.0452768
80	0xbc78ad22	-0.015177997
81	0xbce69d9b	-0.028151324
82	0x3c0df49d	0.008664277
83	0xbda6f66d	-0.08152471
84	0xbcc2aac4	-0.023763068
85	0xbc36c876	-0.011156192
86	0xbc4189e5	-0.011812662
87	0xbc38312d	-0.011242193
88	0xbc69789c	-0.014249947
89	0xbcee0955	-0.029057184
90	0xbd1e6eb6	-0.0386798
91	0xbce6468f	-0.028109817
92	0xbc531826	-0.012884175
93	0xbcc3e340	-0.023912072
94	0x3d1e09b8	0.038583487
95	0xbcf9eb36	-0.030507665
96	0xbc8db858	-0.017299816
97	0xbd0c4c86	-0.034252666
98	0x3cc80702	0.024417404
99	0xbd32fb8c	-0.043696925
100	0xbac60bf0	-0.0015109759
101	0xbd05cc5b	-0.03266559
102	0xbd3b6d10	-0.045758307
103	0x3d14a564	0.03629054
104	0xbb16b68c	-0.002299699
105	0x3d15cb78	0.036570996
106	0xbc264cf8	-0.010150187
107	0x3cc63b64	0.024198242
108	0xbd2d7294	-0.0423456
109	0xbc94d616	-0.01816849
110	0xbcbd9242	-0.02314103
111	0x3c3b4a98	0.011431359
112	0xbcdf7cbf	-0.027281163
113	0xbd62674e	-0.0552743
114	0x3c386d27	0.011256493
115	0x3c7ca2c8	0.015419669
116	0xbc40900a	-0.011753092
117	0x3c69f5a3	0.014279756
118	0xbd4e9510	-0.050435126
119	0x3c801610	0.01563552
120	0xbc87407c	-0.01651024
121	0xbd370889	-0.044685874
122	0xbcbe1bf7	-0.023206694
123	0x3cd59c8f	0.02607563
124	0xbd1a0a1a	-0.03760729
125	0xbdfa01d4	-0.1220738
126	0x3b98f9a9	0.0046684337
127	0xbd36011e	-0.04443466
128	0x3cece6fa	0.028918732
129	0x3cdfdf3c	0.027328126
130	0xbc974709	-0.01846649
131	0xbd23befe	-0.039977066
132	0xbc3207c5	-0.01086611
133	0xbd0df1dd	-0.034654487
134	0x3c865d42	0.01640189
135	0x3cbfd58c	0.023417257
136	0xbcbdff89	-0.023193138
137	0xbcd5080d	-0.026004815
138	0xbcac5509	-0.021036642
139	0xbb7a4598	-0.0038188454
140	0x3c0225cf	0.007943585
141	0x3d02318e	0.03178554
142	0xbbce343b	-0.0062928475
143	0xbce7b886	-0.02828623
144	0x3d201c6b	0.0390896
145	0xbd000bd3	-0.031261276
146	0x3b952278	0.004551228
147	0x3d171d9f	0.036893483
148	0x3d3fa5a9	0.046788845
149	0xbbbd4304	-0.005775811
150	0x3cb64917	0.022251649
151	0xbbed48d9	-0.00724135
152	0x3cdef381	0.027215721
153	0x3cd297f4	0.025707223
154	0x3c4342ad	0.011917752
155	0xbcd8ee8c	-0.026480936
156	0x3cdd684e	0.027027275
157	0xbc5fbfb4	-0.013656545
158	0x3a81d9a3	0.000990678
159	0x3cd34019	0.0257874
160	0xbd257a95	-0.040400106
161	0x3ce92b9f	0.028463183
162	0x3b5a4084	0.0033302614
163	0xbce8bed8	-0.028411314
164	0xbcfd2075	-0.030899266
165	0x3d35e56f	0.044408258
166	0xbd3c9365	-0.046039004
167	0xbd1ca570	-0.03824371
168	0xbaa630ee	-0.0012679377
169	0x3a370b9f	0.00069826277
170	0x3d1ae8f2	0.03781981
171	0x3d459554	0.048238114
172	0xbd2b1334	-0.04176636
173	0x3b8d85a8	0.0043189116
174	0xbcefbd00	-0.029264927
175	0x3c65c2dc	0.014023509
176	0xbd19c626	-0.037542485
177	0x3c241310	0.0100143105
178	0xbc8bbeb8	-0.017058715
179	0xbcf18710	-0.029483348
180	0x3d0b88b5	0.03406592
181	0x3cfe8490	0.03106907
182	0xbb292f72	-0.0025815633
183	0x3b9c3cc6	0.004767987
184	0xbcc85801	-0.024456026
185	0x3cc43219	0.02394967
186	0xbd034a1e	-0.032053106
187	0x3ca4b8ec	0.020107709
188	0xbc3d2964	-0.011545513
189	0x3cbe811a	0.02325492
190	0x3beb1cd3	0.007175067
191	0x3d10fb40	0.03539586
192	0x3d350add	0.044199813
193	0xbcaa13b3	-0.020761346
194	0x3d29c1cd	0.04144459
195	0x3bcae197	0.006191443
196	0x3d0209e4	0.031747714
197	0x3d59a75d	0.053138126
198	0xbd07a7a1	-0.033118848
199	0xbccf6f0b	-0.025321504
200	0x3bf604d3	0.0075078993
201	0xbd358ef6	-0.04432579
202	0x3bae7662	0.005324171
203	0x3cf28bfc	0.029607765
204	0xbd247320	-0.040148854
205	0xbd15f3b0	-0.03660935
206	0xbd2ca795	-0.042152006
207	0xbd5169c8	-0.05112627
208	0xbd8d0e59	-0.06887502
209	0x3aeeeb19	0.0018228024
210	0x3b2c0f20	0.0026254132
211	0x3ce8dd32	0.028425787
212	0x3cd01d30	0.025404543
213	0xbb56925d	-0.0032741048
214	0xbd19302d	-0.03739946
215	0xbc88dae9	-0.016705947
216	0xbd7ba2bd	-0.061434496
217	0x3c6658f9	0.014059299
218	0xbd3a3d04	-0.045468345
219	0x3ba199de	0.0049316725
220	0xbd0dd3eb	-0.03462593
221	0x3d0095a9	0.031392727
222	0x3cd65119	0.026161717
223	0xbd814f0e	-0.063139066
224	0xbc9e98ab	-0.019359907
225	0x3a9aae8d	0.0011801288
226	0xbca689c5	-0.020329366
227	0x3c34f7bc	0.011045393
228	0xbc80dfcb	-0.015731713
229	0xbca697b3	-0.020336008
230	0x3ab39e07	0.0013703712
231	0x3b3d1bb5	0.0028855626
232	0xbccd585f	-0.025066553
233	0x3988ac9e	0.0002606855
234	0x3cfc9d54	0.030836739
235	0xbc57a9b1	-0.013163016
236	0xbcd9b865	-0.026577184
237	0xbd7e61b7	-0.062104907
238	0x3c1e6fb3	0.009670186
239	0x3d483b8f	0.048884925
240	0xbc47ac2d	-0.012187046
241	0x3d275001	0.040847782
242	0x3c8fbbde	0.017545637
243	0xbc5b8356	-0.013398012
244	0xbcd1fa02	-0.025631908
245	0x3d35c253	0.044374775
246	0xbcc07bb5	-0.023496488
247	0x3d080fc6	0.033218168
248	0xbc84dc74	-0.016218401
249	0x3ccc6e25	0.024954865
250	0xbcb2576e	-0.021770205
251	0xbbe2a224	-0.0069163013
252	0xbd161dfd	-0.036649693
253	0xbd1069a9	-0.035257015
254	0x3c3b8b61	0.011446805
255	0x3b909f0a	0.00441349

last_net.0.bias f4 [300]
0	0xbd6b3ac2	-0.057429083
1	0xbdfcb6e3	-0.123395704
2	0xbc9a2d86	-0.018820535
3	0xbdd03d81	-0.10167981
4	0xbd1149ae	-0.035470657
5	0xbdd4c141	-0.10388423
6	0xbd96d2c1	-0.07364417
7	0xbd556cc6	-0.052105688
8	0xbc019155	-0.007908185
9	0xbd98e45d	-0.07465432
10	0xbca184d0	-0.01971665
11	0xbcb24268	-0.02176018
12	0xbe80c59e	-0.2515077
13	0xbd92a4d1	-0.071603425
14	0xbdf07e92	-0.11742891
15	0xbdc6be3a	-0.097042516
16	0xbd56eac2	-0.052469976
17	0xbe3088d1	-0.17239691
18	0xbd4f74e0	-0.05064857
19	0xbd2e0f3f	-0.04249501
20	0xbd6ffdb8	-0.058591574
21	0xbde2c625	-0.11072949
22	0xbde43890	-0.11143601
23	0xbd8a78f3	-0.067613505
24	0xbe34cbff	-0.17655943
25	0xbd89b424	-0.06723812
26	0xbdd03d71	-0.10167969
27	0xbc817d3f	-0.015806792
28	0xbd4dc17f	-0.05023336
29	0xbd73d63d	-0.059530485
30	0xbd641b4a	-0.055690087
31	0xbda35f8e	-0.0797721
32	0xbcd51539	-0.026011096
33	0xbd27c721	-0.04096139
34	0xbc90f076	-0.017692786
35	0xbda60a10	-0.08107388
36	0xbda8c96c	-0.08241543
37	0xbd8585c1	-0.06519652
38	0xbd9c473a	-0.07630773
39	0xbd078729	-0.033087883
40	0xbd9d62f3	-0.07684889
41	0xbe185031	-0.1487434
42	0xbd4feef3	-0.05076499
43	0xbdebeab5	-0.11519376
44	0xbe22831b	-0.15870325
45	0xbd044c81	-0.032299522
46	0xbcf6b2a0	-0.030114472
47	0xbd9cb962	-0.076525465
48	0xbd3c1080	-0.045914173
49	0xbdb1eb17	-0.08687418
50	0xbd540749	-0.05176476
51	0xbd914f78	-0.070952356
52	0xbd8e1812	-0.06938185
53	0xbda41be7	-0.080131344
54	0xbdadcc02	-0.08486177
55	0xbd895970	-0.06706512
56	0xbd97b0fd	-0.07406805
57	0xbdb6524f	-0.08902418
58	0xbe1a0b63	-0.15043406
59	0xbd31844c	-0.04333906
60	0xbdd0439e	-0.10169147
61	0xbd7370d6	-0.05943378
62	0xbcb4da52	-0.02207676
63	0xbdc4bcc9	-0.096063204
64	0xbd5bd9ea	-0.053674616
65	0xbd982b78	-0.07430166
66	0xbdd91446	-0.1059957
67	0xbd5d5611	-0.054037157
68	0xbd9bea3a	-0.076130345
69	0xbd969aa3	-0.07353713
70	0xbcf57594	-0.029963292
71	0xbdc05de9	-0.09392912
72	0x3bec2fd5	0.0072078505
73	0xbdaeb873	-0.08531275
74	0xbda0e42f	-0.078560226
75	0xbccaf3b4	-0.02477441
76	0xbdad0704	-0.08448604
77	0xbd895177	-0.06704991
78	0xbd4fbc58	-0.050716728
79	0xbd957a51	-0.07298721
80	0xbd3ad5ef	-0.04561418
81	0xbd27c334	-0.040957645
82	0xbd4dc222	-0.050233968
83	0xbd6acab5	-0.057322223
84	0xbdce0d4e	-0.100611314
85	0xbd15170e	-0.03639894
86	0xbd2c1847	-0.04201534
87	0xbdb2285a	-0.08699103
88	0xbd0cda9b	-0.034388166
89	0xbd06e360	-0.032931685
90	0xbcb7c0a0	-0.022430718
91	0xbdeae5ac	-0.11469588
92	0xbd531321	-0.051531915
93	0xbd0be26d	-0.034151483
94	0xbdb6f497	-0.089333706
95	0xbd403419	-0.046924684
96	0xbd388334	-0.045047
97	0xbbe83dc6	-0.007087442
98	0xbdc1dc1e	-0.09465812
99	0xbd74d78e	-0.05977588
100	0xbd96e32d	-0.07367549
101	0xbd7feb15	-0.06248005
102	0xbd38e0ba	-0.04513619
103	0xbe050b8d	-0.12992688
104	0xbe20ac85	-0.15690811
105	0xbda9d068	-0.082917035
106	0xbd92d8dc	-0.07170269
107	0xbd438707	-0.047736194
108	0xbd88c65c	-0.06678459
109	0xbdaec92e	-0.08534466
110	0xbc73b35a	-0.014874304
111	0xbd074bf5	-0.033031423
112	0xbe0099d6	-0.12558684
113	0xbd1acf31	-0.03779525
114	0xbdc9b085	-0.098481216
115	0xbdf3a6ee	-0.11897074
116	0xbb933828	-0.0044927783
117	0xbd6edc4f	-0.05831557
118	0xbd85330d	-0.06503878
119	0xbd1604c1	-0.036625627
120	0xbdaad3e6	-0.08341198
121	0xbd6434d0	-0.05571443
122	0xbd9b29a2	-0.075763
123	0xbd1d5a74	-0.03841634
124	0xbdbe8d79	-0.093043275
125	0xbcdc2386	-0.026872408
126	0xbd65ff9e	-0.05615198
127	0xbcb39052	-0.021919403
128	0xbd9aa6bb	-0.075513326
129	0xbde6057f	-0.11231517
130	0xbd84bc7e	-0.064812645
131	0x39c04ca9	0.0003667821
132	0xbd804407	-0.06262975
133	0xbd6d0c96	-0.05787333
134	0xbe0bc785	-0.1365033
135	0xbda0b02e	-0.078461036
136	0xbc87e929	-0.016590672
137	0xbdb9a6a1	-0.09064985
138	0xbb4012f3	-0.002930817
139	0xbd00d027	-0.03144851
140	0xbd5267fb	-0.051368695
141	0xbcd8f8ab	-0.026485762
142	0xbd3f784b	-0.04674558
143	0xbcab6cee	-0.020925965
144	0xbd274e8f	-0.040846404
145	0xbcf481a0	-0.029846966
146	0xbdb30713	-0.08741584
147	0xbdbdc432	-0.09265937
148	0xbd9ca590	-0.07648766
149	0xbcd1d89b	-0.02561598
150	0xbd9432e9	-0.07236273
151	0xbd2be5d4	-0.041967228
152	0xbd07cf22	-0.03315652
153	0xbde03d5a	-0.10949202
154	0xbd01b157	-0.031663265
155	0xbe0db138	-0.13837135
156	0xbccefc4e	-0.025266793
157	0xbd26c977	-0.040719476
158	0xbd00e65c	-0.031469688
159	0xbe4ac9fb	-0.19803612
160	0xbd89c599	-0.06727142
161	0xbd8531bf	-0.06503629
162	0xbccd59bc	-0.025067203
163	0xbd25077b	-0.040290337
164	0xbc1478a0	-0.009061962
165	0xbd2ba359	-0.041903827
166	0xbe139db4	-0.14415628
167	0xbd9c6929	-0.07637245
168	0xbcfca262	-0.030839149
169	0xbc1a924b	-0.009434293
170	0xbd3a94d0	-0.045552075
171	0xbcc93412	-0.024560962
172	0xbbe1e525	-0.0068937712
173	0xbd267f12	-0.040648527
174	0xbd174992	-0.036935396
175	0xbd00898e	-0.031381182
176	0xbd8fac0f	-0.070152394
177	0xbe181de3	-0.14855151
178	0xbd78e324	-0.060763493
179	0xbc54c2e5	-0.01298592
180	0xbd698726	-0.057013653
181	0xbd0ca27a	-0.034334637
182	0xbd9300a6	-0.07177858
183	0xbde8bb2b	-0.113638245
184	0xbdace77f	-0.08442592
185	0xbd2ccb0d	-0.04218583
186	0xbd8850b4	-0.06656018
187	0xbcedf184	-0.029045828
188	0xbdaa57c5	-0.08317522
189	0xbd81491b	-0.06312772
190	0xbdd74e9c	-0.105130404
191	0xbe330602	-0.1748276
192	0x3b637569	0.0034707433
193	0xbd4d4225	-0.05011191
194	0xbc00ac7c	-0.0078536235
195	0xbc1a04b8	-0.009400539
196	0xbdb408a7	-0.08790713
197	0xbd826cb9	-0.063683935
198	0xbd62d713	-0.055380892
199	0xbd78fd4b	-0.060788434
200	0xbc887900	-0.01665926
201	0xbdf4351d	-0.11924193
202	0xbdc4a224	-0.09601238
203	0xbcc33c56	-0.023832481
204	0xbd8ca008	-0.06866461
205	0xbd3c86ca	-0.046026982
206	0xbd5c2d36	-0.053754054
207	0xbd0f5b54	-0.034999207
208	0xbd7759e0	-0.060388446
209	0xbd2667f1	-0.04062647
210	0xbd4af45d	-0.04954945
211	0xbdb8341e	-0.089943156
212	0xbb93b153	-0.0045072227
213	0xbd90f567	-0.07078057
214	0xbdd7ad53	-0.10531106
215	0xbd0adf5a	-0.03390441
216	0xbccba0f1	-0.024857016
217	0xbd2c4db6	-0.0420663
218	0xbc07d695	-0.008290906
219	0xbddadd1d	-0.10686705
220	0xbd985e31	-0.074398406
221	0xbdcacd64	-0.099024564
222	0xbdb601c9	-0.08887059
223	0xbda20c2e	-0.07912479
224	0xbc98d09a	-0.018654156
225	0xbd41cd67	-0.047315028
226	0xbb86a3b3	-0.00410887
227	0xbdff0939	-0.12452931
228	0xbe00a5bd	-0.12563224
229	0xbc166567	-0.00917945
230	0xbe360cda	-0.1777834
231	0xbdeef309	-0.11667449
232	0xbd16becd	-0.036803056
233	0xbd95dc6f	-0.07317435
234	0xbd2ef322	-0.04271234
235	0xbe00c2d7	-0.12574326
236	0xbd832b5f	-0.06404757
237	0xbbfe4c1f	-0.007760539
238	0xbdf6d119	-0.12051601
239	0xbd7b38b6	-0.06133338
240	0xbd603186	-0.05473473
241	0xbdaa6a06	-0.083210036
242	0xbd623867	-0.05522957
243	0xbdafb158	-0.085787475
244	0xbd756f7f	-0.059920784
245	0xbde8e44b	-0.113716684
246	0xbd8baca9	-0.06820042
247	0xbd8a40d4	-0.06750646
248	0xbde77b31	-0.11302794
249	0xbd0a972b	-0.03383557
250	0xbd0ec684	-0.034857288
251	0xbd25618f	-0.040376242
252	0xbd96a8d0	-0.07356417
253	0xbda6bc10	-0.08141339
254	0xbd170e18	-0.036878675
255	0xbdbbb5dd	-0.09165547

last_net.2.weight f4 [1, 300]
0	0xbb1207a6	-0.002228239
1	0x3b26632d	0.0025388703
2	0x3b09b71d	0.0021013685
3	0xbc31b8b1	-0.0108472565
4	0xbd0d62e1	-0.034518126
5	0xbc4b5935	-0.012411405
6	0xbd0d9f8f	-0.034575995
7	0xbca40a8b	-0.020024559
8	0x3bbbd807	0.0057325396
9	0xbc2d2d16	-0.010569831
10	0x3ca6c3d2	0.020357046
11	0x3bd97ff0	0.006637566
12	0xbcbb0af6	-0.022832375
13	0xbb2cc970	-0.0026365183
14	0x3a14123e	0.000564847
15	0xbcde9860	-0.027172267
16	0x3bf36206	0.007427457
17	0xbd075867	-0.03304329
18	0x3b96fed1	0.004608013
19	0x3bc2a62d	0.00594022
20	0xbcc114ee	-0.02356955
21	0xbcf1dead	-0.029525125
22	0x3bfe61b0	0.00776311
23	0xbc0a91bf	-0.0084576
24	0xbc8ab9cb	-0.016934296
25	0xbc0440d2	-0.008072095
26	0xbc9d639b	-0.019212535
27	0x3b27ea4c	0.002562183
28	0x3aea219e	0.0017862802
29	0xbcb77f8a	-0.022399683
30	0x3cdbfea9	0.02685483
31	0xbae21247	-0.0017247879
32	0xbb9f2f42	-0.0048579285
33	0xb9d906e4	-0.000413946
34	0xbbbeebdb	-0.005826456
35	0xbc71d3a1	-0.014759929
36	0x3b9e481d	0.004830374
37	0xbbc09a7c	-0.005877791
38	0x3c4a3956	0.0123427715
39	0xb9db267e	-0.00041799614
40	0xbaa6c291	-0.001272278
41	0xbc18249a	-0.00928607
42	0xba80ae87	-0.0009817638
43	0xbc265a0b	-0.010153304
44	0x3ca0e995	0.01964263
45	0x3b91d194	0.0044500325
46	0xbac57383	-0.0015064332
47	0x3bcda0f6	0.0062752916
48	0xba9d7d5e	-0.0012015512
49	0x3bfb88e1	0.0076762293
50	0xbc923fac	-0.017852627
51	0x3b89fba2	0.004210905
52	0x3c7f5185	0.015583401
53	0xbc10a63c	-0.008828696
54	0xbc58dbef	-0.01323603
55	0x3b979953	0.004626432
56	0x3befbe0d	0.007316357
57	0x3c325306	0.010884052
58	0x3ba44ccf	0.005014039
59	0xbb3bb0c8	-0.0028639305
60	0x3b176818	0.0023102816
61	0xbbc09c73	-0.005878025
62	0x3b3f5b2d	0.0029198632
63	0x3b8d53c2	0.004312963
64	0xbd084d6c	-0.03327696
65	0xbcbe7680	-0.023249865
66	0xbbb9aabe	-0.005666106
67	0x3c2a01b1	0.01037638
68	0xbb820fe3	-0.003969179
69	0x3c8d50b3	0.017250394
70	0xbc13c008	-0.009017952
71	0x3ac4803a	0.0014991828
72	0xbc89fd5b	-0.016844442
73	0x3d13c074	0.03607221
74	0xbbbb898d	-0.0057231844
75	0xbc8fc09a	-0.017547894
76	0xbcab5956	-0.020916622
77	0x3c92c42e	0.017915811
78	0xbc0aa3e4	-0.008461926
79	0xbb857716	-0.004073034
80	0xbb5d1f0a	-0.0033740425
81	0xbc7a776b	-0.0152872605
82	0xbc337dd5	-0.010955294
83	0xbbd18f4b	-0.0063952557
84	0xbce14e2b	-0.027503094
85	0xbcb987d9	-0.022647785
86	0xbb7e118a	-0.0038767778
87	0x3c766657	0.015039048
88	0x3cbca176	0.02302621
89	0x3c45ce6e	0.012073142
90	0xbba67219	-0.0050795195
91	0xbaafea12	-0.0013421199
92	0x3ce07a6c	0.027402125
93	0x3c22c2c4	0.009934131
94	0xbba1b754	-0.0049351845
95	0x3b0d2712	0.002153818
96	0xbc81c8fd	-0.015842909
97	0x3bb36754	0.005474964
98	0xbb882f0d	-0.0041559995
99	0xbd033a7f	-0.032038208
100	0x3d3d02ca	0.046145238
101	0xbc90cf9c	-0.01767712
102	0x3bf335f1	0.007422202
103	0x3b234476	0.0024912632
104	0xbd2f22d9	-0.042757843
105	0xbcbe8899	-0.023258494
106	0xbbe6aea1	-0.0070398604
107	0xbc5a23f4	-0.013314236
108	0xbcc1e95f	-0.02367085
109	0x3c806357	0.015672369
110	0xbc93f6f7	-0.018062098
111	0xbbacd33c	-0.0052742045
112	0xbb950b53	-0.004548469
113	0xbcc5a9ea	-0.024128873
114	0x3c68df6c	0.014213424
115	0x3c900a1d	0.017582947
116	0xbb9f7c41	-0.004867107
117	0x3bcc02dc	0.006225927
118	0xbba1b817	-0.0049352753
119	0x3d09339e	0.03349649
120	0x3b1058c2	0.002202556
121	0x383d3c08	4.511702e-05
122	0x3bd7e22c	0.006588241
123	0x3920939d	0.0001531378
124	0x3cda7344	0.026666291
125	0x3ccb36a8	0.024806336
126	0x3c55678a	0.013025174
127	0xbcf23049	-0.02956404
128	0x3c0173a1	0.007901103
129	0x3c8f6c80	0.017507792
130	0x3baa280f	0.0051927636
131	0xbd42568f	-0.04744583
132	0xbc2d1551	-0.010564164
133	0x38b37381	8.5568994e-05
134	0x3ba7750d	0.005110389
135	0x3cc64c7f	0.024206398
136	0xbc358f36	-0.011081507
137	0x3cfe2126	0.031021666
138	0x3b1d9028	0.0024042223
139	0x3c05c319	0.008164191
140	0xbc9a2423	-0.01881606
141	0xbc0f430b	-0.008744012
142	0xbabf272d	-0.0014583819
143	0xbc28ad36	-0.010295203
144	0x3c38cb64	0.011278961
145	0x3c52fc35	0.012877514
146	0xbc1da93f	-0.009622871
147	0xbca69699	-0.020335482
148	0x3c356371	0.011071072
149	0xbbc6701a	-0.006055844
150	0x3c746a80	0.01491797
151	0xbc8b8f15	-0.017036
152	0x3c324e6a	0.010882953
153	0x3bd29de8	0.0064275153
154	0x3cd877d2	0.026424322
155	0xbb294c7e	-0.0025832946
156	0x3bb4087d	0.005494176
157	0xbbdd51db	-0.0067541427
158	0xbb366bec	-0.0027835323
159	0x3c8b829a	0.01703005
160	0x3c9ea137	0.019363983
161	0xbc179061	-0.009250731
162	0xb8c6a222	-9.471575e-05
163	0xbb885416	-0.0041604144
164	0xbc59d2ae	-0.013294859
165	0xbc263094	-0.010143418
166	0xbabbe153	-0.001433412
167	0x3b44c6e4	0.0030025775
168	0xbc40dc5d	-0.011771289
169	0xbc9b92e1	-0.018990936
170	0xbbaae19f	-0.0052148844
171	0xbb537273	-0.0032264262
172	0x3be90155	0.0071107545
173	0x3b24119c	0.002503491
174	0xbccee91c	-0.02525764
175	0xbcb3d1a7	-0.021950556
176	0x3bda8192	0.006668278
177	0xbb0aa482	-0.0021155183
178	0xbbc4c4cd	-0.006004906
179	0x3b21d970	0.0024696253
180	0x3adac623	0.001669113
181	0xbc41de46	-0.011832779
182	0xbc5cde57	-0.013480744
183	0x3c806b4d	0.015676165
184	0x3b925e1f	0.0044667865
185	0x3ca4bd02	0.020109657
186	0xbc0e8c5f	-0.008700459
187	0x3d0273c3	0.03184868
188	0x3c241311	0.010014311
189	0xbd3e529b	-0.046465497
190	0xbbabeb95	-0.0052465894
191	0xbb140652	-0.0022586775
192	0xbc4d324b	-0.012524198
193	0xbb78df67	-0.0037974955
194	0x3b8c57eb	0.0042829416
195	0x3887a8b7	6.468727e-05
196	0x3b84a010	0.0040474012
197	0xb98435bc	-0.00025217037
198	0xbc7a4b5b	-0.015276755
199	0x3c017fa4	0.007903967
200	0xbce476f4	-0.027888753
201	0x3cc0456d	0.023470605
202	0x3bb06efd	0.0053843246
203	0xbc168b14	-0.009188432
204	0xbb0229a2	-0.001986124
205	0xbc3990a4	-0.011325989
206	0xbc15db93	-0.009146589
207	0x3cac17e6	0.02100749
208	0x3d48111b	0.048844438
209	0x3c346651	0.011010722
210	0x3b0300ad	0.0019989416
211	0xbc221432	-0.00989251
212	0x3a15bdc4	0.0005712176
213	0xbc1b4ea6	-0.0094792005
214	0x3ba7f553	0.0051256805
215	0xbccef185	-0.02526165
216	0x3c0a9b75	0.008459915
217	0x3ce9b748	0.028529778
218	0xbb15dd73	-0.002286759
219	0xbbb20659	-0.0054328856
220	0xbb992038	-0.00467303
221	0xbc43f6b2	-0.011960672
222	0x3c224d66	0.009906149
223	0xbd20e722	-0.039282925
224	0xbb0addfb	-0.002118944
225	0x3c6307b1	0.013856814
226	0x3b45e835	0.003019822
227	0xbcd8c4a4	-0.026460953
228	0xbca275c9	-0.019831555
229	0x391b5930	0.00014815177
230	0xbc906fef	-0.0176315
231	0x3bb763fe	0.005596637
232	0x3d2f83f7	0.04285046
233	0xbb2f8a29	-0.002678523
234	0xbc68cad3	-0.014208513
235	0xbbc08c14	-0.0058760736
236	0xbcf6adfc	-0.03011226
237	0xbb2b6db0	-0.0026157908
238	0xbd22835b	-0.03967605
239	0x3d08453b	0.03326915
240	0x3c8c56be	0.017131206
241	0xbad0aca1	-0.0015920588
242	0xbc4454b0	-0.011983082
243	0xbbae6964	-0.005322622
244	0x3c9c1b13	0.019055879
245	0x3c97d63d	0.018534774
246	0x3ccef2a3	0.025262183
247	0x3ca6b468	0.020349696
248	0xbc225ac5	-0.009909336
249	0x3b26a1a8	0.0025425944
250	0xb9c1dd59	-0.00036976745
251	0x3c529b9f	0.012854486
252	0xbced58ea	-0.028973062
253	0x3c01df5a	0.007926786
254	0x3c9174b9	0.017755853
255	0x3b876456	0.004131834
