D4PG/checkpoint_actor.pth (torch_old, 524811 bytes, 6 tensors)

network.0.weight f4 [400, 24]
0	0x3d4cfa90	0.050043643
1	0xbe2c39f5	-0.16818984
2	0x3d692108	0.056916267
3	0x3c2920e0	0.010322779
4	0x3d377e58	0.044798225
5	0xbdcc3fef	-0.09973132
6	0xbdcdd7c3	-0.10050919
7	0xbdff6771	-0.12470902
8	0x3d7462c0	0.059664488
9	0x3e2e9092	0.17047337
10	0x3dbafd94	0.091303974
11	0xbe10dc38	-0.14146507
12	0x3d64b9a0	0.05584109
13	0x3d429780	0.047507763
14	0xbe4aad9e	-0.19792792
15	0x3e2cd466	0.16877899
16	0x3e056d18	0.13029897
17	0xbde5b50b	-0.11216172
18	0xbdacde2e	-0.08440815
19	0x3e4a8db8	0.19780624
20	0x3d82a8f0	0.063798785
21	0xbe098fa4	-0.13433701
22	0xbe2d340f	-0.1691439
23	0xbdb71c17	-0.089409046
24	0xbe3ab577	-0.18233286
25	0xbd531fbb	-0.051543932
26	0x3d80ad2a	0.062830284
27	0xbe4c0d8b	-0.19927041
28	0xbd9532ed	-0.07285104
29	0x3e1c3ce8	0.15257609
30	0x3da56446	0.08075766
31	0xbd0b3da5	-0.033994336
32	0x3e22fdb0	0.15917087
33	0xbd58b530	-0.05290717
34	0x3d9650f0	0.07339656
35	0x3c56a3ac	0.013100546
36	0x3e451020	0.19244432
37	0x3e4bbd31	0.1989639
38	0xbd0e70b9	-0.03477547
39	0x3e1a8a32	0.1509178
40	0x3d989edf	0.07452177
41	0xbe0da74d	-0.13833351
42	0xbe24e261	-0.16101982
43	0x3e2491cf	0.16071247
44	0x3cd8fa6f	0.026486604
45	0xbe41b195	-0.18915398
46	0xbe3f2388	-0.18665898
47	0xbc645857	-0.0139370775
48	0xbcb98496	-0.02264623
49	0xbdf4d4f6	-0.119546816
50	0x3e340044	0.17578226
51	0xbde5af8f	-0.11215126
52	0x3cb552d8	0.02213423
53	0xbd9b0792	-0.07569803
54	0x3d463c44	0.048397318
55	0x3e55829e	0.20850608
56	0x3dd7fc52	0.10546173
57	0x3db1b989	0.08677966
58	0x3e48b6e3	0.19601016
59	0xbd7bcf11	-0.06147677
60	0xbbb7b3be	-0.0056061437
61	0xbe085ad3	-0.13315897
62	0xbe1eac73	-0.15495472
63	0xbc9cc844	-0.019138463
64	0xbc362f5c	-0.01111969
65	0xbdab1f7e	-0.08355616
66	0xbe492f9a	-0.19647065
67	0x3e31ca93	0.17362432
68	0x3d1ab895	0.037773687
69	0xbe1a8644	-0.15090281
70	0xbd727cf4	-0.059201196
71	0x3db08cfc	0.08620641
72	0xbe200b8f	-0.15629409
73	0x3d65ad49	0.05607346
74	0xbcccdb1e	-0.025006827
75	0x3e0428ad	0.12906142
76	0xbbe11ce0	-0.0068698972
77	0xbdb37f93	-0.08764567
78	0xbe2e8e26	-0.17046413
79	0xbd192c9f	-0.03739607
80	0xbe1d4fd4	-0.15362483
81	0xbe39f4fb	-0.18159859
82	0x3bf5de00	0.007503271
83	0x3c2ba624	0.010476623
84	0x3ddf0dd3	0.10891309
85	0xbd47b772	-0.04875893
86	0x3e13db46	0.14439115
87	0x3e281b30	0.16416621
88	0x3e0014ae	0.12507889
89	0xbdae7dd3	-0.08520093
90	0x3e1c1c7c	0.15245241
91	0x3e38f054	0.18060428
92	0x3d780e68	0.060560614
93	0xbc98346a	-0.01857968
94	0xbe463750	-0.19357038
95	0x3ce8a23d	0.028397674
96	0x3dde06ef	0.10841166
97	0x3e14fa33	0.14548568
98	0xbdf54c2e	-0.11977421
99	0xbe0328b6	-0.12808499
100	0xbe483dad	-0.19554777
101	0xbe12c0cb	-0.14331357
102	0xbd06fbb4	-0.032954887
103	0xbd98bf6e	-0.07458387
104	0x3df8adfc	0.1214256
105	0x3de53ef3	0.11193647
106	0x3e2ccb71	0.16874482
107	0xbc035a58	-0.008017145
108	0x3c958371	0.018251153
109	0xbe4a3e74	-0.19750386
110	0xbd024eaa	-0.0318133
111	0xbe4771bd	-0.19476981
112	0xbd927ab5	-0.07152311
113	0xbdeead92	-0.116542
114	0x3dfd5d4c	0.123713106
115	0x3e033b72	0.12815645
116	0xbd108586	-0.035283588
117	0x3e559e53	0.20861177
118	0x3d60acee	0.05485242
119	0xbdf0ebae	-0.11763702
120	0xbe236eb4	-0.15960199
121	0x3e3ab4c4	0.18233019
122	0xbca91558	-0.02064006
123	0x3e1a4872	0.15066698
124	0xbe17be18	-0.14818609
125	0xbe2c8291	-0.16846682
126	0xbdeb1f7e	-0.11480616
127	0x3d4a3080	0.04936266
128	0x3e202378	0.1563853
129	0x3d777770	0.06041664
130	0x3d7bf9e8	0.061517626
131	0xbe091e9a	-0.1339058
132	0xbe5093eb	-0.20368926
133	0xbe1e9a30	-0.15488505
134	0xbdcf9bce	-0.10137139
135	0xbd0e0420	-0.034671903
136	0xbdc2f7ca	-0.09519918
137	0x3e3c1bb5	0.18369944
138	0xbd998a84	-0.07497123
139	0x3df90970	0.12160003
140	0x3e298dc0	0.1655798
141	0xbda25328	-0.07926017
142	0x3d484e78	0.04890296
143	0xbd88473e	-0.06654213
144	0x3cebd64f	0.028788714
145	0xbdc63507	-0.09678083
146	0xbd2565f8	-0.040380448
147	0xbe611b5a	-0.2198309
148	0xbdf94d19	-0.12172908
149	0x3c4c76c6	0.01247949
150	0x3e29bbab	0.16575496
151	0xbe20802e	-0.15673897
152	0x3d4b5766	0.049643897
153	0x3d0fd715	0.035117228
154	0xbde8bb17	-0.113638096
155	0xbe487c71	-0.1957872
156	0xbcd260fc	-0.025681011
157	0xbd9515a5	-0.07279519
158	0xbe2d18e5	-0.16904028
159	0x3d473021	0.048629884
160	0x3d7dfd33	0.062009048
161	0x3c0f1c57	0.008734784
162	0x3e19955a	0.1499838
163	0xbdc00be3	-0.09377267
164	0xbe1842ea	-0.14869276
165	0xbd4dfac3	-0.050287973
166	0x3e3f3ffe	0.18676755
167	0xbda80d8c	-0.08205709
168	0x3df950fc	0.1217365
169	0xbbcd9f60	-0.0062751025
170	0xbd925d18	-0.071466625
171	0xbe1d66ae	-0.153712
172	0xbd8ff7aa	-0.0702966
173	0x3e0532a8	0.13007605
174	0xbcfda570	-0.030962676
175	0xbda02948	-0.07820374
176	0x3daaa4c0	0.08332205
177	0x3ddd1378	0.10794729
178	0xbda33f2b	-0.07971033
179	0x3e1661bc	0.1468572
180	0x3e1288d6	0.14310011
181	0xbde36a95	-0.11104313
182	0x3cba9040	0.022773862
183	0xbe2f2602	-0.17104343
184	0xbe1a63c1	-0.15077116
185	0x3d96c821	0.0736239
186	0xbdfde9f2	-0.12398137
187	0xbba104a0	-0.0049138814
188	0xbde30df1	-0.110866435
189	0x3e12dafb	0.14341347
190	0xbdfde85a	-0.12397833
191	0x3d978a14	0.07399383
192	0x3e2d5021	0.16925098
193	0xbe5a045e	-0.21290728
194	0xbe0a94f1	-0.13533379
195	0xbe1366f0	-0.14394736
196	0xbd99cea0	-0.07510114
197	0xbdb23364	-0.08701208
198	0x3db5005c	0.08837959
199	0x3dc99f8d	0.09844885
200	0x3dc821a7	0.09772044
201	0x3d5163ee	0.05112069
202	0xbc41222a	-0.0117879305
203	0x3dfcb596	0.12339322
204	0x3d93cf3d	0.07217262
205	0xbbe5e8ce	-0.007016278
206	0xbe2f4b01	-0.17118455
207	0xbca3bf55	-0.019988695
208	0x3db8f240	0.090305805
209	0x3dcaa8ed	0.09895501
210	0x3d9ff0c2	0.07809593
211	0x3e24bf46	0.1608859
212	0xbc014738	-0.007890515
213	0x3d70e6c4	0.058813825
214	0x3e05487e	0.13015935
215	0x3cd32c9c	0.025778107
216	0x3e1a2032	0.15051344
217	0x3e146856	0.14492926
218	0xbe1f2335	-0.15540774
219	0xbd15a62c	-0.036535427
220	0xbd304ba0	-0.04304087
221	0x3e076a5a	0.13224164
222	0x3d7a3160	0.061082244
223	0x3da2fd1c	0.07958433
224	0xbe1952f5	-0.14973052
225	0x3d685f83	0.056731712
226	0x3d608c20	0.054821134
227	0x3dc931f4	0.09823981
228	0xbe02f7d9	-0.12789859
229	0x3d78d246	0.060747407
230	0xbe314720	-0.17312288
231	0x3d1dfbd4	0.03857024
232	0xbdeedcfc	-0.11663243
233	0xbdea2709	-0.114332266
234	0xbd9840cb	-0.07434233
235	0xbe40ed6c	-0.1884057
236	0x3e495a43	0.19663338
237	0x3c794b47	0.015215701
238	0xbdee13ae	-0.11624847
239	0x3e014288	0.12623036
240	0x3bbb78e0	0.0057211965
241	0xbe2b68da	-0.16739216
242	0xbd42be38	-0.047544688
243	0xbdf24138	-0.11828846
244	0x3e1da22e	0.15393898
245	0x3dce0ec4	0.1006141
246	0xbb2f7f00	-0.0026778579
247	0x3d6c6c38	0.057720393
248	0x3e153d7e	0.14574239
249	0x3e0e0d2e	0.13872215
250	0xbd97d53c	-0.07413718
251	0xbe0276f4	-0.1274069
252	0x3d7d6fc0	0.06187415
253	0xbd8f7b9a	-0.07005997
254	0xbd63a5cc	-0.055578038
255	0xbd3ccaa8	-0.046091706

network.0.bias f4 [400]
0	0x3e09591c	0.13412899
1	0xbe19c0d2	-0.15014961
2	0x3e0f5f63	0.14001231
3	0x3e09739e	0.1342301
4	0x3cff0b44	0.031133302
5	0xbd486422	-0.04892362
6	0x3e209d85	0.15685089
7	0x3e367b94	0.17820579
8	0x3ddff2c8	0.10934979
9	0xbe068549	-0.13136782
10	0x3e14db23	0.14536719
11	0x3e50e455	0.20399602
12	0xbdaa0830	-0.08302343
13	0x3d54037e	0.051761143
14	0xbd7bd860	-0.06148565
15	0xbdd30a76	-0.1030473
16	0x3d00ec72	0.03147549
17	0xbd17701c	-0.03697215
18	0x3d8e116e	0.06936918
19	0xbe36ddaa	-0.17857996
20	0x3e5a0cbd	0.21293922
21	0xbe085603	-0.13314061
22	0xbdf0973c	-0.11747596
23	0xbd9fc0bb	-0.07800432
24	0x3e18150f	0.14851783
25	0xbcd910b2	-0.026497219
26	0x3e4c997b	0.19980423
27	0x3e2c857d	0.16847797
28	0xbe23c2b2	-0.15992239
29	0x3d1cd7d8	0.038291782
30	0xba0b0c80	-0.0005304292
31	0xbe40adac	-0.1881625
32	0xbd8ecdef	-0.069728725
33	0x3def9e41	0.117001064
34	0xbd69f74c	-0.057120606
35	0x3d878d10	0.066187024
36	0xbde9cd9b	-0.11416169
37	0x3e17bce6	0.14818153
38	0x3ca479c0	0.020077586
39	0xbd054664	-0.032537833
40	0x3e5a22d9	0.21302356
41	0x3ca27fa1	0.019836249
42	0xbdb7a11d	-0.08966277
43	0xbbd5c5c3	-0.006523819
44	0x3e22d354	0.15900928
45	0x3e4ba002	0.19885257
46	0x3d0c58d2	0.034264393
47	0xbd4816a0	-0.048849702
48	0xbe0d6b0a	-0.13810363
49	0x3e2681dd	0.16260476
50	0x3d9bd112	0.07608236
51	0x3e2d95e7	0.16951714
52	0x3e379ef6	0.17931733
53	0x3c0ebef8	0.008712523
54	0x3c87f888	0.016598001
55	0x3de98903	0.11403086
56	0x3e06c09c	0.13159412
57	0xbba50a0a	-0.005036597
58	0xbd043635	-0.03227826
59	0xbe0ecc3b	-0.13945095
60	0x3e435b4a	0.19077793
61	0x3de54dc6	0.11196475
62	0xbdd96aa0	-0.1061604
63	0x3c434e0d	0.011920464
64	0x3d6747fd	0.056465138
65	0x3e01df72	0.12682894
66	0xbe42605e	-0.18982074
67	0xbc9b865e	-0.01898497
68	0x3d7b974a	0.061423577
69	0x3c85f8fe	0.01635408
70	0x3e3ec6cc	0.18630522
71	0xbce88df2	-0.028387997
72	0xbdca6f3d	-0.09884498
73	0x3df78d56	0.120875046
74	0xbe4d3350	-0.20039105
75	0x3e59cb0f	0.21268867
76	0xbd24ce66	-0.0402359
77	0xbd5a4404	-0.05328752
78	0x3e38392f	0.17990564
79	0xbd884662	-0.066540495
80	0xbdd4023f	-0.10351991
81	0x3e555937	0.20834814
82	0x3d18cecf	0.037306603
83	0x3e27106a	0.16314855
84	0xbc1b8924	-0.009493146
85	0x3d6aa196	0.057283007
86	0xbcc122ad	-0.023576105
87	0xbd68684a	-0.056740083
88	0x3c2fd777	0.010732523
89	0x3e21402f	0.1574714
90	0xbd206886	-0.03916218
91	0x3e271b68	0.16319048
92	0x3e2bd101	0.16778947
93	0x3e13c5a5	0.14430864
94	0xbd645b8c	-0.05575137
95	0x3d7fd8f2	0.062462755
96	0xbdbd878a	-0.09254368
97	0x3df26ee9	0.11837561
98	0x3dc55773	0.0963582
99	0x3d472c9a	0.04862652
100	0x3d883a35	0.06651727
101	0x3d669840	0.05629754
102	0xbe4842df	-0.1955676
103	0x3dfcd37e	0.123450264
104	0x3d9e598d	0.07731924
105	0xbd011f26	-0.031523846
106	0x3df552b6	0.119786665
107	0x3e47d8b8	0.19516265
108	0x3e0ba231	0.1363609
109	0x3dab71f1	0.08371342
110	0xbe0199e6	-0.12656364
111	0x3e0970b0	0.13421893
112	0x3db5bc9d	0.08873866
113	0x3dd9c06b	0.10632404
114	0x3dd670d5	0.1047074
115	0xbe112a42	-0.14176276
116	0xbd9e4bfe	-0.07729338
117	0x3d99a7dd	0.075027205
118	0xbbf0562d	-0.0073344917
119	0xbacfb85a	-0.0015847788
120	0xba5a52be	-0.00083283696
121	0x3dd5463a	0.10413785
122	0x3dad5f7c	0.08465478
123	0xbe436435	-0.19081195
124	0x3dad0f1f	0.0845015
125	0x3d57cd44	0.05268599
126	0xbd77c26f	-0.06048816
127	0xbbf0d41d	-0.0073495046
128	0x3dfa63e2	0.122260824
129	0x3cbbaa9f	0.022908507
130	0x3e1eef35	0.15520938
131	0x3dfa2d68	0.12215692
132	0xbde42457	-0.11139744
133	0xbe6385b3	-0.22218971
134	0xbc46559c	-0.012105372
135	0x3e58e7b8	0.21182144
136	0x3d6ced98	0.057843775
137	0x3db5e19c	0.08880922
138	0xbcf7e45a	-0.030260254
139	0x3b69f8e4	0.003570133
140	0x3e2c33ad	0.16816588
141	0x3cc72a51	0.02431217
142	0x3db607a7	0.08888178
143	0xbe08c000	-0.13354492
144	0x3c9d0fee	0.019172635
145	0xbd8580f8	-0.065187395
146	0xbcb009d0	-0.021489054
147	0x3e314ec2	0.173152
148	0xbe3300a2	-0.1748071
149	0xbcb896af	-0.022532789
150	0x3e24e63f	0.16103457
151	0x3d511bc0	0.051051855
152	0xbd263ad4	-0.040583447
153	0x3da901eb	0.08252319
154	0x3e518a8a	0.20463005
155	0x3c9275bc	0.017878406
156	0x3d7901c9	0.060792718
157	0xbe04f3ca	-0.12983623
158	0x3e0fc64b	0.14040487
159	0xbe3de02f	-0.1854255
160	0x3ceb9ae7	0.028760387
161	0x3e0425d6	0.12905058
162	0xbd2344af	-0.039860424
163	0x3cfe9417	0.031076474
164	0xbe4a3d9f	-0.19750069
165	0xbe0a9b37	-0.13535772
166	0x3c48dcfe	0.01225972
167	0x3e355026	0.17706355
168	0xbd4443be	-0.047916166
169	0x3e430e91	0.19048525
170	0xbdb0a3fc	-0.086250275
171	0x3e01512d	0.12628622
172	0xbd02c3aa	-0.03192488
173	0xbc577640	-0.013150752
174	0x3e1c101b	0.15240519
175	0xbbf5f498	-0.0075059645
176	0xbe2e3f16	-0.17016253
177	0xbd20b14f	-0.039231595
178	0xbdb6a633	-0.08918419
179	0xbe0c206b	-0.13684241
180	0x3cbadd1d	0.022810513
181	0x3e1ef30b	0.15522401
182	0xbddf8827	-0.10914641
183	0x3db1ffc7	0.08691364
184	0xbe02b5de	-0.1276469
185	0xbdbeb769	-0.093123265
186	0x3e33dcd4	0.17564708
187	0x3e573c64	0.21019131
188	0x3e1528bb	0.14566319
189	0xbe166235	-0.146859
190	0xbe0b635c	-0.13612121
191	0xbdca4c9d	-0.09877894
192	0xbd4206ec	-0.047369882
193	0xbde7370a	-0.11289795
194	0xbdc985bc	-0.09839961
195	0x3dbbb8b2	0.09166087
196	0xbd021246	-0.03175571
197	0x3dea1be1	0.11431099
198	0xbdf1d708	-0.11808592
199	0x3e0801b5	0.13281901
200	0xbe340aea	-0.17582288
201	0x3ca54060	0.020172298
202	0xbd6d4040	-0.0579226
203	0x3cbe4964	0.023228355
204	0x3e4a1900	0.19736099
205	0x3d80955a	0.062784865
206	0x3d1a1ffe	0.037628166
207	0xbde34cbd	-0.11098621
208	0x3dccf7df	0.10008215
209	0x3dafe1f1	0.08588017
210	0xbd143bae	-0.036189727
211	0xbe405855	-0.18783696
212	0x3df4b1ce	0.11947976
213	0x3e4be87d	0.19912906
214	0xbd6ed780	-0.058310986
215	0x3dd7505a	0.10513373
216	0x3e0a01f9	0.13477315
217	0xbe0f6d54	-0.14006549
218	0x3e0329ad	0.12808867
219	0xbd867767	-0.06565743
220	0xbd1d136f	-0.03834861
221	0x3dbe1550	0.09281409
222	0x3bfe5990	0.0077621415
223	0xbd056e60	-0.032575965
224	0x3e23a632	0.15981367
225	0xbe45f813	-0.19332914
226	0x3c182c1a	0.009287858
227	0xbe395b10	-0.18101144
228	0x39e648c4	0.00043923233
229	0x3e3cf70b	0.18453614
230	0xbbcf4e91	-0.0063265045
231	0x3e037459	0.12837352
232	0xbdcb5e2c	-0.09930071
233	0xbdd28a45	-0.10280279
234	0x3e04d9e3	0.12973742
235	0xbdf13006	-0.11776738
236	0xbe471069	-0.19439854
237	0xbc7aa55a	-0.015298212
238	0x3e1dbce0	0.15404081
239	0xbcff8d7a	-0.031195391
240	0x3d00e3b7	0.031467166
241	0x3cb26c3b	0.021780124
242	0x3e07adf2	0.13249949
243	0xbdc697fb	-0.09696957
244	0xbd519d43	-0.051175367
245	0xbdc6a510	-0.09699452
246	0xbe2a004c	-0.16601676
247	0xbcae9512	-0.021311317
248	0xbdc23d39	-0.094843335
249	0x3e4aa382	0.19788936
250	0x3dd81537	0.105509214
251	0x3db19085	0.08670143
252	0x3e035a06	0.1282731
253	0x3e2365da	0.15956822
254	0x3d8b25ec	0.067943424
255	0xbe4c22bd	-0.19935127

network.2.weight f4 [300, 400]
0	0xbd05b4b4	-0.032643035
1	0xbd279af5	-0.040919263
2	0xbd48ad9e	-0.0489937
3	0x3d5a5a6a	0.05330888
4	0x3d330fb0	0.043716133
5	0xbb196f60	-0.0023412332
6	0x3ceb76dc	0.0287432
7	0x3c2e52e8	0.010639884
8	0xbbfc899c	-0.007706834
9	0xbd0feaa1	-0.03513587
10	0xbd19670e	-0.037451796
11	0xbd0c8e5c	-0.034315452
12	0x3d01c0ba	0.03167794
13	0x3d0e1c58	0.034695
14	0xbcbd08f0	-0.02307555
15	0x3aecdf6c	0.0018071956
16	0xbc82be00	-0.01595974
17	0x3c801b02	0.015637878
18	0x3b94d5f2	0.004542106
19	0xbc853fa0	-0.01626569
20	0xbc928bba	-0.017888892
21	0x3a9ecea0	0.0012116022
22	0x3d1d2dfe	0.03837394
23	0x3b078d02	0.0020683412
24	0x3c34584f	0.011007383
25	0x38fb91f4	0.000119957986
26	0x3d3e12d9	0.046404693
27	0xbc36bd75	-0.0111535685
28	0x3cce5c27	0.025190426
29	0x3ca8b66c	0.020594798
30	0x3cc6711c	0.024223857
31	0xbb38b781	-0.0028185549
32	0x3c12cba4	0.0089596845
33	0xbced6f14	-0.02898363
34	0xbd55ddb6	-0.052213393
35	0x3cb5edea	0.022208173
36	0xb9b5ff1d	-0.00034713084
37	0xbd4172fc	-0.0472288
38	0xbd406425	-0.046970505
39	0x3ca6c52b	0.020357689
40	0xbbc50b09	-0.0060132784
41	0x3c09a929	0.008402147
42	0xbd5af130	-0.05345267
43	0x3ceb8c25	0.02875335
44	0xbca03457	-0.019556208
45	0x3c8b19d3	0.016980087
46	0xbcfe3cf3	-0.031034922
47	0x3cc9254b	0.024553915
48	0xbc5d3894	-0.013502259
49	0xbcb97408	-0.022638336
50	0xbd11f3e6	-0.03563299
51	0x3c9476c8	0.018123046
52	0x3c2a2922	0.010385783
53	0xbd1c7709	-0.03819946
54	0x3d00e10f	0.031464633
55	0xbd51a2e3	-0.05118073
56	0xbcc42726	-0.023944449
57	0x3ba59ae6	0.0050538657
58	0x3d024837	0.03180715
59	0x3cc76b60	0.024343193
60	0xbd29a9f5	-0.04142185
61	0x3c6dfbdc	0.01452538
62	0xbc04f300	-0.008114576
63	0xbcbc56c6	-0.022990596
64	0xbc8a4696	-0.016879361
65	0x3d12d953	0.035851788
66	0x3c3e421d	0.011612442
67	0x3d120f49	0.03565911
68	0x3ccef28a	0.025262136
69	0x3cda2984	0.026631124
70	0x3c8d8a6a	0.017277915
71	0xbcb6d2e5	-0.02231736
72	0xbc8b2385	-0.01698471
73	0xbd2543d5	-0.040347893
74	0x3bb74e5d	0.0055940584
75	0xbc5a34c4	-0.013318244
76	0xbc8cd2d6	-0.017190378
77	0xbc9484b1	-0.018129678
78	0xbc6ce3de	-0.014458625
79	0x3d36ce7b	0.04463051
80	0xbd5a568c	-0.053305194
81	0xb883f0fc	-6.2914536e-05
82	0xbd5edb2d	-0.05440824
83	0xbc01a6e0	-0.007913321
84	0x3d14214b	0.036164563
85	0x3be4fd52	0.006988206
86	0x3d4b5c4b	0.049648564
87	0x3d0a9567	0.033833887
88	0x3c55ebbf	0.0130566945
89	0xbd26883f	-0.04065728
90	0xbcf85b03	-0.030316835
91	0x3d294a0c	0.041330382
92	0xbc7aaa7a	-0.015299434
93	0x3c2671f0	0.010159001
94	0xbcb92313	-0.022599733
95	0xbd00b55b	-0.031422954
96	0xbc83a868	-0.016071513
97	0x3cc8cee2	0.024512712
98	0xbd419216	-0.04725846
99	0x38a36527	7.791287e-05
100	0xbbce6567	-0.006298709
101	0xbcc6b9b3	-0.02425847
102	0xbd12a8dd	-0.03580557
103	0x3acdfdd2	0.0015715903
104	0x3c94fd5b	0.018187216
105	0xbcf8a7e6	-0.030353498
106	0x3c242ad8	0.01001998
107	0xbd4ef011	-0.050521914
108	0xbd584a4b	-0.052805226
109	0xbc9dacd0	-0.019247442
110	0xbc801961	-0.015637102
111	0x3c80a76a	0.01570483
112	0xbcf11e77	-0.029433472
113	0xbd179607	-0.03700831
114	0x3cfd6acf	0.03093472
115	0x3c0bb84a	0.008527825
116	0xbcc00463	-0.023439592
117	0xbc8252c4	-0.015908606
118	0x3d5ed80e	0.054405265
119	0x3c4a89fe	0.012362001
120	0xbc214016	-0.009841939
121	0xbd568823	-0.052375924
122	0x3d0167a7	0.03159299
123	0xbcb881c5	-0.022522816
124	0xbd2873ff	-0.041126247
125	0xbc91ebab	-0.01781257
126	0x3d225d97	0.039640035
127	0xbb7c3e2a	-0.00384892
128	0x3d0a73dd	0.033801902
129	0x3cea4ec0	0.028602004
130	0x3c19e8ec	0.009393912
131	0xbd0cb4cf	-0.03435212
132	0xbc5bc89b	-0.013414527
133	0x3bf80aed	0.007569662
134	0x3c60d3ab	0.013722341
135	0xbccc2bd3	-0.02492324
136	0xbc8caeda	-0.01717322
137	0xbcdff519	-0.027338551
138	0xbcddee13	-0.027091062
139	0x3b1ca353	0.002390106
140	0xbcaf06db	-0.021365574
141	0x3c00ac45	0.007853572
142	0x3c2576da	0.010099137
143	0xbce8876b	-0.028384885
144	0x3d0931da	0.033494808
145	0x3cb40635	0.021975616
146	0xbd4cab23	-0.049967896
147	0xbd363cb0	-0.04449147
148	0x3cdbf959	0.026852297
149	0x3d342620	0.04398167
150	0x3be0d290	0.0068610385
151	0xbd351748	-0.044211656
152	0xbd4117b9	-0.047141764
153	0xbcbdf58b	-0.023188373
154	0xb9ee9a50	-0.0004550987
155	0xbbd5c9a8	-0.0065242834
156	0x3d3612b0	0.044451416
157	0xbca49d29	-0.020094471
158	0xbcb49821	-0.022045197
159	0x3c2b8d25	0.010470663
160	0xbd37fca2	-0.044918664
161	0x3ce1b3b1	0.027551504
162	0x3b874e78	0.0041292273
163	0x3d16fcd0	0.036862195
164	0x3d48dde9	0.049039755
165	0xbd302654	-0.043005303
166	0x3c61c185	0.013779049
167	0x3cddad6a	0.02706023
168	0x3d01c739	0.031684134
169	0xbd45f410	-0.04832846
170	0x3cf5566e	0.02994844
171	0xbd33fc21	-0.04394162
172	0x3d1373e1	0.035999183
173	0x3d3627e9	0.044471655
174	0xbceb57da	-0.028728414
175	0xbb81d6fb	-0.0039623952
176	0xbbcb95eb	-0.00621294
177	0xbbe0816e	-0.0068513667
178	0xbc9a02d0	-0.01880017
179	0xbcb222a2	-0.02174503
180	0x3cf2a3d4	0.029619135
181	0x3d2480f9	0.04016206
182	0xbab7d3ed	-0.0014024951
183	0xbd0af890	-0.033928454
184	0x3cf04c86	0.029333364
185	0xbd01dd25	-0.03170504
186	0xbd56377a	-0.052299
187	0x3c19eb80	0.0093945265
188	0x3bc3cd25	0.005975383
189	0xbcb1506f	-0.021644799
190	0x3d2501cb	0.040284913
191	0xbbfac2bb	-0.007652608
192	0xbd204b92	-0.03913457
193	0xbd536546	-0.051610254
194	0xbd11852f	-0.035527404
195	0xbc847709	-0.016170042
196	0x3d186832	0.037208743
197	0xbd0f85f7	-0.03503987
198	0xbd114715	-0.03546818
199	0xbcb1edb2	-0.021719787
200	0xbd428d2f	-0.047497924
201	0x3c8c9520	0.017160952
202	0x3cc1a402	0.023637775
203	0xbd369fed	-0.04458611
204	0xbbb78c81	-0.005601466
205	0x3cce9f8d	0.025222564
206	0xbc0cb4b8	-0.008588009
207	0xbd5574c8	-0.052113324
208	0xbcb8b19f	-0.022545634
209	0x3b924480	0.0044637322
210	0xbcbc9163	-0.023018545
211	0xbd33f9c8	-0.04393938
212	0x3d29e2f8	0.04147622
213	0x3ccd9f76	0.025100451
214	0x3d24a944	0.040200487
215	0xbbedac5b	-0.0072532124
216	0xbc814d1f	-0.015783845
217	0x3d1cd641	0.038290266
218	0xbcb1062d	-0.02160939
219	0x3cb3d30b	0.021951219
220	0x3ca24b00	0.019811153
221	0xbc83e3e6	-0.016099881
222	0xbc3af556	-0.011411032
223	0x3cf4ebd4	0.029897608
224	0x3d1bf105	0.03807165
225	0x3cecf98c	0.028927587
226	0xbc7530e8	-0.014965273
227	0x3b8d1718	0.0043057315
228	0xbc9cee44	-0.019156583
229	0xbbe46983	-0.006970586
230	0xbcec45bc	-0.028841846
231	0xbcce2328	-0.025163248
232	0xbd1af591	-0.037831847
233	0xbd2b1485	-0.041767616
234	0x3c49b341	0.012310804
235	0xbd4b1839	-0.049583647
236	0xbc3efab8	-0.011656456
237	0xbd1b2349	-0.037875447
238	0xbcf84c49	-0.030309813
239	0x3d1b710e	0.037949614
240	0x3bfc1cb8	0.007693853
241	0x3c493ab5	0.012282063
242	0x3b8c4006	0.004280093
243	0x3d08d2ee	0.033404283
244	0x3d12dcd7	0.03585514
245	0x3cbbfb7a	0.022947062
246	0xbcc0bb9d	-0.023526961
247	0x3c21cae0	0.009875029
248	0x3d67f337	0.056628432
249	0x3c8c3779	0.017116295
250	0x3c74139b	0.014897252
251	0xbc089098	-0.008335255
252	0xbd48c122	-0.04901231
253	0x3d064606	0.032781623
254	0x3c58da0c	0.01323558
255	0xbd55cbac	-0.05219619

network.2.bias f4 [300]
0	0x3cd425b1	0.025896879
1	0xbd134d70	-0.035962522
2	0x3d2cbabd	0.042170275
3	0xbaebd5fe	-0.0017992852
4	0xbc67ad91	-0.014140503
5	0x3d0bf733	0.034171294
6	0xbd2da050	-0.042389214
7	0xbb4f6fa0	-0.0031652227
8	0xbbccaacc	-0.0062459465
9	0xbd17fd99	-0.037107084
10	0xbc5695c9	-0.013097235
11	0xbc4d548c	-0.012532365
12	0xbcfe14e7	-0.031015826
13	0xbcb06f2f	-0.021537391
14	0xbc8f7138	-0.017510042
15	0x3c83eefb	0.016105166
16	0x3bcbbfc8	0.0062179305
17	0xbce78c7a	-0.028265227
18	0xbcf25223	-0.029580181
19	0xbd5a2c9a	-0.05326519
20	0x3d4b70dd	0.04966818
21	0x3cbbd17d	0.02292704
22	0x3d26d8af	0.04073399
23	0x3d2ad683	0.04170848
24	0x3c65ecbc	0.014033493
25	0x3d1c108f	0.03810173
26	0x3d131410	0.035907805
27	0xbadb5034	-0.0016732276
28	0x3bb29060	0.0054493397
29	0x3ca479d9	0.020077633
30	0xbbf180ca	-0.007370089
31	0x3d36246a	0.04446832
32	0x3d09d3d6	0.033649288
33	0xbd404cda	-0.04694829
34	0x3d001756	0.031272255
35	0x3cfb66cb	0.030688664
36	0xbd6765f0	-0.0564937
37	0xbd422cb7	-0.047405925
38	0xbb73fccf	-0.0037229543
39	0x3cda0fb7	0.026618822
40	0xbd05311a	-0.03251753
41	0x3d61bc13	0.055111002
42	0x3c9cd432	0.019144151
43	0x3cc42582	0.023943666
44	0x3d105190	0.035234034
45	0xbc0caab2	-0.008585619
46	0x3d170601	0.03687096
47	0xbd2afef2	-0.04174704
48	0x3d8f949d	0.070107676
49	0x3c84168d	0.016124034
50	0x3a162e6d	0.0005728964
51	0xbcb675a6	-0.022272896
52	0x3ce7ef34	0.028312303
53	0x3bb035b9	0.005377498
54	0xbd5f8fa7	-0.054580357
55	0x3c347c3a	0.011015946
56	0xbd64e022	-0.055877812
57	0xbc1c0599	-0.009522819
58	0x3ac8e9ef	0.0015328507
59	0xbca9a3fd	-0.020708079
60	0xbd1ec496	-0.038761698
61	0x3d0ff471	0.035145227
62	0x3cd2e008	0.025741592
63	0x3d083c71	0.033260766
64	0x3b4285f8	0.0029681902
65	0xbd11042c	-0.03540437
66	0x3ca2b3df	0.01986116
67	0x3c93fe23	0.018065518
68	0x3d13211e	0.035920255
69	0x3cb0fc2b	0.021604618
70	0xbbfdd368	-0.007746149
71	0x3cccf9c8	0.025021449
72	0x3c81be0f	0.015837697
73	0xbd429a2f	-0.047510322
74	0xbc3ea357	-0.011635623
75	0xbcc0d928	-0.023541048
76	0xbd23b341	-0.03996587
77	0xbcc06550	-0.02348581
78	0xbd0cd486	-0.034382366
79	0x3b3d4ef8	0.002888618
80	0xbd44759a	-0.047963716
81	0x3d2e48f5	0.042550046
82	0xbc8c2493	-0.017107284
83	0xbcce52d7	-0.025185985
84	0x3cc03ed6	0.023467463
85	0x3c72e7f6	0.014825812
86	0x3d080360	0.033206344
87	0xbd3fdc98	-0.046841234
88	0x3a9b936d	0.0011869498
89	0x3a828378	0.0009957394
90	0xbc9700fa	-0.018433083
91	0x3bf8a886	0.007588449
92	0xbca182ab	-0.019715628
93	0x3aa490bf	0.0012555345
94	0x3ae421c0	0.0017405078
95	0x3c219916	0.009863159
96	0x3c90e8df	0.017689167
97	0xbc83cc8a	-0.016088743
98	0x3c83eea5	0.016105006
99	0xbd02aa5b	-0.031900745
100	0xbc27cfd9	-0.010242426
101	0xbd1fab50	-0.038981736
102	0x3ce4c56a	0.027926166
103	0xbd0b957d	-0.03407811
104	0xbd049c5e	-0.032375686
105	0x3d1a175e	0.03761994
106	0x3d4295a9	0.04750601
107	0xbd5b5665	-0.05354919
108	0x3c7f5140	0.015583336
109	0x3d127d03	0.03576375
110	0x3cd89ddf	0.026442466
111	0x3cfa4266	0.03054924
112	0xbc88cc3c	-0.016698949
113	0xbd101f37	-0.03518602
114	0xbd0ea4c2	-0.034825094
115	0xbd66e6b9	-0.056372378
116	0xbc9054b5	-0.017618516
117	0x3d442024	0.047882214
118	0xbc3ef28d	-0.011654508
119	0xbd14219f	-0.036164876
120	0x39a1d1d2	0.0003086464
121	0xbd358246	-0.04431369
122	0xbd56ed3d	-0.05247234
123	0x3c7a5ac8	0.015280433
124	0xbd1c63b8	-0.038181037
125	0xbd57bd79	-0.05267093
126	0x3c293844	0.010328356
127	0x3caebea2	0.021331135
128	0xbcc73590	-0.024317533
129	0x3d667520	0.056264043
130	0x3cb00cf6	0.021490555
131	0x3d072e92	0.033003397
132	0x3d1e0068	0.038574606
133	0x3d0f60ba	0.035004355
134	0x3cb468e5	0.022022674
135	0xbd1f2f00	-0.038863182
136	0x3a3179e2	0.0006770176
137	0x3d3326b1	0.04373807
138	0x3ca7e9bd	0.020497197
139	0x3cbbeb42	0.022939328
140	0xbb7119a5	-0.0036788967
141	0xbc047d59	-0.008086526
142	0x3d0d643f	0.03451943
143	0x3cdcacb8	0.026937827
144	0x3d37a6d8	0.04483685
145	0xbc04bd01	-0.008101703
146	0x3d3f33f8	0.04668042
147	0xbbf621bb	-0.007511345
148	0x39bed7a2	0.00036400283
149	0xbd5328ef	-0.05155271
150	0x3c1108e6	0.008852219
151	0xbd528572	-0.051396795
152	0xbd73433e	-0.0593903
153	0x3cf0b198	0.029381558
154	0x3ca07759	0.01958816
155	0x3c7d6326	0.015465533
156	0xbd615959	-0.05501685
157	0xbc87e670	-0.016589373
158	0xbd6f5f2e	-0.05844038
159	0x3c9df24e	0.019280579
160	0xbb9455ed	-0.0045268447
161	0x3ced355b	0.028956106
162	0x3d21ad63	0.039471995
163	0x3d11d08f	0.035599288
164	0x3d31d157	0.043412533
165	0xbd66bd85	-0.056333084
166	0x3c5870da	0.0132105
167	0xbb2e85bf	-0.0026630012
168	0xbd4bd5f3	-0.049764585
169	0x3bb4733c	0.005506901
170	0xbd30b54d	-0.043141652
171	0x3c51e0e4	0.012809966
172	0xbbcff19c	-0.0063459408
173	0x3d881d4a	0.066462114
174	0x3c7c323e	0.015392838
175	0x3d1498ad	0.036278415
176	0x3c8c8ddb	0.017157486
177	0xbc752975	-0.014963497
178	0x3bddca9a	0.0067685368
179	0x3c0deb00	0.008661985
180	0xbd2b0ea6	-0.041762017
181	0xbcb6b927	-0.022305084
182	0xbd176f5c	-0.036971435
183	0x3cdcef47	0.026969565
184	0x3cf12e85	0.029441128
185	0xbcde1eff	-0.02711439
186	0x3ca43bea	0.0200481
187	0xbbe26f1e	-0.006910219
188	0xbd49dd91	-0.049283568
189	0xbb34a460	-0.0027563795
190	0x3d3aa2ff	0.0455656
191	0x3ccd9410	0.025095016
192	0x3d36debb	0.044646006
193	0xbd0f1b08	-0.03493789
194	0xbcc40b60	-0.023931205
195	0xbc3d53dd	-0.011555639
196	0xbc8da159	-0.01728885
197	0x3c67c634	0.014146376
198	0xbd5813d3	-0.05275328
199	0x3d0dffb9	0.034667704
200	0xbcc21f75	-0.02369664
201	0x3cba448c	0.022737764
202	0x3cb30a25	0.021855423
203	0x3cdaad22	0.026693884
204	0xbd463d1e	-0.04839813
205	0x3ca52d7f	0.020163296
206	0xba2dfa00	-0.0006636679
207	0x3c4ca765	0.012491082
208	0x3d0edda2	0.034879334
209	0xbcf09f7a	-0.02937292
210	0x3d78e5f5	0.06076618
211	0x3c6e1b14	0.014532823
212	0x3c927435	0.017877677
213	0xbd04e626	-0.03244605
214	0xbbdbdcf2	-0.0067096883
215	0x3be48a62	0.0069745043
216	0x3aca5960	0.0015438013
217	0xbd4ce5ec	-0.050023958
218	0xbca0a08d	-0.019607807
219	0xb96641a4	-0.00021958962
220	0xbc830373	-0.015992856
221	0xbd456116	-0.04818829
222	0xbce2fa84	-0.027707346
223	0x3d2aef58	0.041732162
224	0x3c71b5c8	0.014752813
225	0xbd23a6c3	-0.03995396
226	0x3a9579d3	0.0011404104
227	0xbd6a63a3	-0.057223927
228	0xbc493409	-0.012280473
229	0x3d019a80	0.031641483
230	0x38a89b27	8.0397636e-05
231	0xbca1fabb	-0.019772878
232	0xbd3769d2	-0.044778652
233	0xbd1ec1f8	-0.0387592
234	0x3ca75015	0.020423928
235	0x3d359ce1	0.044339065
236	0xbd160b27	-0.03663173
237	0x3bceaa2c	0.006306907
238	0x3d1d1703	0.038352024
239	0xbbed9486	-0.0072503714
240	0xbd54cd6e	-0.051953726
241	0xbad33119	-0.0016112655
242	0x3d019338	0.03163454
243	0x3c65488e	0.013994349
244	0xbbd10c18	-0.0063796155
245	0x3c9f7f24	0.019469805
246	0x3c8ee0a6	0.017441105
247	0x3c214152	0.009842234
248	0x3d36b1ae	0.044603042
249	0x3c95828a	0.018250722
250	0x3c5524ed	0.013009292
251	0xbbc184c0	-0.0059057176
252	0x3bb0af76	0.0053920103
253	0x3d5f0258	0.054445595
254	0xbd15d7d4	-0.036582783
255	0x3cd04dc0	0.0254277

network.4.weight f4 [2, 300]
0	0x3cfb013c	0.030640237
1	0x3d4b1309	0.0495787
2	0xbd222e40	-0.03959489
3	0x3ce35db5	0.027754644
4	0xbd0a1e04	-0.03372003
5	0xbd1142c5	-0.035464067
6	0xbd52af57	-0.05143675
7	0x3a161840	0.00057256594
8	0x3cb74382	0.022371057
9	0x3cd97ff4	0.02655027
10	0xbabc4af0	-0.0014365595
11	0xbcb5a384	-0.022172697
12	0xbd58bb05	-0.05291273
13	0x3d42893e	0.047494166
14	0x3d531de8	0.051542193
15	0x3c76e610	0.0150695
16	0xbc27021f	-0.010193377
17	0x3d14b989	0.036309753
18	0xbd5020d1	-0.050812546
19	0xbb87e061	-0.004146621
20	0xbd50d42c	-0.050983593
21	0xbc3f4275	-0.011673559
22	0x3d336d7b	0.04380558
23	0x3d10b29e	0.035326593
24	0x3d3383bc	0.043826804
25	0xbd082dbc	-0.03324674
26	0xbd2f73d1	-0.04283506
27	0x3d9453df	0.0724256
28	0x3da1f1d4	0.07907453
29	0xbd3a5f9c	-0.045501336
30	0x3cf5e4fa	0.030016411
31	0x3d4b040b	0.049564403
32	0xbd587261	-0.052843455
33	0xbcd61c37	-0.0261365
34	0xbc829807	-0.015941633
35	0x3d1a0e79	0.03761146
36	0x3be5f17e	0.0070173135
37	0xbc03643e	-0.008019505
38	0x3d1e121e	0.038591497
39	0xba3873ea	-0.00070363155
40	0xbd1aa9c7	-0.03775957
41	0x3d3d2e63	0.046186816
42	0x3d81483c	0.06312606
43	0xbd38a7f5	-0.04508205
44	0x3d163ab9	0.036677096
45	0xbcf5b99d	-0.029995734
46	0x3b5344e0	0.0032237098
47	0xbd22f726	-0.03978648
48	0x3bb497e1	0.0055112694
49	0x3c41427b	0.011795635
50	0xbca706d5	-0.020389
51	0x3ce787c0	0.028262973
52	0xbd0cee65	-0.03440704
53	0x3c444b8f	0.011980905
54	0x3b5426b6	0.0032371706
55	0xbd2c3514	-0.042042807
56	0x3ba9da75	0.005183513
57	0x3d063a71	0.032770578
58	0xbd192559	-0.037389133
59	0xbc81d7a8	-0.015849903
60	0x3d3390f4	0.04383941
61	0xbc7d6f16	-0.0154683795
62	0xbd4fca85	-0.050730247
63	0x3cbedff6	0.023300152
64	0x39d34151	0.0004029372
65	0x3cb8614c	0.022507332
66	0x3d5feb7b	0.05466793
67	0x3c57c448	0.013169356
68	0x3ce6faf5	0.028195838
69	0xbb5df333	-0.0033866882
70	0x3d6ec712	0.058295317
71	0xbd284ca0	-0.0410887
72	0x3d67e1d3	0.056611847
73	0x3c360fa8	0.011112131
74	0x3d7c3afe	0.061579697
75	0x3d1fbe05	0.038999576
76	0xbc49899c	-0.012300875
77	0x3d5894c9	0.052876268
78	0x3c17402d	0.009231609
79	0xbc43dc7d	-0.011954424
80	0x3bab5085	0.0052281045
81	0x3d29c8fa	0.04145143
82	0xbd34e1aa	-0.044160523
83	0x3c02540d	0.00795461
84	0xbd2584bb	-0.040409785
85	0x3ceacec3	0.028663045
86	0xbb14ef57	-0.0022725665
87	0xbcdfa1f9	-0.027298914
88	0x3cfb5d71	0.030684205
89	0x3c2fe879	0.010736578
90	0x3cdfd875	0.027324894
91	0xbb8e5115	-0.004343162
92	0x3ca9658a	0.0206783
93	0x3d61c6cc	0.055121228
94	0x3d609174	0.054826215
95	0xbcf19948	-0.029492036
96	0x3c2dc12b	0.010605137
97	0x3d1245ed	0.035711218
98	0xbc95b204	-0.018273361
99	0x3d417b4f	0.047236737
100	0xbd23baf9	-0.039973233
101	0x3d23ce01	0.039991383
102	0x3d93366b	0.07188114
103	0x3d08d3ec	0.03340523
104	0x3d4f50b3	0.05061407
105	0x3cb55dfe	0.022139546
106	0x3d734179	0.05938861
107	0xbd101c8b	-0.03518347
108	0x3b85917d	0.0040761814
109	0x3d3cec19	0.046123598
110	0xbbc87d31	-0.0061184396
111	0x3d21c353	0.039492916
112	0x3c7a1898	0.015264653
113	0x3c06e35e	0.0082329195
114	0xbc1288fd	-0.008943793
115	0x3d0ddc6d	0.034634043
116	0x3d17aab7	0.03702804
117	0x3cc96f9d	0.024589354
118	0xbd229b96	-0.03969916
119	0x3cdbb93f	0.02682173
120	0x3d24bc9b	0.04021893
121	0x3aedda41	0.001814671
122	0xbd3a0b4c	-0.04542093
123	0xbcb5108a	-0.022102613
124	0xbd7e893a	-0.06214259
125	0xbcfa5935	-0.030560115
126	0xbd5759ca	-0.052575864
127	0xbc5950eb	-0.013263921
128	0x3d720700	0.059088707
129	0x3d561b5d	0.05227219
130	0x3c970d01	0.018438818
131	0xbca873ec	-0.020563088
132	0x3b7684b7	0.0037615725
133	0xbd21743b	-0.039417487
134	0xbd289e25	-0.041166443
135	0x3c0efeb3	0.008727717
136	0x3bd8b6a6	0.0066135703
137	0xbd3e2a57	-0.046427097
138	0x3d450861	0.048103694
139	0xbd35e1b6	-0.044404708
140	0xbc68f95b	-0.014219607
141	0x3c42eac3	0.011896792
142	0xbd50d8ba	-0.050987937
143	0xbd2ed5fb	-0.042684536
144	0xbc8df504	-0.017328747
145	0xbc3756e0	-0.011190146
146	0x3d6779ec	0.056512758
147	0x3d69f8f0	0.05712217
148	0x3d0919f5	0.03347202
149	0xbd0a6182	-0.033784397
150	0xbd033e40	-0.032041788
151	0x3af73e1c	0.0018863115
152	0xbd1483cb	-0.0362585
153	0x3d1a6dcf	0.037702378
154	0x3c8c1f92	0.017104898
155	0xbd03da6c	-0.032190725
156	0x3bf0abff	0.0073447223
157	0x3b93ce91	0.0045107086
158	0xbc0bb7d8	-0.0085277185
159	0xbccd2e6b	-0.025046548
160	0xbd315010	-0.043289244
161	0xbc8bc3c0	-0.017061114
162	0x3c379230	0.011204287
163	0x3d34ce4a	0.044142045
164	0xbd3b5493	-0.045734953
165	0x3d171c02	0.036891945
166	0x3d5ffb99	0.0546833
167	0xbd37e390	-0.044894755
168	0x3c8aa0ee	0.01692244
169	0x3d913d6e	0.07091795
170	0xbbbb1107	-0.005708817
171	0xbc8d1e1d	-0.017226273
172	0x3da06d46	0.07833342
173	0x3da67f33	0.0812973
174	0xbd1ad199	-0.037797544
175	0xbceca341	-0.02888644
176	0xbb990262	-0.0046694735
177	0x3d3afcce	0.04565125
178	0xbb03c604	-0.002010704
179	0x3d611552	0.054951973
180	0xbccfeef3	-0.025382495
181	0xbd39a3bb	-0.04532216
182	0x39dc8b85	0.0004206562
183	0x3d077555	0.03307088
184	0x3d408231	0.04699916
185	0x3d29fa5d	0.04149853
186	0xbce867fb	-0.028369894
187	0x3c1b90cb	0.009494971
188	0x3d5dd30d	0.05415635
189	0xbc6f6294	-0.014610905
190	0x3cda5150	0.026650101
191	0xbd328010	-0.04357916
192	0x3d86cef6	0.065824434
193	0x3d152a3d	0.036417235
194	0xbcfbae4a	-0.030722756
195	0x3b26d577	0.0025456825
196	0x3c3eb63e	0.01164013
197	0x3d18d437	0.03731176
198	0xbd1c4c50	-0.038158715
199	0x3cadb19e	0.021202859
200	0x3d3e9aa9	0.046534214
201	0xbd0493e6	-0.03236761
202	0x3c214e22	0.0098452885
203	0xbd3d1ff7	-0.046173062
204	0x3c9aaee4	0.018882222
205	0x3c861af0	0.016370267
206	0x3d139e70	0.03603977
207	0x3cdc256b	0.026873311
208	0xbd60cb57	-0.05488142
209	0xbce8d943	-0.028423911
210	0x3d52f67d	0.0515046
211	0xbcea5456	-0.028604668
212	0x3d3f93be	0.046771757
213	0x3af54d47	0.0018715047
214	0x3cde542f	0.027139751
215	0x3bbf44d2	0.0058370614
216	0xbc4df9b0	-0.012571737
217	0xb9d7daeb	-0.00041171102
218	0xbbee377e	-0.007269799
219	0xba96226e	-0.0011454353
220	0x3d79b15a	0.06096015
221	0xbb3aafb9	-0.0028486087
222	0x3cc55205	0.024086962
223	0xbc1217bc	-0.0089167915
224	0x3d28f7f3	0.041252088
225	0x3d3531fb	0.04423712
226	0xbd24f8f1	-0.04027647
227	0xbcf0a52e	-0.029375639
228	0xbd309e0f	-0.043119486
229	0xbb3b4703	-0.0028576262
230	0xbd3c8d7f	-0.04603338
231	0xbb89ba72	-0.004203134
232	0x3c1c143d	0.00952631
233	0x3d57ac23	0.052654397
234	0x3d37ecf9	0.04490373
235	0x3d034daa	0.032056488
236	0xbc0e912f	-0.008701607
237	0x3d82822a	0.06372483
238	0x3b8289b4	0.0039837006
239	0xbd117ecc	-0.035521314
240	0x3cd4f99a	0.025997926
241	0x3d243d90	0.040097773
242	0xbd493997	-0.049127188
243	0x3db3d56e	0.08780943
244	0xbbf16350	-0.0073665753
245	0x3d47c902	0.04877568
246	0xbc561634	-0.013066817
247	0x3d3453c6	0.044025205
248	0x3d23ce06	0.0399914
249	0xbcbca39c	-0.023027234
250	0x3da8d9c2	0.08244659
251	0x3d06ed6b	0.032941263
252	0x3b2a86ff	0.0026020405
253	0x3cc339d1	0.02383128
254	0x3cab7c46	0.020933282
255	0x3d5012b8	0.0507991

network.4.bias f4 [2]
0	0xbc992c95	-0.018698016
1	0xbceba000	-0.028762817
